model/2023-03-17-00-57-32.pth (torch, 229585 bytes, 50 tensors)

encode_conv_input.conv.weight f4 [32, 1, 3]
0	0xbf049fb0	-0.51806164
1	0x3ee1f093	0.44128856
2	0xbf01308e	-0.50464714
3	0xbeee9183	-0.46595392
4	0xbe8d3618	-0.27580333
5	0xbf0bb7d8	-0.545774
6	0x3e8dbdce	0.27683872
7	0x3da6b9e6	0.08140926
8	0x3f0d3bba	0.5516926
9	0xbeee8b03	-0.46590433
10	0xbd46e981	-0.04856253
11	0x3ede3a20	0.4340372
12	0xbd91d7a6	-0.0712121
13	0x3ea8c9b7	0.32966396
14	0xbf094cbb	-0.53632706
15	0x3c866b19	0.01640849
16	0x3e9e07a6	0.3086521
17	0x3b9f1583	0.0048548593
18	0x3c1313a7	0.008976853
19	0xbeab69ff	-0.33479306
20	0xbe486415	-0.19569428
21	0x3eb1dedf	0.3474035
22	0xbe2dda4f	-0.1697781
23	0xbef9b917	-0.48774025
24	0xbf01bb1c	-0.5067613
25	0x3f0bbe49	0.5458723
26	0xbe203600	-0.156456
27	0x3e37dfb6	0.17956433
28	0xbeadd64e	-0.33952564
29	0x3e83a974	0.2571522
30	0xbdfc2808	-0.12312323
31	0xbefffa50	-0.4999566
32	0x3ea6e41c	0.3259591
33	0xbd56b87e	-0.05242204
34	0xbecefece	-0.40428776
35	0xbf0050c5	-0.50123245
36	0x3e3d4de0	0.18486738
37	0xbe3c6e99	-0.18401565
38	0x3eaa2cd4	0.33237326
39	0x3ebc964d	0.3683342
40	0x3e49f406	0.19721994
41	0x3cc907f5	0.024539927
42	0xbea06709	-0.3132861
43	0x3d974214	0.0738565
44	0xbd65c384	-0.05609466
45	0x3e0d6350	0.13807416
46	0x3e1259a4	0.14292008
47	0x3e77de90	0.24205995
48	0x3d933f41	0.07189799
49	0xbe2908ac	-0.16507214
50	0x3eab55d9	0.33463934
51	0x3de5f539	0.11228413
52	0x3f09c8ad	0.5382183
53	0x3ec04579	0.37553003
54	0xbe96ef7a	-0.2947958
55	0xbebc527e	-0.36781687
56	0xbef4fd0b	-0.47849306
57	0xbe4f0d2e	-0.20219871
58	0x3f05ad2c	0.52217364
59	0x3e229168	0.1587578
60	0x3e864cae	0.26230377
61	0xbf05543c	-0.52081656
62	0xbe754471	-0.2395189
63	0xbd9a0ded	-0.075221874
64	0xbee69288	-0.4503367
65	0x3dad9368	0.08475381
66	0x3f0861c4	0.5327418
67	0xbea8c87f	-0.32965466
68	0x3e8fe939	0.28107622
69	0xbd6e814a	-0.05822877
70	0x3f0b56d9	0.54429394
71	0x3ec4c023	0.3842784
72	0xbe6ad684	-0.22933394
73	0x3f0c4002	0.5478517
74	0xbeed679e	-0.46368116
75	0x3ebc5314	0.36782134
76	0xbcad9203	-0.021187788
77	0x3e673854	0.22580081
78	0x3eea2716	0.45732945
79	0xbf03196a	-0.51210654
80	0xbecd85ca	-0.40141135
81	0xbec0b0eb	-0.37634978
82	0x3ecdd2b5	0.4019982
83	0xbe75bafd	-0.23997112
84	0x3c8f99ba	0.017529357
85	0x3dc00a62	0.0937698
86	0xbceeee00	-0.029166222
87	0x3c0d3103	0.008617642
88	0xbe8a4915	-0.27008882
89	0xbbbeb21a	-0.005819571
90	0x3e719e04	0.23595434
91	0x3e7b9b1c	0.24570888
92	0x3f119aab	0.5687663
93	0xbedf0ec7	-0.43565962
94	0x3e8ae82c	0.27130258
95	0x3f12c6c7	0.5733456

encode_conv_input.conv.bias f4 [32]
0	0xbda8370c	-0.08213624
1	0x3d904161	0.0704372
2	0x3ef7741c	0.48330772
3	0x3d8f725e	0.07004236
4	0xbd116aad	-0.035502125
5	0xbef4d326	-0.47817343
6	0xbe1e7768	-0.15475237
7	0x3e983056	0.29724377
8	0xbd8aa5c0	-0.067698956
9	0x3eaedc06	0.3415224
10	0x3f0458b6	0.5169786
11	0x3c739558	0.014867149
12	0xbe80c2bf	-0.2514858
13	0xbeedb85e	-0.46429724
14	0xbd7cfb3f	-0.061763044
15	0x3eaec96c	0.34138048
16	0xbf0e7652	-0.5564929
17	0x3ea0b0ad	0.31384793
18	0xbe1b83db	-0.15187018
19	0xbd794139	-0.060853217
20	0x3e800930	0.2500701
21	0xbe83153d	-0.2560214
22	0x3d8d921e	0.06912635
23	0xbe0fe6b6	-0.14052853
24	0x3cce731d	0.025201375
25	0x3f0958ef	0.53651327
26	0x3f0b0bd4	0.54314923
27	0xbe1cf0c9	-0.15326227
28	0x3ee13a47	0.43989775
29	0xbe8697e9	-0.26287773
30	0x3eda66ee	0.42656654
31	0x3ee574c9	0.44815663

encode_res_dense_blocks.0.conv1.conv.weight f4 [32, 32, 3]
0	0xbd6df2cf	-0.05809289
1	0xbdc0e98a	-0.09419544
2	0x3dbfe241	0.093693264
3	0xbc00e9d0	-0.007868245
4	0x3d9e7471	0.07737053
5	0x3db3e49b	0.087838374
6	0x3d1fb526	0.038991116
7	0x3cf19009	0.029487627
8	0x3d1e61d7	0.038667526
9	0xbd456356	-0.048190437
10	0x3aa9bba9	0.0012949604
11	0x3cc1f971	0.023678513
12	0xbd85d1de	-0.065341696
13	0xbd24735d	-0.04014908
14	0x3dad70ee	0.08468805
15	0xbcab170f	-0.020885019
16	0xbd6f8a9e	-0.058481805
17	0x3dc31eda	0.09527369
18	0x3b891d9f	0.0041844393
19	0xbc547379	-0.012966984
20	0x3d21cddb	0.03950296
21	0xbc93c0db	-0.018036297
22	0x3d4eb8ed	0.050469328
23	0x3a184cb7	0.0005809771
24	0xbd10cfd1	-0.03535444
25	0x3cb0d247	0.021584643
26	0xbd97e4d0	-0.074166894
27	0x3d71ebf7	0.059062924
28	0xbd8d1243	-0.06888249
29	0xbd462dfd	-0.0483837
30	0xbc743ae4	-0.014906619
31	0x3cee563d	0.029093856
32	0xbd512163	-0.05105723
33	0x3d623a38	0.055231303
34	0xb99005e7	-0.00027470218
35	0x3dbcc4e3	0.09217241
36	0xbdb48c58	-0.08815831
37	0x3d2daec0	0.042402983
38	0xb9b571af	-0.0003460771
39	0x3dae055e	0.084971175
40	0x3db213f8	0.08695215
41	0x3ce93c03	0.028470999
42	0x3d30c5cb	0.04315738
43	0xbdcc9756	-0.099898025
44	0xbdb1ab1e	-0.08675216
45	0x3d18814a	0.037232675
46	0x3ca94cfa	0.020666588
47	0xbd143b3a	-0.036189295
48	0x3ce2b4c0	0.027674079
49	0xbc4b94dd	-0.0124256285
50	0xbdbe8f11	-0.093046315
51	0xbda23136	-0.079195425
52	0x3d94df9c	0.072692126
53	0x3c305e46	0.010764664
54	0xbda46d5b	-0.080286704
55	0xbd7a365b	-0.061086994
56	0xbcfc1f95	-0.030776778
57	0xbd111123	-0.035416733
58	0x3cc39486	0.023874532
59	0x3dc2c90f	0.09511005
60	0x3d8ca1aa	0.068667725
61	0x3caef78f	0.02135828
62	0x3d5396da	0.051657535
63	0x3be474f2	0.006971949
64	0x3d294795	0.04132803
65	0xbd21a526	-0.03946414
66	0x3d40ef8d	0.047103453
67	0xbd33d391	-0.043902937
68	0xbc83d900	-0.016094685
69	0xbdc513da	-0.09622927
70	0x3db1f596	0.0868942
71	0x3ce64eab	0.028113684
72	0x3d9fa0f9	0.07794375
73	0xb7d16458	-2.4961468e-05
74	0x3bf58923	0.0074931546
75	0x3dc3430f	0.09534275
76	0x3d0a1fb2	0.033721633
77	0x3d411159	0.047135685
78	0x3daefcf8	0.08544344
79	0x3d7d39ed	0.06182282
80	0xbd832dc7	-0.06405216
81	0x3b65544f	0.0034992879
82	0xbd82415f	-0.06360125
83	0x3bc590c4	0.0060292203
84	0x3d75f485	0.060047645
85	0xbd91a7ec	-0.07112107
86	0x3d3edd5f	0.046597835
87	0x3da528c8	0.08064419
88	0x3d9b3da5	0.07580117
89	0x3dab6369	0.0836857
90	0x3d40d9b5	0.04708262
91	0xbdaf9e09	-0.08575065
92	0x3dbe15a5	0.09281472
93	0xbc0cfd41	-0.008605302
94	0x3d2b79b7	0.041864123
95	0xbdd9368c	-0.10606107
96	0x3d602019	0.05471811
97	0x3d18b62c	0.037283108
98	0xbdb257a0	-0.087081194
99	0x3d6a482c	0.057197735
100	0x3d39cded	0.0453624
101	0x3d8eba45	0.06969122
102	0xbda06656	-0.07832019
103	0xbca1d9b9	-0.019757139
104	0xbd9527ee	-0.072830066
105	0xbca32ae6	-0.019917917
106	0x3d848677	0.0647096
107	0x3b112d11	0.0022152106
108	0x3da72e03	0.08163073
109	0x3cb017c0	0.0214957
110	0x3cb0c0a4	0.021576233
111	0x3b2bced5	0.002621581
112	0xbd9a8aad	-0.075459816
113	0x3d83f187	0.06442552
114	0x3d977f5f	0.07397341
115	0xbbd9cfbc	-0.0066470783
116	0xbd987d10	-0.07445729
117	0xbd1a8e1c	-0.037733182
118	0xbd6c108e	-0.057632975
119	0x3d1ad19c	0.037797555
120	0xbce91cda	-0.02845614
121	0xbd495b7c	-0.049159512
122	0xbd8366f2	-0.0641612
123	0xbdc7b2d5	-0.097509064
124	0xbd7dd77f	-0.06197309
125	0xbcfa9403	-0.030588156
126	0xbdd91672	-0.10599984
127	0xbcdfa115	-0.02729849
128	0xbdac1912	-0.08403219
129	0xbdb27c2c	-0.0871509
130	0x3dc4f8f3	0.09617796
131	0xbdb13691	-0.08652986
132	0xbc2b42ac	-0.0104529075
133	0x3d9b3787	0.075789504
134	0x3d1fb14a	0.038987435
135	0xbcf5f970	-0.030026168
136	0xbda2ddd7	-0.07952469
137	0x3db067e5	0.08613566
138	0x3d0969de	0.03354823
139	0x3ddec2d0	0.10877001
140	0x3d5308ec	0.05152218
141	0xbd917c92	-0.07103838
142	0xbd7eb763	-0.06218661
143	0x3d1c0e3d	0.038099516
144	0x3b00f4eb	0.0019677232
145	0x3c42efa5	0.011897956
146	0xbd08e0de	-0.033417575
147	0x3bd6dac6	0.0065568415
148	0x3db98b90	0.090598226
149	0x3d8f02b4	0.069829375
150	0xbd43f86a	-0.047844328
151	0xbd0024fa	-0.031285264
152	0xbdabe3b0	-0.08393037
153	0x3cfb9240	0.030709386
154	0x3d865f0f	0.065611
155	0xbd7be66d	-0.061499048
156	0x3d6f9fbb	0.05850194
157	0x3d3e5f13	0.04647739
158	0x3cbdd0db	0.02317088
159	0x3d830c22	0.063987985
160	0x3dc5848d	0.09644423
161	0x3d78649c	0.060642824
162	0x3d03541c	0.032062635
163	0x3d49ce5a	0.049269058
164	0xbc0e598b	-0.008688341
165	0xbdba1bd4	-0.09087339
166	0xbdcf490c	-0.101213545
167	0x3dbdf57a	0.092753366
168	0x3cca8930	0.02472362
169	0xbdb457ad	-0.08805785
170	0xbc76f886	-0.015073901
171	0xbd911d4f	-0.07085668
172	0xbb0fce64	-0.0021943087
173	0xbde789f6	-0.11305611
174	0xbda7028f	-0.08154785
175	0xbd39bddb	-0.045347076
176	0x3d8b17c7	0.067916445
177	0x3ced3887	0.028957618
178	0xbb5ee84b	-0.003401297
179	0xb9a06f47	-0.00030600486
180	0x3db33504	0.08750346
181	0xbdaccad8	-0.08437127
182	0x3d31408a	0.04327444
183	0xbc577987	-0.013151533
184	0x3d8fa30d	0.07013521
185	0xbd51c135	-0.051209647
186	0xbd0b817c	-0.034059033
187	0xbcb2b229	-0.021813469
188	0x3c393a2f	0.011305376
189	0xbd4c2f69	-0.0498499
190	0x3d10a106	0.035309814
191	0xbc39d9b4	-0.011343408
192	0x3da30c98	0.079613864
193	0x3d859e54	0.06524339
194	0x3dd437a5	0.10362176
195	0x3d37951e	0.044819944
196	0x3db2e986	0.08735947
197	0xbdbc9513	-0.09208121
198	0xbdb5c8d7	-0.08876198
199	0xbd0314e1	-0.032002334
200	0x3c7cf60a	0.01543952
201	0x3d5262da	0.051363803
202	0xbb46ad82	-0.003031582
203	0xbcbb3f7b	-0.022857418
204	0xbd5b62d2	-0.05356104
205	0x3d132960	0.03592813
206	0xbc8f5a20	-0.01749903
207	0x3c2596e2	0.010106774
208	0x3c31d036	0.010852864
209	0xbdb841f5	-0.08996955
210	0xbcc5d99c	-0.024151616
211	0xbdd620ad	-0.10455451
212	0x3b806b75	0.00391906
213	0x3d88284a	0.066483095
214	0xbdb113fd	-0.086463906
215	0x3d10d748	0.03536156
216	0x3d2d37c7	0.04228952
217	0xbdd54fc6	-0.10415606
218	0x3d418b00	0.0472517
219	0xbca180f9	-0.01971482
220	0xbc08b799	-0.008344554
221	0xbdb707a3	-0.089370035
222	0xbda44a52	-0.08021988
223	0xbd8d0d16	-0.068872616
224	0xbb119ec4	-0.0022219876
225	0x3cb71ca6	0.022352528
226	0xbc892a99	-0.016743945
227	0xbd8888e3	-0.06666734
228	0xbdcae20d	-0.09906397
229	0x3cb54732	0.022128675
230	0xbd9ad671	-0.07560433
231	0xbcc90dfb	-0.0245428
232	0xbd202e2b	-0.03910653
233	0xb9fb5082	-0.00047934434
234	0xbdd81b45	-0.10552076
235	0x3dbf4e9c	0.093411654
236	0x3d8e8d5a	0.069605544
237	0x3d028ee2	0.031874545
238	0xbc258435	-0.010102321
239	0x3d8ddd25	0.069269456
240	0xbdd03897	-0.10167044
241	0x3d999c4e	0.07500516
242	0x3c6e769e	0.014554648
243	0x3d861245	0.065464534
244	0xbc9f2293	-0.019425666
245	0xbc875aec	-0.016522847
246	0x3ca76310	0.020432979
247	0x3db073aa	0.08615811
248	0x3d94ecb2	0.072717085
249	0xbd16b9d4	-0.036798313
250	0x3c125381	0.008931042
251	0xbc886a45	-0.016652236
252	0xbd75ba2f	-0.05999201
253	0xbd1c4943	-0.038155805
254	0x3d15429f	0.036440488
255	0xbd7180b0	-0.058960617

encode_res_dense_blocks.0.conv1.conv.bias f4 [32]
0	0x3cb24eba	0.021766055
1	0xbd584a01	-0.05280495
2	0xbd8ffe0d	-0.07030878
3	0x3dacf072	0.08444299
4	0x3d2923dd	0.041293968
5	0x3de3ce80	0.11123371
6	0xbd42970f	-0.047507342
7	0xbd005dde	-0.03133952
8	0x3d82a34e	0.06378804
9	0x3d8569e3	0.06514337
10	0xbd869059	-0.06570501
11	0x3cc6e55b	0.024279287
12	0x3be34f10	0.006936915
13	0xbda34ae7	-0.07973271
14	0x3ddc2ed9	0.10751123
15	0xbdb3f6c9	-0.08787305
16	0xbda079eb	-0.07835754
17	0xbd80c24e	-0.06287061
18	0xbc6f0695	-0.014588972
19	0x3dab5367	0.08365517
20	0x3be45d3c	0.006969122
21	0xbdad6849	-0.084671564
22	0x3d30b97d	0.043145645
23	0x3d396312	0.045260496
24	0x3c93edce	0.01805773
25	0x3dab9042	0.08377124
26	0xbd719191	-0.058976714
27	0xbc1af23a	-0.009457165
28	0xbd3ca3a8	-0.046054512
29	0x3bb72942	0.005589635
30	0xbd1b2494	-0.03787668
31	0xbdb76d7a	-0.08956428

encode_res_dense_blocks.0.conv2.conv.weight f4 [32, 32, 3]
0	0x3a7b386a	0.00095832965
1	0x3d2ffe11	0.042966906
2	0x3cb54079	0.02212547
3	0x3d97e2e5	0.074163236
4	0xbd91c398	-0.07117385
5	0xbd426e8b	-0.047468703
6	0x3d38a482	0.045078762
7	0xbbb22b33	-0.0054372787
8	0xbad9798b	-0.0016592009
9	0xbd846a78	-0.0646562
10	0xbbdac4f3	-0.00667631
11	0xbbd215ae	-0.006411276
12	0xbc2bc7f3	-0.010484683
13	0xbd8d7644	-0.06907323
14	0xbb49e0d8	-0.0030804183
15	0xba3b2297	-0.0007138638
16	0x3d47caf2	0.048777528
17	0xbd6df3a3	-0.05809368
18	0xbc0a95d2	-0.0084585715
19	0xbd81e542	-0.063425556
20	0x3dc8ac36	0.09798472
21	0x3d140bfb	0.036144238
22	0xbd8478c8	-0.0646835
23	0x3d3a5cfc	0.045498833
24	0xbdaec58c	-0.08533773
25	0x3cd36761	0.02580613
26	0xbd692e4d	-0.05692892
27	0xbcfe7c40	-0.031065106
28	0x3d177445	0.036976118
29	0xbd07e475	-0.033176858
30	0xbc1c9960	-0.009558052
31	0xbdc51d41	-0.0962472
32	0x3d90cca8	0.07070285
33	0x3dc226c3	0.094800495
34	0x3d21feb7	0.039549556
35	0xbd727ab4	-0.05919905
36	0xbd853468	-0.06504136
37	0xbd137e6f	-0.03600925
38	0x3d9b4aaa	0.075826004
39	0xbc5f3064	-0.013622377
40	0x3d3420dd	0.043976653
41	0x3bc93649	0.0061405045
42	0xbdba3e2e	-0.09093891
43	0x3d59a49b	0.053135496
44	0x3db44706	0.08802609
45	0x3dc34ec6	0.09536509
46	0xbd5d6a4a	-0.054056443
47	0x3c3d8cbf	0.011569201
48	0xbc29d8e8	-0.010366656
49	0x3bdd7425	0.0067582303
50	0x3db7e73f	0.089796536
51	0x3d53c723	0.051703583
52	0x3dbba51e	0.09162353
53	0xbd0e5c7b	-0.034756165
54	0x3dc24274	0.09485331
55	0x3d9e1c22	0.0772021
56	0x3d9295ba	0.07157464
57	0xbcf678f4	-0.030086972
58	0xbcb354b3	-0.021890974
59	0xbc02ff95	-0.007995506
60	0xbcee4768	-0.029086784
61	0xbd385f94	-0.045013025
62	0x3db18b52	0.08669151
63	0xbccfdc8d	-0.025373721
64	0x3c4a8b8e	0.012362374
65	0x3db9bbe2	0.09069039
66	0xbc9201c2	-0.017823104
67	0xbd71f01e	-0.059066884
68	0x3d8852cc	0.06656417
69	0xbc4aa67c	-0.0123687945
70	0x3d565b4f	0.052333172
71	0xbbc530d0	-0.006017782
72	0xbd105d4c	-0.035245225
73	0x3d76a513	0.06021602
74	0xbd081e74	-0.033232167
75	0x3b45b063	0.003016495
76	0xbd64bd38	-0.055844516
77	0xbd9af785	-0.07566742
78	0x3d05ea5a	0.0326942
79	0xbd228605	-0.039678592
80	0x3d5548c2	0.05207134
81	0x3d8920e3	0.06695726
82	0xbb6f9bc9	-0.003656136
83	0x3d82976f	0.0637654
84	0x3d483672	0.048880048
85	0xbdd68c6a	-0.104760006
86	0xbadc9c47	-0.0016831242
87	0xbcae82c6	-0.021302592
88	0xbd996755	-0.07490412
89	0xbc8fe796	-0.017566483
90	0xbd5838da	-0.052788593
91	0xbb865b70	-0.0041002557
92	0x3d77c25d	0.060488094
93	0xbd868fa6	-0.065703675
94	0xbb229794	-0.0024809586
95	0xb9759a1a	-0.00023422428
96	0x3d7a764f	0.061147984
97	0x3dc488ce	0.09596406
98	0x3bd30a03	0.0064404025
99	0x3d7d5d07	0.061856296
100	0x3ce168da	0.027515817
101	0x3c8b4e82	0.017005209
102	0xbd325b4c	-0.0435441
103	0x3dc5cac0	0.09657812
104	0x3cfcbc54	0.03085152
105	0x3da2d418	0.0795061
106	0xbd9e98a3	-0.07743957
107	0x3dab33b5	0.08359472
108	0xbc807727	-0.015681816
109	0x3d0c5963	0.034264933
110	0xbc348ad9	-0.011019432
111	0xbd768295	-0.060183126
112	0x3d8f6d80	0.07003307
113	0x3c744bbf	0.014910637
114	0x3af63ceb	0.0018786466
115	0xbcebd43f	-0.02878773
116	0xbd6e9d05	-0.058255214
117	0xb8eaef2e	-0.0001120254
118	0x3d75b460	0.059986472
119	0xbdae4e9a	-0.08511086
120	0xbdafb9cd	-0.085803606
121	0x3cc6dc98	0.02427511
122	0x3d48b221	0.048998002
123	0x3d9c4f30	0.07632291
124	0xbcb97eb9	-0.022643434
125	0xbdaf341a	-0.085548595
126	0xbd3bad71	-0.045819703
127	0xbd893487	-0.06699472
128	0x3db79c5f	0.08965372
129	0xbda57d7b	-0.08080574
130	0x3d85380e	0.06504832
131	0xbcfa4fc0	-0.030555606
132	0x3dc2ffd2	0.0952145
133	0xbdb82383	-0.08991148
134	0xbd2cf06a	-0.042221464
135	0x3d2b72e8	0.04185763
136	0xbda1c534	-0.07898942
137	0xbca29f85	-0.019851455
138	0x3dc071e8	0.09396726
139	0xbce5d416	-0.028055232
140	0xbc164bf2	-0.00917338
141	0x3d592d00	0.05302143
142	0x3d0e2fa8	0.034713417
143	0x3bea3522	0.007147447
144	0x3d3eb1d2	0.0465563
145	0xbd628783	-0.055305015
146	0xbd017fa4	-0.03161587
147	0x3d9d5520	0.07682252
148	0xbc6627ae	-0.014047546
149	0xbda0bcb0	-0.07848489
150	0x3d747765	0.059684176
151	0xbc5edeaf	-0.013602897
152	0x3d4543fb	0.048160534
153	0x3d89395f	0.06700396
154	0x3d339ac2	0.04384876
155	0x3d985831	0.07438696
156	0x3d04cdd5	0.03242286
157	0xbd23d1b9	-0.03999493
158	0xbd3f1090	-0.046646655
159	0x3dce059b	0.10059663
160	0x3d1c8b1e	0.03821861
161	0xbdac2375	-0.084052004
162	0xbda506bf	-0.08057927
163	0x3da09ab6	0.07842009
164	0xbc202d90	-0.009776488
165	0x3cb0ff57	0.02160613
166	0xbd5f38aa	-0.0544974
167	0xbc2970e0	-0.010341853
168	0x3d25d5f1	0.040487234
169	0x3d389b83	0.045070183
170	0xbc5b2b4c	-0.013377022
171	0x3d591c56	0.05300554
172	0xbcbbe35a	-0.022935558
173	0x3ca0cd8b	0.01962926
174	0x3d802334	0.062567145
175	0x3cba4457	0.022737665
176	0xbc73de33	-0.014884519
177	0x3c971c18	0.018446013
178	0xbbb4976f	-0.0055112164
179	0x3c53a8e7	0.012918687
180	0xbdb857d3	-0.09001126
181	0xbd63d047	-0.05561855
182	0xbca156b1	-0.019694658
183	0xbdb8e43b	-0.090279065
184	0xbc326076	-0.010887256
185	0xbd6a93f4	-0.057270005
186	0xbd2e8c91	-0.042614523
187	0x3ad13373	0.0015960768
188	0xbc348352	-0.011017637
189	0x3d141bce	0.03615933
190	0x3d83209e	0.064027056
191	0xbc440454	-0.0119639225
192	0xbd4af0e8	-0.049546152
193	0xbdae2554	-0.085032135
194	0x3d7779ff	0.06041908
195	0x3d50596d	0.050866533
196	0x3c9c3798	0.019069478
197	0xbd827892	-0.06370653
198	0x3d8aa885	0.06770424
199	0xbd64b16a	-0.055833258
200	0xbc9c6bdc	-0.0190944
201	0xbd460a02	-0.048349388
202	0xbc0e1b38	-0.008673482
203	0x3c6e4d79	0.014544838
204	0x3cfe018a	0.031006593
205	0x3d1eb101	0.038743023
206	0x3c76d8bd	0.015066323
207	0xbd59ff55	-0.05322202
208	0x3dd89877	0.10575955
209	0x3d80c95f	0.062884085
210	0xbd5f8e7d	-0.054579247
211	0xbdce5eb6	-0.100766584
212	0x3db06137	0.08612292
213	0x3dd47bda	0.10375185
214	0x3afb1455	0.001915584
215	0xbd89e77e	-0.06733607
216	0xbcaa5934	-0.020794488
217	0xbdaebde0	-0.085323095
218	0xbd1b9bc1	-0.037990335
219	0xbbbd6287	-0.0057795676
220	0x3d6fa892	0.05851037
221	0xbc1f8a17	-0.009737513
222	0xbc9fd06d	-0.019508565
223	0x3d82539c	0.063636035
224	0x3d756481	0.0599103
225	0x3c5b560e	0.013387216
226	0x3dc0ce66	0.094143674
227	0x3ddb22a5	0.10699967
228	0xbd29dafb	-0.0414686
229	0x3ddfbb46	0.109243914
230	0xbbd9e878	-0.006650027
231	0x3ddb153c	0.106974095
232	0x3d104534	0.035222247
233	0x3d9ffdce	0.07812081
234	0x3dd7b92d	0.10533366
235	0x3d1e8ef1	0.03871054
236	0xbd9f019b	-0.07763978
237	0xbdab76c8	-0.08372265
238	0xbbe87c0b	-0.007094865
239	0x3d6c0720	0.057623982
240	0x3c94c474	0.018160082
241	0x3d4bef3e	0.049788706
242	0xbd62b01f	-0.055343743
243	0xbc986154	-0.018601097
244	0xbca6bd73	-0.020354008
245	0xbdbf1eaf	-0.09332024
246	0xbd018384	-0.031619564
247	0xbd280354	-0.0410188
248	0xbdc5923e	-0.09647034
249	0xbce1c33e	-0.027558919
250	0x3d6f595b	0.058434825
251	0x3d8f7a6e	0.070057735
252	0xbdc3303d	-0.09530685
253	0x3cfe3379	0.031030403
254	0xbdb3dd8b	-0.0878249
255	0xbb2fc92d	-0.002682279

encode_res_dense_blocks.0.conv2.conv.bias f4 [32]
0	0xbdbf6f34	-0.09347382
1	0x3dc3ae8d	0.09554777
2	0x3d8a544a	0.06754358
3	0x3d56338c	0.052295253
4	0xbd82c3dc	-0.063850135
5	0xbc12213f	-0.008919059
6	0xbda46d98	-0.08028716
7	0x3d8cc7ff	0.06874084
8	0xbcd22153	-0.025650656
9	0xbc566f9c	-0.013088133
10	0xbd40beda	-0.04705701
11	0xbdc13da1	-0.09435583
12	0xbdb99cc2	-0.09063102
13	0xbd38a7e9	-0.045082007
14	0x3cf353bd	0.029703015
15	0x39a78406	0.00031951087
16	0xbd7ffcb4	-0.062496856
17	0xbbe42bb8	-0.0069632195
18	0x3d69bcf3	0.05706496
19	0xbd4d6428	-0.050144345
20	0x3db8522c	0.09000048
21	0xba8a94a7	-0.0010572866
22	0xbd0ed9d1	-0.034875695
23	0x3dd8e342	0.10590221
24	0xbc185fac	-0.009300154
25	0x3d1d0982	0.038339145
26	0x3c0cc318	0.008591436
27	0x3d49fc68	0.04931298
28	0x3dcffe88	0.1015597
29	0xbdbe7e0e	-0.09301387
30	0x3bb3927c	0.005480109
31	0xbc99cf03	-0.018775469

encode_res_dense_blocks.1.conv1.conv.weight f4 [32, 32, 3]
0	0xbd0b2579	-0.033971284
1	0xbd33378a	-0.043754138
2	0xbd1ca4fe	-0.038243286
3	0xbca36abf	-0.019948361
4	0x3d6f8658	0.05847773
5	0xbdb1b0a3	-0.08676269
6	0xbd1389e1	-0.036020163
7	0x3da51a9f	0.08061718
8	0xbdabd551	-0.08390296
9	0xbdc24fb9	-0.09487862
10	0x3d6607ef	0.05615991
11	0x3d55e5c9	0.052221093
12	0xba0499ea	-0.00050583354
13	0xbd81d05e	-0.06338571
14	0x3dd7686e	0.10517965
15	0x3d2db120	0.042405248
16	0x3c564feb	0.013080577
17	0x3c95b1ff	0.018273352
18	0x3db4c157	0.08825939
19	0xbd100798	-0.035163492
20	0xbdca0e07	-0.09865957
21	0x3d98239d	0.07428668
22	0x3cc59fa8	0.024123982
23	0xbbf80ff2	-0.00757026
24	0xbde0cd8c	-0.10976705
25	0xbd0232bf	-0.031786676
26	0x3d212a9e	0.039347284
27	0xbdabee41	-0.08395053
28	0x3dbf1ee0	0.09332061
29	0x3d836006	0.064147994
30	0x3c77e4f8	0.015130274
31	0x3b0c929e	0.0021449695
32	0xbd98f06c	-0.07467732
33	0x3d87b325	0.06625966
34	0x3d76b84b	0.06023435
35	0xbd5569c3	-0.052102815
36	0xbaeaebf0	-0.0017923098
37	0x3dd8e535	0.10590593
38	0xbb79fda9	-0.0038145578
39	0xbc4bc45d	-0.012436953
40	0xbbf0b09a	-0.0073452713
41	0x3c1dd6dc	0.009633746
42	0xbba09d82	-0.004901589
43	0xbcb6b691	-0.022303851
44	0xbd9f8df7	-0.077907495
45	0xbcebb586	-0.02877308
46	0x3b2f59b8	0.0026756357
47	0xbd92cb72	-0.0716771
48	0x3d90adc3	0.070643924
49	0x3d96e2da	0.07367487
50	0x3d6b734c	0.057483003
51	0x3d8efe93	0.0698215
52	0xbd2a9112	-0.041642256
53	0x3d36641b	0.04452906
54	0x3d185d99	0.037198637
55	0xbcfab440	-0.030603528
56	0xbc97cf9b	-0.018531611
57	0xbd2dbfc0	-0.042419195
58	0xbcc3baa4	-0.023892708
59	0x3d3b9e9b	0.045805555
60	0xbcd22718	-0.025653407
61	0xbd44a58e	-0.048009448
62	0x3db91db1	0.09038866
63	0x3d88222f	0.06647145
64	0xbcb0ad9d	-0.02156716
65	0xbd94b52c	-0.07261118
66	0x3c1d1899	0.009588384
67	0x3d92c2ee	0.07166086
68	0x3d0f446b	0.034977358
69	0xbcf018ae	-0.029308643
70	0xbdaeb4f5	-0.085306086
71	0x3c9669a0	0.018360913
72	0xbc837d03	-0.016050821
73	0xbd031ecf	-0.032011803
74	0xbd22e1c3	-0.039766084
75	0xbd54838e	-0.051883273
76	0x3db82924	0.08992222
77	0xbd9f917d	-0.077914216
78	0xbcc9ade5	-0.024619052
79	0x3b93d2c5	0.0045112097
80	0x3d28e25c	0.041231498
81	0xbdd41250	-0.10355055
82	0xbda05da7	-0.07830363
83	0xbd8401d5	-0.06445662
84	0xbcaa944d	-0.020822668
85	0x3da0c2bf	0.07849645
86	0xbd7c5bba	-0.061610915
87	0xbd465bf2	-0.04842753
88	0x3d6c800d	0.057739306
89	0x3b6788eb	0.0035329412
90	0xbb2e4e0a	-0.0026596808
91	0x3bb41aef	0.005496375
92	0x3a86277c	0.0010235156
93	0x3d4e67f2	0.0503921
94	0x3d9c1bc0	0.076224804
95	0xbcd021f1	-0.02540681
96	0x3ced7a10	0.028988868
97	0xbca40c0f	-0.020025281
98	0xbd86ff88	-0.065917075
99	0x3dc00b94	0.09377208
100	0xbd729fbb	-0.059234362
101	0x3d923780	0.07139492
102	0x3d9c94e6	0.076455876
103	0xbd7ce6a1	-0.061743382
104	0xbb72121e	-0.0036937068
105	0xbd6fe395	-0.05856665
106	0x3db0a587	0.08625322
107	0x3cd433c6	0.025903594
108	0x3dbcbf52	0.09216179
109	0xbc6742d2	-0.014115052
110	0xbcfe0558	-0.031008407
111	0xbd0df829	-0.034660492
112	0xbdca6898	-0.09883231
113	0x3d1c6b4f	0.038188275
114	0x3d874a73	0.06605997
115	0x3d3de4ac	0.046360657
116	0xbda7966e	-0.08182989
117	0x3b238724	0.0024952376
118	0xbda7c600	-0.081920624
119	0x3da87de8	0.0822714
120	0xbd50c7d5	-0.050971825
121	0xbd61a88f	-0.05509239
122	0x3cb3652a	0.021898825
123	0xbdb8d5e3	-0.09025171
124	0xba8ddec1	-0.0010823832
125	0x3ab6b251	0.001393864
126	0x3dc6126d	0.09671483
127	0x3daaaa88	0.083333075
128	0xbc97ff5e	-0.018554386
129	0x3d8b2900	0.067949295
130	0xbc803c7c	-0.015653841
131	0x3d2c9b6c	0.04214041
132	0xbc823d58	-0.015898392
133	0x3bee493a	0.007271913
134	0xbd905bc1	-0.07048751
135	0x3da788ab	0.08180364
136	0xbb00615b	-0.0019589278
137	0xbd30e95e	-0.043191306
138	0x3b03069c	0.0019992953
139	0x3da81110	0.082063794
140	0xbd9f859d	-0.077891566
141	0xbc80a653	-0.01570431
142	0x3dcc65b5	0.099803366
143	0xbb2b743c	-0.002616181
144	0xbd4ac536	-0.04950448
145	0x3ca7a30c	0.020463489
146	0xbcc63f15	-0.024200002
147	0x3bfcd641	0.0077159707
148	0xbdabc30e	-0.08386813
149	0x3dc40ec8	0.09573132
150	0xbd51d814	-0.05123146
151	0xbbb25ced	-0.0054432065
152	0x3d72b0c0	0.059250593
153	0x3bec924d	0.007219589
154	0x3dc0c6d2	0.09412922
155	0x3dace7a1	0.08442617
156	0x3d7f92ab	0.062395733
157	0xbd8df852	-0.06932129
158	0xbd44ce74	-0.04804845
159	0xbdd58e03	-0.10427477
160	0xbc953141	-0.018211963
161	0x3d07afd2	0.03312666
162	0xbd6ed479	-0.0583081
163	0x3d99bda5	0.07506875
164	0xbdab1c4a	-0.08355005
165	0x3d5a8256	0.053346954
166	0x3c7291df	0.014805286
167	0xbb76b58e	-0.0037644836
168	0xbddb2ef4	-0.10702315
169	0xbc4b6da5	-0.012416278
170	0xbce117a7	-0.027477099
171	0xbd176a60	-0.03696668
172	0x3c58e733	0.013238716
173	0x3d8b06f6	0.06788437
174	0x3cbe694b	0.023243567
175	0xbd55857c	-0.052129254
176	0x3d955423	0.072914384
177	0xbd966ca6	-0.07344942
178	0xbdce6942	-0.1007867
179	0xbd43a2cf	-0.04776269
180	0x3d9023d3	0.07038083
181	0x3d9b3788	0.07578951
182	0x3da82c2a	0.082115486
183	0xbd7e3f72	-0.062072225
184	0x3d7f8f37	0.06239244
185	0xbc7a305e	-0.015270321
186	0xb8e97eca	-0.00011133922
187	0x3d10d4eb	0.035359304
188	0x3d8080fb	0.06274601
189	0xbdbf3671	-0.09336556
190	0x3dc260b0	0.09491098
191	0xbd19fa7c	-0.037592396
192	0x3dcf7d8a	0.101313666
193	0x3d09877b	0.03357647
194	0x3da3bad4	0.07994619
195	0x3cf73f78	0.030181631
196	0x3d34f400	0.04417801
197	0xbcfb4170	-0.030670851
198	0xbc930875	-0.017948369
199	0xbdcfad3e	-0.10140465
200	0x3d9a035a	0.075201705
201	0x3d503be3	0.050838362
202	0xbcc7ece6	-0.024404954
203	0x3d5a5f47	0.05331352
204	0xbdad02b7	-0.084477834
205	0x3c467920	0.012113839
206	0x3d3fbf17	0.046813097
207	0xbd76a8cb	-0.060219567
208	0xbc5ac2e8	-0.013352133
209	0x3d3b7fd5	0.045776207
210	0xba6df7c7	-0.0009077754
211	0x3c7ae5aa	0.015313545
212	0xbcc98e99	-0.024604129
213	0xbd28df45	-0.04122855
214	0x3c56e8e8	0.013117053
215	0x3d1303c3	0.03589226
216	0x3d4d9a71	0.050196115
217	0xbdb3bbea	-0.08776076
218	0x3db2ae34	0.08724633
219	0xbdd7abd8	-0.105308235
220	0x3d9485d6	0.0725209
221	0xbd17f3f8	-0.0370979
222	0xbd884be8	-0.06655103
223	0xbd83f745	-0.06443647
224	0xbac4f9c1	-0.0015028046
225	0x3cdec0e8	0.027191594
226	0xbd24b879	-0.04021499
227	0x3db71687	0.089398436
228	0x3c984b6f	0.018590657
229	0x3d4e9e08	0.05044368
230	0x3cc4c93a	0.024021734
231	0x3cc885bd	0.024477834
232	0xbc57766f	-0.013150795
233	0xbae40c90	-0.0017398763
234	0x3d285a98	0.041102022
235	0xbb279167	-0.0025568844
236	0x3d94293b	0.072344266
237	0xbdd0c507	-0.1019383
238	0x3d089d15	0.03335293
239	0x3d790799	0.06079826
240	0xbd579283	-0.05262996
241	0xbbe194c4	-0.0068841893
242	0x3d1d4ecb	0.03840522
243	0x3aeadb30	0.0017918106
244	0x3c90bdb9	0.017668592
245	0xbcc11451	-0.023569258
246	0x3c4f6c26	0.012660062
247	0xbc923f88	-0.01785256
248	0xbc11a968	-0.008890487
249	0xbbe1b6ce	-0.006888247
250	0xbd46d011	-0.04853827
251	0xbcc03139	-0.023460971
252	0x3dc2d42e	0.09513126
253	0xbd8dd789	-0.06925876
254	0x3c8f511f	0.017494736
255	0xbc913935	-0.017727474

encode_res_dense_blocks.1.conv1.conv.bias f4 [32]
0	0x3d8fd167	0.07022362
1	0xbbac5a71	-0.005259805
2	0x3d8a0473	0.0673913
3	0xbd89aa76	-0.06721966
4	0xbdab66a8	-0.083691895
5	0xbdc535bc	-0.0962939
6	0xbd8e0659	-0.069348045
7	0xbcbac5aa	-0.022799332
8	0xbde0f6c3	-0.10984566
9	0xbb635935	-0.0034690623
10	0xbda90e08	-0.082546294
11	0x3d8971fb	0.06711193
12	0x3d263ec8	0.040587217
13	0x3d8299c3	0.06376984
14	0xbdb684e4	-0.089120656
15	0xbd1d5f1f	-0.038420793
16	0xbc49caa5	-0.012316381
17	0xbdcdf6c9	-0.10056836
18	0xbd4a1df1	-0.04934496
19	0xbd7c23ee	-0.061557703
20	0x3cc49539	0.023996936
21	0xbdafa0ae	-0.08575569
22	0xbcd31cb1	-0.025770517
23	0xbc7af00b	-0.01531602
24	0xbcc9b4aa	-0.02462228
25	0x3d832b6f	0.06404769
26	0xbcf2b465	-0.029627034
27	0xbda8e456	-0.082466766
28	0xbd1108d7	-0.03540882
29	0xbdb628b7	-0.088944845
30	0x3db6a7f1	0.08918751
31	0xbdcb3d40	-0.09923792

encode_res_dense_blocks.1.conv2.conv.weight f4 [32, 32, 3]
0	0x3dc0e5be	0.0941882
1	0x3d56937e	0.052386753
2	0xbdafd2e7	-0.08585148
3	0x3d8e1e22	0.06939341
4	0x3cdedd5b	0.02720516
5	0x3d003663	0.031301867
6	0xbdd564e4	-0.10419634
7	0xbd617ed7	-0.055052605
8	0x3d210d22	0.039319165
9	0x3b37e9a2	0.002806284
10	0x3cd1c2c3	0.025605565
11	0x3d2721f2	0.040803857
12	0x3d4fa9a6	0.0506989
13	0xbdcb4f5c	-0.09927246
14	0xbd16de26	-0.03683295
15	0xbcca3bc5	-0.024686703
16	0x3c6e923d	0.014561233
17	0xbc269ebc	-0.010169681
18	0xbd5b1d8f	-0.053494986
19	0xbcb2d96e	-0.021832194
20	0xbcd71930	-0.026257128
21	0xbdd530d5	-0.104097046
22	0x3d792365	0.06082477
23	0x3d758095	0.05993708
24	0x3c8b60b3	0.017013883
25	0xbd9cd2f0	-0.07657421
26	0x3d5c1bab	0.053737324
27	0xbd2db491	-0.04240853
28	0xbd32f0da	-0.043686725
29	0x3d7182be	0.058962576
30	0xbd271cb6	-0.040798865
31	0x3d4b3cc8	0.049618512
32	0xbd9b7aeb	-0.07591804
33	0x3c25f061	0.010128112
34	0xbd5865a3	-0.052831303
35	0xbd902bda	-0.07039614
36	0x3d0c8e20	0.03431523
37	0x3d95af3a	0.073088124
38	0xbd97c762	-0.07411076
39	0xbda88537	-0.08228534
40	0xbdb206bd	-0.086926915
41	0xbd673f5c	-0.05645691
42	0x3c638e2f	0.01388888
43	0xbd8e3961	-0.06944538
44	0xbcc7b453	-0.024377977
45	0xbdbf6591	-0.09345544
46	0x3d4a1b49	0.049342427
47	0x3da9cadc	0.082906455
48	0x3dc72804	0.09724429
49	0xbcef0e02	-0.029181484
50	0xbceb3059	-0.028709577
51	0xbc872542	-0.016497258
52	0xbdb732bf	-0.08945226
53	0x3dd52f02	0.10409357
54	0x3cffe9da	0.031239439
55	0xbd59ec9f	-0.053204175
56	0xbcb7ce7a	-0.022437323
57	0x3b124318	0.0022317823
58	0x3da43536	0.08017962
59	0xbcbdd215	-0.023171464
60	0x3d587dca	0.052854337
61	0xbd854aad	-0.06508384
62	0x3da47b61	0.08031345
63	0xbcd3b556	-0.025843304
64	0xbdc556a7	-0.09635668
65	0x3ab856d6	0.0014063965
66	0x3dccbc8d	0.09996901
67	0xbd19147d	-0.037373055
68	0x3dbd3c29	0.0923999
69	0xbccf4986	-0.025303613
70	0xbd70ff75	-0.058837373
71	0xbd97fac0	-0.07420874
72	0x3d30c1e5	0.043153662
73	0xbd1698c2	-0.036766775
74	0xbd8d6372	-0.06903733
75	0x3d7e6fcd	0.06211834
76	0xbd7c7209	-0.06163219
77	0x3d117aa8	0.035517365
78	0x3d537ae8	0.051630884
79	0xbd5b650e	-0.05356317
80	0x3dd1191a	0.10209866
81	0x3d6da66c	0.05802004
82	0x3d9c762e	0.076397285
83	0xbd2a13da	-0.04152284
84	0x3d81173c	0.0630326
85	0xbd796da1	-0.060895566
86	0xbb97cd20	-0.004632607
87	0xbda69fe6	-0.08135967
88	0xbd40edf7	-0.04710194
89	0x3d900f5a	0.07034178
90	0x3c9b18f2	0.018932793
91	0xbd14e2e6	-0.0363492
92	0xbcf51f87	-0.02992226
93	0xbd94bcf8	-0.072626054
94	0xbd66a7db	-0.056312423
95	0xbd9e3adb	-0.077260695
96	0x3c85b52f	0.016321747
97	0xbd9fe7e9	-0.07807905
98	0x3db3f838	0.08787578
99	0xbdbe695e	-0.09297441
100	0xbdc7415e	-0.09729265
101	0xbc58466c	-0.013200384
102	0x3da19ce1	0.078912504
103	0x3cc4eb13	0.024037873
104	0xbdb6dec7	-0.0892921
105	0x3d304e78	0.043043584
106	0x3cb562ca	0.022141833
107	0xbcfcef3a	-0.03087579
108	0xbc06ba97	-0.008223197
109	0x3bbb1e45	0.0057103955
110	0x3d7fd662	0.06246031
111	0x3c07072c	0.008241456
112	0xbd0a8350	-0.033816636
113	0x3d1a5470	0.037678182
114	0x3d8cd338	0.06876224
115	0xbdcd94c1	-0.10038138
116	0xbd560994	-0.05225523
117	0x3d290978	0.041268796
118	0x3d3fe7a0	0.046851754
119	0xbd9e0ab8	-0.07716888
120	0x3d3a9295	0.045549948
121	0xbd88ec1f	-0.066856615
122	0xbcd7cdb5	-0.026343206
123	0xbd9f23b4	-0.07770482
124	0x3d68c211	0.0568257
125	0x3d9a0957	0.07521313
126	0xbb85c9a6	-0.0040828763
127	0xbdc3acd3	-0.09554448
128	0xbdc0dfff	-0.09417724
129	0xbddbded8	-0.107358634
130	0x3c7ff110	0.015621439
131	0xbd05ed7e	-0.032697193
132	0x3d69fd64	0.057126418
133	0xbcb5b95f	-0.022183118
134	0x3d50ba04	0.05095865
135	0x3d82c800	0.06385803
136	0x3db66819	0.08906574
137	0x3cc2b247	0.02376665
138	0xbcf41c32	-0.0297986
139	0x3c8623a1	0.016374411
140	0xbca5336e	-0.020166125
141	0x3dcbf172	0.099581614
142	0x3d81cd9d	0.06338046
143	0x3d816157	0.06317394
144	0x3dbcd3ba	0.09220071
145	0xbd2ddc41	-0.04244638
146	0xbcda4244	-0.026642926
147	0x3cf1a8eb	0.029499492
148	0xbcac01d3	-0.020996964
149	0x3d9970ec	0.07492241
150	0x3d7af659	0.06127009
151	0x3db0a81d	0.08625815
152	0x3c0ef0a2	0.0087243635
153	0x3da7a07b	0.08184906
154	0x3c8cd3fc	0.017190926
155	0x3da7d3d8	0.08194703
156	0x3d8ced98	0.06881255
157	0x3d6d624a	0.057955064
158	0xbdb97569	-0.09055597
159	0x3dbe3ca6	0.092889115
160	0xbdde060b	-0.10840996
161	0xbc4c6cb9	-0.012477093
162	0xbd8ff193	-0.070284985
163	0x3b19dd2e	0.002347778
164	0xbd2e8bc4	-0.04261376
165	0xbd8e8da5	-0.0696061
166	0xbd7e6c87	-0.06211522
167	0x3d36f502	0.04466725
168	0xbdb5f285	-0.088841476
169	0xbda5903b	-0.080841504
170	0xbd120d67	-0.035657313
171	0x3d9022a0	0.07037854
172	0x3d8e5c22	0.06951167
173	0x3dc138d2	0.09434666
174	0xbd85d65c	-0.065350264
175	0xbd827519	-0.06369991
176	0xbcdbfb26	-0.026853155
177	0x3daf0bc1	0.08547164
178	0xbc8c1d46	-0.017103802
179	0x3db60524	0.08887699
180	0x3d153b40	0.03643346
181	0x3bf337ab	0.0074224076
182	0x3d9937e6	0.07481365
183	0x3ce5979d	0.028026396
184	0xbd9d309b	-0.076752864
185	0xbd569863	-0.05239142
186	0xbd1a7c69	-0.037716303
187	0xbd5e29e3	-0.054239165
188	0xbd5d84a5	-0.054081578
189	0x3d599e86	0.053129695
190	0xbd3bef7b	-0.045882683
191	0x3d9b5eb4	0.075864226
192	0x3bb91faf	0.005649529
193	0xbc0b2c4b	-0.008494447
194	0x3d957641	0.07297946
195	0x3dad9629	0.084759064
196	0x3d07878a	0.033088244
197	0x3d9bd0c4	0.07608178
198	0x3d2dc2fa	0.042422272
199	0xbd0f8f8c	-0.035049006
200	0x3b82b587	0.003988925
201	0x3d778082	0.06042529
202	0xbce9e3fd	-0.028551096
203	0xbcd80a17	-0.026371999
204	0xbd58e043	-0.052948248
205	0xbd4146e7	-0.04718676
206	0x3d185182	0.037187107
207	0xbdca1e2d	-0.09869037
208	0xbd9a3e31	-0.07531393
209	0xbc3a6dad	-0.011378688
210	0xbc8d94e8	-0.017282918
211	0x3c876382	0.016526941
212	0x3b5e1f9e	0.0033893357
213	0xbbd79b11	-0.0065797647
214	0xbd235194	-0.03987272
215	0x3d16cd2a	0.036816753
216	0xbdbc6131	-0.09198225
217	0x3d361988	0.044457942
218	0xbd8e33cb	-0.069434725
219	0xbd76ac79	-0.060223076
220	0x3da3d814	0.08000198
221	0x3d845b28	0.06462699
222	0xbd165f2c	-0.036711857
223	0x3d8606cd	0.06544266
224	0x3cb45966	0.022015285
225	0xbcda8e3e	-0.026679154
226	0xbd08b270	-0.033373296
227	0xbd1c13ac	-0.038104698
228	0xbd2c5908	-0.042077094
229	0x3c40e936	0.011774352
230	0x3d298ea8	0.041395813
231	0xbd8d1d12	-0.0689031
232	0xbd45cb5e	-0.04828965
233	0xbd83ecee	-0.06441675
234	0x3d3e427f	0.046450134
235	0x3d873baa	0.06603177
236	0x3db363b9	0.08759255
237	0xbcc11348	-0.023568764
238	0x3c9c46ec	0.019076787
239	0xbd09597a	-0.033532597
240	0xbd6f4d68	-0.05842343
241	0x3c80efa0	0.015739262
242	0xbce93f60	-0.028472602
243	0xbd19f262	-0.03758467
244	0xbd29fd75	-0.04150148
245	0x3d6ddf9d	0.058074582
246	0xbde23c56	-0.110466644
247	0xbc5d87b0	-0.01352112
248	0x3cb479d6	0.022030752
249	0xbca8e3c9	-0.020616429
250	0x3d03bf99	0.032165144
251	0xbc94ddac	-0.018172108
252	0xbbba2c2a	-0.0056815343
253	0x3d7c5844	0.061607614
254	0x3d1311ae	0.035905533
255	0xbc8e3d9f	-0.017363368

encode_res_dense_blocks.1.conv2.conv.bias f4 [32]
0	0xbcfddd21	-0.030989232
1	0x3d28c141	0.041199926
2	0x3de13fac	0.109984726
3	0xbdb29c94	-0.08721271
4	0xbddc70f6	-0.10763733
5	0x3d2ae0d7	0.04171833
6	0xbc4f3a53	-0.012648183
7	0x3d507076	0.0508885
8	0x3dafe33c	0.085882634
9	0x3d1ab17f	0.03776693
10	0xbcbe6949	-0.023243563
11	0xbd96fe8c	-0.0737277
12	0x3d43571c	0.047690496
13	0xbbc5076d	-0.006012848
14	0xbc4bd524	-0.012440953
15	0x3da4f3bb	0.080543004
16	0x3cee3c66	0.029081535
17	0x3c9ae346	0.0189072
18	0xbd038a2d	-0.032114197
19	0xbd0f373e	-0.034964792
20	0xbccd5c29	-0.02506836
21	0x3cb8aec5	0.022544274
22	0xbbe0588e	-0.006846494
23	0xbd84ce2e	-0.06484638
24	0xbde1d933	-0.110277556
25	0xbd75ac70	-0.059978902
26	0x3d4c18d5	0.04982837
27	0x3da9a149	0.08282716
28	0xbc0d7840	-0.008634627
29	0xbd94e174	-0.07269564
30	0x3d5dae34	0.05412121
31	0xbc50b4a2	-0.012738379

encode_res_dense_blocks.2.conv1.conv.weight f4 [32, 32, 3]
0	0x3da1d4d5	0.079019226
1	0x3d91426f	0.07092749
2	0x3d8f0f5a	0.0698535
3	0xbdaf40cf	-0.08557283
4	0xbd9e6f61	-0.077360876
5	0xbd98282e	-0.07429539
6	0x3dafbb89	0.08580691
7	0xbc7e10f3	-0.015506971
8	0xbcd502a6	-0.02600224
9	0xbd944841	-0.07240344
10	0xbd51eb21	-0.051249627
11	0x3bd984e8	0.006638158
12	0x3d2a3d13	0.04156215
13	0xbd9f61a2	-0.07782294
14	0xbd0fab5c	-0.03507553
15	0xbc5794b3	-0.013158011
16	0x3d9fa7b0	0.07795656
17	0xbd655290	-0.05598694
18	0x3dd2d4cb	0.10294493
19	0xbcc8b8b0	-0.024502128
20	0xbd82ccec	-0.06386742
21	0xbd4db084	-0.050217167
22	0xbdd70ab9	-0.10500092
23	0xbd056787	-0.032569434
24	0x3d06b7cc	0.032890126
25	0xbd275915	-0.04085644
26	0x3da5b15b	0.080904685
27	0xbd67d767	-0.056601908
28	0x3cb44131	0.022003742
29	0xbc49552e	-0.012288375
30	0xbda81d53	-0.08208718
31	0xbce2d2c9	-0.0276884
32	0xbc6f830d	-0.014618647
33	0x3de62b37	0.11238711
34	0x3d4238e7	0.047417548
35	0xbc3d71fa	-0.011562819
36	0x3b8537dc	0.004065497
37	0xbd70a74a	-0.05875329
38	0xbcd11343	-0.02552188
39	0x3d592e67	0.05302277
40	0xbd8610d6	-0.0654618
41	0x3db3529d	0.087559916
42	0xbca5646f	-0.020189492
43	0xbda4a35a	-0.08038969
44	0x3d4ce4f7	0.050023045
45	0x3d0be044	0.034149423
46	0x3d9e67cd	0.07734642
47	0x3db0b91f	0.08629059
48	0x3d34b188	0.04411462
49	0xbc9891a2	-0.01862413
50	0x3da0feab	0.07861074
51	0xbde90bd8	-0.11379212
52	0x3d98de1e	0.074642405
53	0xbc8953dd	-0.016763622
54	0x3d8fb8f7	0.07017701
55	0xbc379dec	-0.011207085
56	0xbd7a55aa	-0.061116852
57	0xbd7cfc5c	-0.061764106
58	0x3da55eab	0.08074697
59	0x3dbc8a31	0.092060454
60	0x3d345ade	0.04403197
61	0xbd0c6c13	-0.034282755
62	0x3bb9f652	0.0056751156
63	0xbd515a41	-0.051111463
64	0x3d4fc324	0.05072321
65	0x3c35e657	0.011102281
66	0x3dce5807	0.10075384
67	0xbda39a85	-0.07988457
68	0x3d4e4666	0.050360106
69	0x3d166a6b	0.03672258
70	0x3b9b7969	0.004744698
71	0x3d866197	0.065615825
72	0xbd03c75a	-0.03217254
73	0xbd7bc089	-0.061462913
74	0xbc8e6585	-0.017382393
75	0xbc3480c1	-0.011017025
76	0xbdabef88	-0.08395296
77	0x3dbbd909	0.091722555
78	0xbd98cb0e	-0.074606046
79	0xbd8e0841	-0.06935168
80	0xbddaaa38	-0.10676998
81	0x3d54bdba	0.05193875
82	0x3d1c958a	0.03822855
83	0x3cce5091	0.025184901
84	0x3bc65e91	0.0060537537
85	0xbcb21371	-0.021737786
86	0xbd417695	-0.04723223
87	0x3d40c0db	0.04705892
88	0xbc8877f5	-0.016658762
89	0x3d2ba299	0.041903112
90	0xbd78cc5d	-0.06074177
91	0xbcddab7c	-0.02705931
92	0xbd1b11b7	-0.03785869
93	0x3da92352	0.0825869
94	0xbd5c79c9	-0.05382708
95	0x3d815564	0.06315115
96	0x3c31f221	0.010860951
97	0x3dcbce74	0.09951487
98	0xbd8241ab	-0.063601814
99	0x3d9df3ce	0.07712518
100	0xbdab88fc	-0.08375737
101	0xbc5d77ac	-0.0135173015
102	0xbd629c8a	-0.05532507
103	0xbd624515	-0.055241663
104	0xbd0983b5	-0.03357287
105	0xbdb1582d	-0.08659396
106	0x3dbbde93	0.09173312
107	0xbdb270d8	-0.087129295
108	0xbd1524d2	-0.036412068
109	0xbd2630ff	-0.04057407
110	0x3d0493fe	0.0323677
111	0xbb41facd	-0.0029598952
112	0x3da3d67f	0.07999896
113	0xbcd81657	-0.02637784
114	0x3dd65e40	0.104671955
115	0xbca1774f	-0.019710211
116	0x3d849b32	0.06474914
117	0x3d89564f	0.06705915
118	0x3d943e55	0.072384514
119	0xbcc391ea	-0.023873288
120	0xbdbf77aa	-0.09348996
121	0xbd496743	-0.049170744
122	0x3d8e0f25	0.06936482
123	0xbd5c5714	-0.05379398
124	0xbba6eeb0	-0.0050943717
125	0xba058213	-0.000509293
126	0x3ccd02f6	0.025025826
127	0xbdcfdddd	-0.10149739
128	0x3da00ec6	0.07815318
129	0x3d9ea281	0.07745839
130	0x3d3e004b	0.046387
131	0xbd6594d3	-0.056050133
132	0x3dd9c5f7	0.10633462
133	0xbd6914c2	-0.05690456
134	0xbd76e205	-0.060274143
135	0xbce815ce	-0.02833071
136	0xbd961790	-0.07328713
137	0x3d62223d	0.055208433
138	0xbc3d5e61	-0.011558146
139	0xbcdc201b	-0.026870778
140	0xbcd1a85f	-0.02559298
141	0xbd7ecccf	-0.06220704
142	0xbcb51d35	-0.022108654
143	0x3d919126	0.07107763
144	0x3cc4c694	0.02402047
145	0xbcbeb2bb	-0.023278585
146	0x3d77a808	0.06046298
147	0xbd051df3	-0.032499265
148	0xbca869e2	-0.020558301
149	0x3dae9f12	0.08526434
150	0xbdcb330f	-0.09921848
151	0x3dd514d3	0.104043625
152	0xbdb76ce7	-0.08956318
153	0xbd56d145	-0.05244567
154	0xbdb3e7c7	-0.087844424
155	0xbd727eb0	-0.05920285
156	0xbd7bc5b1	-0.06146783
157	0x3c7f19d1	0.01557012
158	0xbcd3db4e	-0.025861409
159	0xbd5d1b57	-0.05398115
160	0x3dbdd6e0	0.092695
161	0x3da640c1	0.081178196
162	0xbdb73b2e	-0.089468345
163	0xbddae4bd	-0.106881596
164	0xbd9924a4	-0.07477692
165	0x3ca0af41	0.019614818
166	0x3c960091	0.018310817
167	0x3d5e2150	0.054230988
168	0x3dbea00b	0.093078695
169	0xbcc422a8	-0.023942307
170	0xbdb875c1	-0.09006835
171	0xbd8aeb42	-0.06783153
172	0x3c4fd54c	0.012685131
173	0xbde231be	-0.11044644
174	0x3d6c39b3	0.057672214
175	0x3db35983	0.087573074
176	0xbc9c060d	-0.019045854
177	0x3dbee349	0.09320695
178	0xbdbf84f2	-0.09351529
179	0xbd86915d	-0.065706946
180	0x3b9c68e1	0.0047732447
181	0xbcc86cf5	-0.024466017
182	0xbd4eb3ba	-0.05046437
183	0x3d26ba77	0.04070517
184	0x3c6b2b7c	0.014353629
185	0x3d40f16e	0.047105245
186	0xbdaaee67	-0.08346253
187	0xbdbc79ee	-0.09202944
188	0xbda94e19	-0.08266849
189	0x3c23b769	0.009992459
190	0x3c79a592	0.015237229
191	0x3d23599e	0.039880387
192	0xbdba0e2a	-0.09084733
193	0x3d90750d	0.07053576
194	0x3cdf80b4	0.02728305
195	0x3d8a79de	0.067615256
196	0x3d5ab3b7	0.053394046
197	0x3d359eba	0.044340827
198	0x3d20978f	0.039207038
199	0xbce29971	-0.027661057
200	0xbdae295b	-0.08503982
201	0x3db4da2f	0.08830678
202	0x3c06b112	0.008220928
203	0xbd948999	-0.07252807
204	0x3da939c2	0.082629696
205	0xbb1f0f07	-0.0024270432
206	0xbd722bf2	-0.05912394
207	0xbd97ce30	-0.07412374
208	0xbd7f7234	-0.062364772
209	0xbd42bf3a	-0.04754565
210	0xbdc76162	-0.09735371
211	0xbdbadc37	-0.09124034
212	0x3d00827b	0.031374436
213	0xbd4a45c2	-0.049382932
214	0x3d9c47f4	0.076309115
215	0x3cd4e8e1	0.025989952
216	0x3d1d0090	0.038330615
217	0xbda70565	-0.08155326
218	0x3ce4f223	0.027947491
219	0xbda2372e	-0.07920681
220	0xbd93cc8b	-0.07216748
221	0x3da08ec8	0.07839733
222	0xbcb78094	-0.022400178
223	0xbd9636e3	-0.073346876
224	0xbdb92b5c	-0.09041473
225	0xbdbfc543	-0.093637966
226	0x3d185067	0.037186053
227	0x3c19e77a	0.009393567
228	0x3cc3f6af	0.023921339
229	0xbd30e116	-0.04318341
230	0x3d0597ff	0.032615658
231	0xbca41f1c	-0.020034365
232	0x3dcba2d4	0.099431664
233	0x3d29666c	0.041357443
234	0x3da87ae8	0.082265675
235	0xbc5120d7	-0.012764177
236	0x3caa63dd	0.020799572
237	0xbd85c475	-0.06531612
238	0xbd161505	-0.03664114
239	0x3d38046a	0.044926085
240	0xbc17e401	-0.009270669
241	0xbd8a45be	-0.067515835
242	0xbd461620	-0.048360944
243	0xbb0ec84e	-0.0021786871
244	0x3d8e9136	0.069612905
245	0xbd1b06ca	-0.03784827
246	0xbbd7be81	-0.006583989
247	0x3d61381f	0.054985162
248	0xbd0cdb01	-0.034388546
249	0x3ddd3782	0.10801603
250	0x3d9307a0	0.07179189
251	0x3c388152	0.011261301
252	0x3bbb5daf	0.005717955
253	0x3dafd340	0.085852146
254	0x3d9024ae	0.07038246
255	0x3d1b4a6a	0.037912764

encode_res_dense_blocks.2.conv1.conv.bias f4 [32]
0	0xbcd9103d	-0.026497
1	0xbd30636b	-0.043063562
2	0xbc8c7594	-0.01714591
3	0xbc5308a1	-0.012880475
4	0x3d1e0f62	0.03858889
5	0xbd98a203	-0.07452776
6	0x3cb9b283	0.022668129
7	0xbd9b19ed	-0.07573304
8	0xbdc5f32a	-0.096655205
9	0xbd6c2fd9	-0.05766282
10	0x3d99d33b	0.07510992
11	0xbd72755b	-0.05919395
12	0x3c88c738	0.016696557
13	0x3d30edc0	0.043195486
14	0xbd95f55b	-0.073221885
15	0xbd671ec0	-0.05642581
16	0x3b4ad663	0.0030950538
17	0x3d9c313c	0.07626578
18	0x3da89b7c	0.08232781
19	0xbd416db2	-0.047223754
20	0xbcf74ff8	-0.0301895
21	0x3db316d0	0.087445855
22	0x3dc12ca0	0.0943234
23	0x3d8b6823	0.06806972
24	0x3da7fc5d	0.08202431
25	0xbdca96b6	-0.09892027
26	0xbcccbbd0	-0.0249919
27	0x3c97a115	0.018509427
28	0x3da583aa	0.080817536
29	0xbc149cc7	-0.009070582
30	0x3d2443c4	0.04010369
31	0xbdb585b6	-0.08863394

encode_res_dense_blocks.2.conv2.conv.weight f4 [32, 32, 3]
0	0x3ca2dccf	0.01988068
1	0xbcbf7f35	-0.023376087
2	0xbdb3a073	-0.08770838
3	0x3cf28538	0.02960454
4	0x3d94e1a0	0.07269597
5	0xbd8b6a88	-0.068074286
6	0xbbb044ca	-0.005379294
7	0x3dab698d	0.083697416
8	0xbd43b8c6	-0.047783636
9	0x3dd12713	0.10212531
10	0xba5a8db4	-0.00083371555
11	0x3d75031e	0.059817426
12	0xbddad7ff	-0.10685729
13	0x3d9a5005	0.07534794
14	0x3dceaafb	0.10091206
15	0xbc2e3ed1	-0.010635094
16	0x3d3dadc8	0.04630831
17	0xbd737cbc	-0.059445128
18	0xbc9d8cdc	-0.019232206
19	0xbc988f07	-0.018622888
20	0x3dce3d38	0.1007027
21	0xbcf57050	-0.029960781
22	0xbdc5d11e	-0.096590266
23	0x3d176eaf	0.03697079
24	0x3d393ca6	0.045223854
25	0xbd4c7b73	-0.049922418
26	0x3cbc30ed	0.022972548
27	0x3d31b8ca	0.04338912
28	0xbdcdf241	-0.10055972
29	0xbc11acb4	-0.008891273
30	0xbdb383f6	-0.08765404
31	0x3ca25857	0.019817514
32	0x3c553084	0.013012055
33	0x3ccf1603	0.02527905
34	0x3ce4f09f	0.027946768
35	0xbd513f5d	-0.05108582
36	0x3dbb4354	0.09143701
37	0x3db92f7e	0.090422615
38	0xbd75d387	-0.06001618
39	0xbdddb1ca	-0.10824926
40	0xbcbe0979	-0.023197876
41	0xbd82b0f9	-0.06381411
42	0xbbd2e0cb	-0.006435489
43	0xbad2910c	-0.0016064956
44	0xbd37b787	-0.04485276
45	0xbd4e08f2	-0.0503015
46	0xbdb3bd9c	-0.087763995
47	0xbd1235a0	-0.035695672
48	0xbc60f340	-0.01372987
49	0xbd002fc2	-0.031295545
50	0xbd21c492	-0.039494105
51	0x3d11c3fe	0.035587303
52	0xbc8e027e	-0.017335173
53	0x3d8f0852	0.06984009
54	0xba017e7f	-0.0004939809
55	0x3c6cb473	0.014447319
56	0x3da0e5e7	0.078563504
57	0xbdd4cd68	-0.10390741
58	0x3c235397	0.00996866
59	0xbdb415f1	-0.087932475
60	0xbd81ce44	-0.0633817
61	0xbd7d4c19	-0.06184015
62	0x3cc59194	0.024117269
63	0x3da62fc6	0.08114581
64	0xbdd4ccc6	-0.1039062
65	0x3dcde095	0.10052601
66	0x3db3bd5d	0.087763526
67	0xbcd0ce15	-0.025488893
68	0x3da8086e	0.08204733
69	0xbd4d5fcf	-0.0501402
70	0xbd2f0260	-0.042726874
71	0x3ce1abe4	0.027547784
72	0xbd6ca653	-0.057775807
73	0x3d81ba44	0.063343555
74	0x3d577565	0.05260219
75	0xbc8885b2	-0.016665313
76	0xbd397ecf	-0.04528695
77	0xbd558a97	-0.052134123
78	0x3d7f2903	0.06229497
79	0x3d9ee6c1	0.077588566
80	0x3d969504	0.07352641
81	0xbd999a02	-0.07500078
82	0xbd8a8161	-0.06762958
83	0x3dd42338	0.1035828
84	0x3d31e705	0.043433208
85	0xbca4d2f3	-0.02012012
86	0xbc80c1ac	-0.01571735
87	0x3d4cb32d	0.049975563
88	0xbdc80404	-0.09766391
89	0x3cbe99a2	0.023266617
90	0xbd9d2e67	-0.07674866
91	0x3dad613e	0.08465813
92	0x3da18fd9	0.07888765
93	0x3d93061e	0.07178901
94	0xbc22829b	-0.009918834
95	0xbd8cff7d	-0.06884668
96	0xbd1c88c6	-0.038216375
97	0xbdb35cb5	-0.08757917
98	0x3d0e975b	0.034812313
99	0xbb23749a	-0.0024941326
100	0xbdb8b49f	-0.09018826
101	0x3a989bf1	0.0011643154
102	0xbc319c3a	-0.01084047
103	0xbd48caf0	-0.04902166
104	0xbca61160	-0.020271957
105	0xbca89e96	-0.020583432
106	0xbd9b835f	-0.075934164
107	0xbd8de296	-0.069279835
108	0x3d9c3900	0.076280594
109	0x3dab5ec7	0.08367687
110	0x3d4184b6	0.047245704
111	0x3d1d5989	0.038415466
112	0xbd219618	-0.03944978
113	0xbdc9c73c	-0.09852454
114	0xbd4461b1	-0.04794473
115	0x3cd6cb57	0.026220007
116	0x3dbdf282	0.0927477
117	0x3d871556	0.065958664
118	0xbd9c2405	-0.07624058
119	0x3a6bebfd	0.00089997036
120	0x3da83cc3	0.082147144
121	0xbd830c20	-0.06398797
122	0xbd5f8edd	-0.054579604
123	0x3d96343e	0.07334183
124	0xbd352446	-0.044224046
125	0xbd8ed1c3	-0.069736026
126	0xbde98bf4	-0.11403647
127	0xbdb6d4b0	-0.08927286
128	0x3dc4f442	0.09616901
129	0x3c6f08e6	0.014589524
130	0x3d8381fb	0.06421276
131	0xbc6334fd	-0.013867614
132	0xbdb0c320	-0.08630967
133	0xba89c9ab	-0.0010512372
134	0xbd40726a	-0.046984114
135	0xbc57f6ce	-0.013181401
136	0xbdbb4edb	-0.091459
137	0x3d0e7cdd	0.034787048
138	0xbc8a96c7	-0.0169176
139	0x3d0a9074	0.033829167
140	0xbdb43481	-0.08799077
141	0x3af7aa47	0.0018895351
142	0xbdaa66b3	-0.083203696
143	0x3d986bc9	0.074424334
144	0x3d51912f	0.05116385
145	0x3d0fdd35	0.03512307
146	0x3c6bff9a	0.014404202
147	0xbd4aa7d5	-0.049476463
148	0xbcbb9fb1	-0.022903295
149	0x3bd30ec9	0.0064409715
150	0xbdac36cc	-0.08408889
151	0xbdb6cdd1	-0.08925975
152	0x3dace85b	0.08442756
153	0xbcf361f2	-0.02970979
154	0x3dc7895d	0.09742997
155	0xbd928890	-0.071549535
156	0xbd123e05	-0.035703678
157	0xbce7350b	-0.028223535
158	0xbd35b541	-0.04436231
159	0x3d971d64	0.07378653
160	0xbd20f883	-0.0392995
161	0xbd752d34	-0.059857562
162	0xbd99522f	-0.074863784
163	0x3d78498f	0.060617026
164	0x3d7829e8	0.06058684
165	0xbc5a03a8	-0.013306536
166	0xbda1e7b5	-0.07905523
167	0xbd7a2d35	-0.06107827
168	0x3d5e886f	0.054329332
169	0xbd26ce91	-0.04072434
170	0x3dc03ec6	0.09386973
171	0xbda139e6	-0.078723714
172	0xbb111d00	-0.002214253
173	0x39e04057	0.00042772546
174	0x3d1d1c8c	0.038357303
175	0xbd16cc97	-0.036816206
176	0xbd19abce	-0.03751736
177	0xbc744161	-0.014908166
178	0x3d50e482	0.050999172
179	0x3c32d221	0.010914356
180	0x3dc7e82c	0.0976108
181	0x3c1e0044	0.009643618
182	0xbd5ea3a0	-0.054355264
183	0x3da2472f	0.079237334
184	0x3d849a3e	0.06474732
185	0xbd84feb3	-0.064938925
186	0xbc907d95	-0.017638007
187	0x3d3ddc92	0.04635293
188	0x3dc5ffa0	0.09667897
189	0xbd3625d4	-0.04446967
190	0x3b0330d6	0.0020018122
191	0x3dd3447b	0.10315796
192	0x3d31c5da	0.043401577
193	0x3c9a2efd	0.018821234
194	0xbdaa752a	-0.083231285
195	0xbd4723c4	-0.048618093
196	0xbcd4223c	-0.02589523
197	0xbced219f	-0.028946696
198	0x3cc6fea1	0.024291338
199	0x3c81f2fa	0.01586293
200	0xbd2a9c5a	-0.041653015
201	0x3db5d90a	0.088792875
202	0xbd82c372	-0.063849345
203	0xbd5d415a	-0.054017402
204	0x3d9e4c82	0.077294365
205	0xbd4aed44	-0.04954268
206	0x3994a262	0.00028349744
207	0xbcd3aaee	-0.025838342
208	0xbdb55141	-0.088533886
209	0x3db9b97a	0.0906858
210	0xbc56b1fd	-0.013103959
211	0x3dc1c38c	0.09461126
212	0xbc69f31a	-0.014279151
213	0xbcfacb72	-0.030614588
214	0xbb8e8a85	-0.004350009
215	0x3d539298	0.051653475
216	0xbc18c632	-0.009324597
217	0xbc440efa	-0.011966461
218	0xbd20f268	-0.039293677
219	0x3d428dd8	0.047498554
220	0xbd4832c8	-0.048876554
221	0x3d4926ea	0.049109377
222	0xbbb51c4c	-0.005527055
223	0x3da2e8d3	0.07954564
224	0x3cd7f73e	0.026363011
225	0xbdab1021	-0.08352686
226	0xbcb06db9	-0.021536695
227	0x3d02c9e5	0.031930823
228	0x3d0f1f77	0.034942117
229	0x3c60ca03	0.013720038
230	0x3d56488f	0.05231529
231	0x3d84539e	0.06461261
232	0xbccdad8f	-0.025107173
233	0xbb60f2e8	-0.003432447
234	0x3cba028d	0.022706294
235	0xbdaf4e72	-0.08559884
236	0x3dd7be9c	0.10534403
237	0x3bc5e1cb	0.0060388795
238	0xbd5cde5a	-0.05392299
239	0x3c9c34ed	0.019068206
240	0x3c03fd86	0.00805605
241	0xbd4f44a7	-0.05060258
242	0x3dcd8404	0.100349456
243	0xbdaebe1d	-0.08532355
244	0xbd272dc3	-0.040815126
245	0xbccee9bd	-0.02525794
246	0x3d859dc1	0.0652423
247	0x3d444caf	0.047924694
248	0xbdc900f7	-0.09814637
249	0xbd07f06e	-0.033188276
250	0x3d9e0e2b	0.07717546
251	0xbdc04eb8	-0.093900144
252	0x3bf7cb02	0.007562042
253	0x3da10256	0.07861774
254	0x3d9888be	0.074479565
255	0xbd9c8c6e	-0.07643972

encode_res_dense_blocks.2.conv2.conv.bias f4 [32]
0	0x3d2a25bb	0.04153989
1	0xbc0c67e6	-0.008569693
2	0xbd2500f2	-0.040284105
3	0xbd9fe90c	-0.07808122
4	0x3d56acbc	0.052410826
5	0x3c2a732f	0.0104034385
6	0xbcce2739	-0.025165187
7	0x3ca2f146	0.019890439
8	0x3d8bd0db	0.068269454
9	0x3d9f106a	0.077668026
10	0xbd7b6210	-0.061372817
11	0xbd98cbae	-0.07460724
12	0xbd92a1ce	-0.07159768
13	0x3d0cb685	0.03435375
14	0xbdb2eff6	-0.08737175
15	0xbd85192c	-0.06498942
16	0xbd38d2e7	-0.045123007
17	0xbd1760a1	-0.036957387
18	0xbd169bad	-0.036769558
19	0x3d4620b3	0.04837103
20	0x3da8b046	0.082367465
21	0x3d03e1e8	0.032197863
22	0x3d3a00f3	0.04541106
23	0xbd6daefc	-0.058028206
24	0x3da25f0b	0.07928284
25	0xbd80f9e6	-0.06297664
26	0x3da84a81	0.082173355
27	0x3d626c77	0.05527922
28	0x3b25e44e	0.0025313082
29	0x3d38c2ae	0.045107536
30	0x3dbbd6ec	0.091718525
31	0xbdc5ba3b	-0.09654661
