model/2023-03-17-00-55-17.pth (torch, 229585 bytes, 50 tensors)

encode_conv_input.conv.weight f4 [32, 1, 3]
-0.4527708 0.27192822 0.3233743 0.51384145 -0.49416533 -0.1027351 -0.057741277 0.41093302
0.52033 -0.22904809 -0.2573666 -0.49849978 0.34678417 0.3709543 -0.23280412 -0.32398105
-0.1180306 -0.22269939 0.40067828 -0.41460124 0.21976091 0.5490896 -0.26060593 0.46925607
-0.56417334 -0.23411384 -0.20940809 0.12048236 -0.0341545 -0.22080298 0.041027687 0.5044451
-0.34251133 0.20336732 0.54502773 0.0057720905 0.33579612 -0.42760223 0.047069706 0.19744009
0.3655379 -0.16924624 0.5297439 -0.053852454 -0.5693629 -0.34367266 0.016805448 -0.31691852
0.25940707 0.09574369 0.004746915 -0.5523626 0.20833385 0.21407111 -0.24474514 -0.12209551
0.2714681 -0.27136126 -0.4085799 0.4853241 -0.5310247 0.33336452 -0.55338943 0.23905271
0.47419542 0.5175577 -0.31810564 -0.36959723 0.50064033 0.14727628 -0.31627676 -0.06774873
-0.47002262 0.29275674 0.119119 0.08285798 -0.5245884 -0.2324626 0.055357803 -0.521834
-0.09628591 0.5189834 -0.2653213 0.04885711 -0.074862555 -0.02538491 0.05015723 -0.023492033
0.085014984 0.52321976 -0.46386135 -0.018802192 -0.22867544 -0.1689278 0.07072968 -0.45698938
00000000: 93d1 e7be 2d3a 8b3e 5191 a53e 1d8b 033f
00000010: 3d03 fdbe c866 d2bd 1e82 6cbd d065 d23e
00000020: 5934 053f 958b 6abe 8ec5 83be 5d3b ffbe
00000030: b28d b13e b9ed bd3e 3464 6ebe d8e0 a5be
00000040: 07ba f1bd 4f0b 64be b425 cd3e 9d46 d4be
00000050: 0109 613e 2391 0c3f 246e 85be 5542 f03e
00000060: aa6d 10bf 8abb 6fbe 136f 56be 75bf f63d
00000070: 97e5 0bbd 2d1a 62be a60c 283d 5023 013f
00000080: a55d afbe 863f 503e f086 0b3f ce23 bd3b
00000090: 78ed ab3e aeee dabe 2acc 403d bc2d 4a3e
000000a0: c927 bb3e e34e 2dbe 4c9d 073f 6494 5cbd
000000b0: c4c1 11bf ddf5 afbe 94ab 893c 2543 a2be
000000c0: 01d1 843e 4515 c43d 028c 9b3b a367 0dbf
000000d0: 7855 553e 7535 5b3e 789e 7abe 360d fabd
000000e0: defd 8a3e ddef 8abe 6231 d1be 677c f83e
000000f0: 3cf1 07bf c1ae aa3e eeaa 0dbf 3cca 743e
00000100: bec9 f23e a97e 043f bede a2be d93b bdbe
00000110: f729 003f 98cf 163e 07ef a1be d9bf 8abd
00000120: cea6 f0be 36e4 953e aaf4 f33d 72b1 a93d
00000130: 6d4b 06bf ad0a 6ebe ddbe 623d ea96 05bf
00000140: 8c31 c5bd 19dc 043f 32d8 87be 651e 483d
00000150: 8a51 99bd 04f4 cfbc ab71 4d3d 5d72 c0bc
00000160: 561c ae3d bbf1 053f 3c7f edbe 0e07 9abc
00000170: e529 6abe 69fb 2cbe b9da 903d 83fa e9be

encode_conv_input.conv.bias f4 [32]
0.31506172 0.36857307 0.09707312 -0.08536727 -0.44181055 -0.40108892 -0.11809083 -0.3740672
-0.25461367 0.3101522 0.42611775 0.5543071 0.5691727 0.31061438 0.17901166 0.3451138
-0.14029734 0.36714044 -0.0014886722 0.49022233 0.21984833 0.39307547 0.3936019 0.036665563
-0.12445544 0.07541856 -0.51600504 0.5060095 -0.3913629 -0.36766344 0.33667222 -0.061888482
00000000: c54f a13e 9cb5 bc3e 46ce c63d 09d5 aebd
00000010: fe34 e2be 875b cdbe 9bd9 f1bd bc85 bfbe
00000020: b95c 82be 45cc 9e3e 1b2c da3e 12e7 0d3f
00000030: 4db5 113f d908 9f3e d54e 373e c2b2 b03e
00000040: 1baa 0fbe d5f9 bb3e 8d1f c3ba 6cfe fa3e
00000050: ec1f 613e 3041 c93e 3086 c93e a12e 163d
00000060: 7ee2 febd 0c75 9a3d e818 04bf d789 013f
00000070: b860 c8be 623e bcbe 4d60 ac3e c77e 7dbd

encode_res_dense_blocks.0.conv1.conv.weight f4 [32, 32, 3]
0.005632528 0.07616868 -0.050375715 -0.058401156 -0.0068553933 -0.08613739 -0.07285103 0.077962115
-0.0007248496 -0.0030210419 -0.0799136 0.069949724 -0.062539056 -0.058644846 -0.0715024 0.11874177
0.08841935 -0.042667475 -0.0330456 0.048013393 0.083915256 0.08739605 0.027882209 0.038581524
0.015979258 0.07771102 -0.026616333 -0.057993338 0.04274691 0.08176365 -0.00071798015 0.033017132
-0.08855617 -0.053094532 0.072337545 -0.047242064 0.05569624 0.049696427 -0.0055785575 -0.02568908
-0.06370485 0.0593341 0.027392212 -0.007009199 -0.1010891 -0.0022481373 -0.071771026 0.00068439986
0.07990472 -0.08201226 0.062223203 -0.0991559 -0.047500707 0.09778571 -0.013757227 0.014831953
-0.003048769 0.029787885 0.08317478 -0.051732466 -0.052132174 0.034246005 0.095321156 0.07380982
0.087038234 -0.0036310586 0.08126425 -0.088491775 -0.08977729 -0.03913073 0.06630989 -0.09322349
-0.072323196 -0.016372012 -0.07169228 0.05589837 0.041977674 0.056229655 0.093065955 0.019277183
-0.03650719 -0.07835798 -0.06000868 0.09057921 0.033442594 0.0798834 -0.034613457 -0.011224927
0.08662558 -0.0069410005 0.009137771 0.024474118 -0.088141 -0.029126795 -0.07418863 -0.055356715
-0.029457169 -0.024009075 -0.10007767 0.0093987 0.04009163 0.05789543 -0.086841516 -0.0062584556
0.0070039616 -0.0857443 0.015934423 -0.021784196 0.056347214 0.03674397 0.09196095 -0.045987327
0.020638263 -0.042338256 -0.082124226 -0.024741216 -0.09637934 -0.08446712 -0.04202601 -0.05538766
-0.08459073 -0.03829576 -0.007489007 -0.09989352 -0.0583408 0.045260374 0.06260197 0.041133832
0.09982467 0.07667111 0.09116475 0.10599989 0.09333865 0.03606394 -0.05014891 -0.0462567
-0.050366517 0.032949682 0.060456987 0.06931575 0.03586481 -0.0032313108 -0.08917501 -0.07520058
0.0028102975 -0.08232668 0.06536136 -0.05119226 -0.08069398 -0.04343182 0.01741963 -0.04022219
-0.10568488 -0.022630207 -0.06904756 -0.03453924 0.048493214 -0.04679246 -0.016754046 0.025268095
0.09041377 0.07748105 0.041252967 0.031746104 0.0028688859 0.066977635 0.050030626 -0.09851596
0.05837448 0.098429255 -0.09608242 -0.059981674 -0.013814186 -0.022005325 -0.10646239 -0.05416379
-0.023222998 -0.09015946 -0.007325531 -0.030557014 0.02136427 -0.09272902 0.020222964 -0.009300906
-0.06360703 -0.054986317 -0.09133527 0.05650068 -0.093816236 -0.0016327857 -0.10526961 -0.05881495
0.057496697 0.04668813 -0.07260403 -0.02324696 0.06908877 0.066600055 -0.04393023 -0.052830927
-0.088238336 0.074492306 0.04898828 -0.0307003 0.06663295 -0.07614727 -0.04281205 0.05489974
-0.05307078 -0.070533454 -0.055610042 0.076685436 -0.10286479 0.02542828 -0.023098268 0.0155548975
0.020554034 -0.009726487 -0.0852475 -0.10266249 -0.1057776 -0.06287281 -0.08585563 -0.09935773
0.053775214 0.004547423 0.00475514 0.045693833 0.065835215 0.00372977 0.06987286 -0.065410465
-0.07599435 0.047429673 0.04413049 -0.034060948 -0.02616327 0.011745319 -0.09478312 -0.084658265
0.060165115 -0.031113429 0.061227508 0.06763888 0.06383847 0.099825785 -0.087585405 0.08960755
0.09380893 0.056957617 0.005318718 0.046916638 -0.042606093 0.02079475 -0.043808866 -0.09304806
00000000: 1291 b83b 53fe 9b3d c456 4ebd 0d36 6fbd
00000010: 35a3 e0bb cd68 b0bd ec32 95bd 9aaa 9f3d
00000020: d503 3eba acfc 45bb bea9 a3bd cd41 8f3d
00000030: 7a14 80bd 9435 70bd da6f 92bd e32e f33d
00000040: 3415 b53d 17c4 2ebd d35a 07bd b1a9 443d
00000050: c3db ab3d b3fc b23d 3b69 e43c a907 1e3d
00000060: efe6 823c f526 9f3d 7f0a dabc 6c8a 6dbd
00000070: 6217 2f3d b373 a73d d536 3cba f93c 073d
00000080: f05c b5bd a779 59bd b525 943d e580 41bd
00000090: be21 643d 7b8e 4b3d 55cc b6bb e871 d2bc
000000a0: b077 82bd 5008 733d a265 e03c 6cad e5bb
000000b0: cd07 cfbd 7c55 13bb b0fc 92bd 4c69 333a
000000c0: 16a5 a33d 0bf6 a7bd c2dd 7e3d 4012 cbbd
000000d0: 1a90 42bd e043 c83d fe65 61bc b801 733c
000000e0: dbcd 47bb b905 f43c 8a57 aa3d 6ce5 53bd
000000f0: 8c88 55bd 8a45 0c3d bd37 c33d 9a29 973d
00000100: 1a41 b23d 0ef7 6dbb df6d a63d 2d3b b5bd
00000110: 28dd b7bd 8b47 20bd 7bcd 873d f5eb bebd
00000120: 2f1e 94bd 991e 86bc 67d3 92bd b0f5 643d
00000130: c8f0 2b3d 1151 663d 5d99 be3d 2feb 9d3c
00000140: 9088 15bd 267a a0bd a9cb 75bd 9881 b93d
00000150: 1afb 083d e899 a33d d7c6 0dbd c2e8 37bc
00000160: c168 b13d 5571 e3bb 97b6 153c f27d c83c
00000170: 4583 b4bd 519b eebc 35f0 97bd b9bd 62bd
00000180: 2950 f1bc aeae c4bc 85f5 ccbd 01fd 193c
00000190: 1f37 243d c223 6d3d f7d9 b1bd bb13 cdbb
000001a0: 7d81 e53b b59a afbd e888 823c c574 b2bc
000001b0: 56cc 663d d880 163d 0656 bc3d 355d 3cbd
000001c0: 9311 a93c e16a 2dbd bf30 a8bd 17ae cabc
000001d0: 8862 c5bd 19fd acbd 7723 2cbd 2cde 62bd
000001e0: e83d adbd 04dc 1cbd 5866 f5bb f994 ccbd
000001f0: c3f6 6ebd f162 393d 7635 803d f37b 283d
00000200: e070 cc3d be05 9d3d 96b4 ba3d 7816 d93d
00000210: 5628 bf3d c8b7 133d f268 4dbd aa77 3dbd
00000220: 1f4d 4ebd 3ff6 063d bfa1 773d 6af5 8d3d
00000230: fbe6 123d 66c4 53bb 63a1 b6bd c302 9abd
00000240: f82c 383b e49a a8bd 2ddc 853d faae 51bd
00000250: e342 a5bd 90e5 31bd 9db3 8e3c 06c0 24bd
00000260: 5071 d8bd fc62 b9bc cf68 8dbd 0579 0dbd
00000270: d2a0 463d 73a9 3fbd c83f 89bc 09ff ce3c
00000280: db2a b93d 62ae 9e3d dff8 283d 3408 023d
00000290: eb03 3c3b 922b 893d eaec 4c3d bcc2 c9bd
000002a0: 141a 6f3d 4795 c93d dcc6 c4bd 58af 75bd
000002b0: e554 62bc 8344 b4bc f408 dabd dada 5dbd
000002c0: 283e bebc 86a5 b8bd 020b f0bb b452 fabc
000002d0: 1f04 af3c b6e8 bdbd a1aa a53c d462 18bc
000002e0: 6744 82bd 5539 61bd fc0d bbbd 426d 673d
000002f0: ba22 c0bd 3203 d6ba 9897 d7bd f2e7 70bd
00000300: a881 6b3d 0d3c 3f3d 6cb1 94bd 6970 bebc
00000310: 6a7e 8d3d 9c65 883d 2ff0 33bd 3e65 58bd
00000320: 4db6 b4bd 6c8f 983d efa7 483d 327f fbbc
00000330: db76 883d 1af3 9bbd b05b 2fbd 8dde 603d
00000340: bf60 59bd d873 90bd 5bc7 63bd 410d 9d3d
00000350: c6aa d2bd f84e d03c 9438 bdbc f8d9 7e3c
00000360: ef60 a83c d85b 1fbc 3e96 aebd b640 d2bd
00000370: eda1 d8bd 76c3 80bd 14d5 afbd 117c cbbd
00000380: 6643 5c3d 8d02 953b 01d1 9b3b 7529 3b3d
00000390: 9dd4 863d 286f 743b 8119 8f3d ecf5 85bd
000003a0: eda2 9bbd 9e45 423d 2cc2 343d 7e83 0bbd
000003b0: 5b54 d6bc 706f 403c a71d c2bd 5061 adbd
000003c0: b26f 763d 97e1 febc b2c9 7a3d 4186 8a3d
000003d0: bebd 823d 7671 cc3d fa5f b3bd 2a84 b73d
000003e0: e51e c03d 644c 693d a448 ae3b a92b 403d
000003f0: ba83 2ebd c059 aa3c ed70 33bd fb8f bebd

encode_res_dense_blocks.0.conv1.conv.bias f4 [32]
0.016371567 0.070099756 -0.03372004 -0.071049996 0.11474735 -0.0204881 0.10715235 -0.0060591707
-0.0012260645 0.028655307 0.044010267 0.120879196 0.07554149 0.02980398 0.04479561 -0.08743924
0.015202734 0.02879547 0.07547877 -0.061723486 -0.110733025 -0.0957147 0.033271376 0.119555116
-0.018446848 -0.047079768 0.09245681 0.049662378 -0.0060957302 0.08867071 -0.0066574113 -0.03276212
00000000: aa1d 863c 7690 8f3d 061e 0abd a982 91bd
00000010: a900 eb3d a9d6 a7bc b172 db3d 028c c6bb
00000020: e6b3 a0ba 89be ea3c 1c44 343d 838f f73d
00000030: 7fb5 9a3d 7a27 f43c 9a7b 373d 5813 b3bd
00000040: e314 793c 7ae4 eb3c 9d94 9a3d c4d1 7cbd
00000050: ffc7 e2bd 1206 c4bd 9147 083d 50d9 f43d
00000060: d81d 97bc b7d6 40bd ff59 bd3d c76a 4b3d
00000070: b1be c7bb fd98 b53d 6a26 dabb 9331 06bd

encode_res_dense_blocks.0.conv2.conv.weight f4 [32, 32, 3]
-0.050113242 -0.087184295 0.016408201 -0.00575911 -0.03593189 0.0046466147 -0.017934542 -0.019109523
0.068032615 0.07600643 0.10363572 -0.01239593 -0.10527973 0.07247385 -0.08488449 0.08978756
0.004325084 0.08017903 -0.02965277 -0.056149703 -0.072625265 0.00051335717 0.02655514 0.047433656
0.08438225 -0.05212292 0.07503052 0.07383382 0.05270939 -0.017062576 0.07108368 -0.072131164
0.08685899 -0.009601563 -0.10983888 -0.0074513396 0.029709069 -0.0533087 0.0017808445 -0.05685544
-0.04309292 -0.048709907 0.034116626 0.050709877 0.061963804 0.022147898 0.09890708 0.015809635
-0.045201708 0.03864126 -0.007377907 -0.0753237 -0.091648236 -0.08421334 0.048498575 -0.08451169
0.08037055 0.066272326 -0.099825606 0.07859694 -0.028166195 -0.005909139 -0.04169232 0.024404421
-0.026786448 -0.06366364 -0.022358254 0.047576375 -0.006923218 0.02466697 -0.07709373 0.035792425
-0.095771916 0.06665927 0.038911656 0.018414384 -0.08803657 0.07494821 0.042656433 0.07757782
-0.013545605 0.008644359 -0.08837708 0.067624435 0.03749809 -0.062344905 -0.04768451 -0.10203373
0.082888916 -0.0024059939 -0.0045531015 0.047406226 -0.061882954 0.09636203 -0.031149201 -0.07683125
-0.013781726 0.05613786 -0.05109818 -0.05325325 0.07805172 -0.093874626 -0.026311103 0.079339206
0.12480953 0.02811404 0.03576196 0.1015751 -0.03879862 0.084008686 -0.008182541 0.023047855
0.096551135 -0.01577471 -0.07348936 -0.06507121 0.09203564 -0.008574298 -0.08225343 -0.03639851
0.03662242 0.045606036 -0.006281317 0.0639724 0.056563836 -0.0037941919 -0.08006442 0.015377024
0.04567565 -0.057052854 -0.036704 -0.051106587 -0.0891762 0.002069667 -0.0065075574 0.052280676
-0.089105904 -0.017412784 -0.0051210118 0.088767506 0.032613747 0.023584753 -0.081107944 0.07793355
0.06684563 0.05810496 -0.0011618262 0.07114627 -0.0016536006 0.065745674 -0.06870342 -0.016996818
0.11038535 0.06045055 0.083431184 -0.0201791 -0.08377705 0.084527574 0.05634847 0.017702516
0.0032613552 0.03547194 0.08769681 0.07766892 -0.014029671 -0.061988596 0.0826512 0.011351127
-0.07410917 -0.020257315 0.0658108 -0.042377375 0.06863563 -0.007837586 -0.02998579 -0.07690912
0.0865281 -0.049166985 -0.036759105 -0.042625327 -0.04662863 0.008949588 -0.018820588 -0.09947962
-0.07366841 0.064824 -0.0031877654 -0.025335012 0.08875391 0.0673244 0.06658025 -0.011258872
-0.08518914 0.0034137915 0.074456304 0.03731874 -0.018292246 -0.04923595 -0.042135924 0.022936773
-0.084929325 0.036206167 -0.00874104 -0.050661754 0.051934164 -0.033431765 0.04282749 -0.07933309
-0.047270555 -0.059380654 0.0039157826 0.0682 0.019948266 -0.015988003 0.03245289 -0.06384524
-0.0540405 -0.07222598 -0.05922779 -0.05432112 0.10191339 0.039128095 -0.07352867 0.015029433
0.056212984 0.09426634 0.045771755 0.015355702 -0.03968873 0.009773749 -0.012399642 -0.057437237
-0.078070775 0.076689735 0.0004543379 -0.01382008 -0.04162127 -0.09573926 0.0162687 0.02439706
-0.09753592 0.019240582 0.013900758 -0.012759806 -0.062412348 0.010018762 -0.015361473 0.10052319
0.05665203 -0.087158196 -0.10215454 -0.0062935646 -0.07291003 -0.056105044 0.106176175 -0.053823546
00000000: 8b43 4dbd ae8d b2bd 7e6a 863c ebb6 bcbb
00000010: 512d 13bd a142 983b 76eb 92bc 938b 9cbc
00000020: af54 8b3d 42a9 9b3d f73e d43d 4c18 4bbc
00000030: e69c d7bd 2b6d 943d ebd7 adbd 8ae2 b73d
00000040: 6fb9 8d3b e734 a43d 5eea f2bc 3bfd 65bd
00000050: 8ebc 94bd d192 063a 2a8a d93c cb49 423d
00000060: 9ad0 ac3d d87e 55bd 9aa9 993d 3036 973d
00000070: cde5 573d d1c6 8bbc 5294 913d 81b9 93bd
00000080: 20e3 b13d e04f 1dbc 35f3 e0bd 5e2a f4bb
00000090: 6f60 f33c 395a 5abd 3a6b e93a 40e1 68bd
000000a0: 3482 30bd 0a84 47bd e0bd 0b3d 29b5 4f3d
000000b0: c2cd 7d3d 826f b53c cc8f ca3d 3583 813c
000000c0: 6d25 39bd 4c46 1e3d 5fc2 f1bb 5043 9abd
000000d0: 12b2 bbbd 0b78 acbd 71a6 463d 7714 adbd
000000e0: 5199 a43d c9b9 873d 5e71 ccbd 6ff7 a03d
000000f0: cbbc e6bc 73a1 c1bb 91c5 2abd c8eb c73c
00000100: 416f dbbc 1562 82bd a828 b7bc 72df 423d
00000110: 29dc e2bb 6312 ca3c 51e3 9dbd 149b 123d
00000120: 1124 c4bd a884 883d d461 1f3d c3d9 963c
00000130: 844c b4bd 727e 993d 83b8 2e3d 1fe1 9e3d
00000140: 63ee 5dbc 12a1 0d3c 0bff b4bd ae7e 8a3d
00000150: 9997 193d 5f5d 7fbd d550 43bd 0ff7 d0bd
00000160: aac1 a93d e1ad 1dbb 2f32 95bb 082d 423d
00000170: fb78 7dbd 7559 c53d 9c2c ffbc b459 9dbd
00000180: c0cc 61bc d0f0 653d 534c 51bd 1420 5abd
00000190: 95d9 9f3d 5741 c0bd 628a d7bc 987c a23d
000001a0: 249c ff3d 6a4f e63c 227b 123d 9b06 d03d
000001b0: 4deb 1ebd bf0c ac3d 1010 06bc dbce bc3c
000001c0: 9abc c53d f739 81bc 9781 96bd 0e44 85bd
000001d0: 2e7d bc3d 367b 0cbc 7c74 a8bd 9b16 15bd
000001e0: 6401 163d 65cd 3a3d 82d3 cdbb f603 833d
000001f0: 7baf 673d faa7 78bb d1f8 a3bd eaef 7b3c
00000200: 6416 3b3d 41b0 69bd ef56 16bd 2455 51bd
00000210: 03a2 b6bd 40a3 073b 593d d5bb 4324 563d
00000220: 287d b6bd 41a5 8ebc 29ce a7bb bdcb b53d
00000230: fe95 053d d034 c13c ec1b a6bd a09b 9f3d
00000240: 5de6 883d 77ff 6d3d 6b48 98ba 23b5 913d
00000250: a1bd d8ba aba5 863d 61b4 8cbd e93c 8bbc
00000260: b711 e23d ff9a 773d f8dd aa3d a44e a5bc
00000270: 4d93 abbd cb1c ad3d a7cd 663d de04 913c
00000280: 76bc 553b 064b 113d 639a b33d e210 9f3d
00000290: b5dc 65bc c1e7 7dbd 0845 a93d 14fa 393c
000002a0: 8cc6 97bd abf2 a5bc d0c7 863d e693 2dbd
000002b0: d690 8c3d 3869 00bc c2a4 f5bc 8782 9dbd
000002c0: a535 b13d 5263 49bd b790 16bd e597 2ebd
000002d0: aafd 3ebd 4ba1 123c a22d 9abc f9bb cbbd
000002e0: 77df 96bd 72c2 843d d4e9 50bb 5f8b cfbc
000002f0: 9cc4 b53d 60e1 893d 3a5b 883d 2277 38bc
00000300: a577 aebd ebb9 5f3b 8c7c 983d 89db 183d
00000310: 9fd9 95bc a3ab 49bd b896 2cbd e6e5 bb3c
00000320: 6def adbd eb4c 143d 9436 0fbc b382 4fbd
00000330: ebb8 543d bfef 08bd e16b 2f3d 6379 a2bd
00000340: c59e 41bd 2139 73bd f74f 803b 71ac 8b3d
00000350: 8c6a a33c 46f9 82bc 52ed 043d 4bc1 82bd
00000360: 9259 5dbd 37eb 93bd d798 72bd d37f 5ebd
00000370: f8b7 d03d c844 203d 3396 96bd 033e 763c
00000380: 963f 663d b60e c13d 2a7b 3b3d 7b96 7b3c
00000390: a690 22bd 1322 203c de27 4bbc 4f43 6bbd
000003a0: 92e3 9fbd 820f 9d3d 3334 ee39 9e6d 62bc
000003b0: 117b 2abd f212 c4bd f045 853c 58dc c73c
000003c0: eac0 c7bd 6d9e 9d3c 01c0 633c 810e 51bc
000003d0: 17a4 7fbd bc25 243c b0ae 7bbc 1adf cd3d
000003e0: f60b 683d ff7f b2bd 6636 d1bd 3f3a cebb
000003f0: db51 95bd 67ce 65bd e572 d93d 1476 5cbd

encode_res_dense_blocks.0.conv2.conv.bias f4 [32]
-0.024735866 0.012692347 -0.010007628 -0.07555317 0.0097237285 -0.12131649 0.096074834 0.032797754
0.05524054 -0.041637845 0.09701618 0.06092452 0.009661199 -0.033302553 -0.091205366 -0.025773687
0.1005957 0.01450204 -0.02129432 0.0927629 -0.08680719 -0.064417705 0.051417217 0.08486682
0.0051065683 -0.036624663 0.056925993 -0.067163534 0.012506947 0.0132055385 -0.02575375 0.09016011
00000000: dfa2 cabc 90f3 4f3c 09f7 23bc 9fbb 9abd
00000010: 4650 1f3c c874 f8bd e2c2 c43d f056 063d
00000020: e843 623d 728c 2abd 6bb0 c63d fd8b 793d
00000030: 014a 1e3c 4268 08bd e1c9 babd 5723 d3bc
00000040: 1e05 ce3d f799 6d3c 6d71 aebc 7afa bd3d
00000050: f8c7 b1bd 6eed 83bd dc9a 523d a8ce ad3d
00000060: 0055 a73b be03 16bd 3b2b 693d 098d 89bd
00000070: f0e9 4c3c 0b5c 583c 87f9 d2bc dda5 b83d

encode_res_dense_blocks.1.conv1.conv.weight f4 [32, 32, 3]
-0.006230006 0.01784638 0.078791924 -0.053438384 0.032667667 0.0007345693 -0.082031995 0.10415993
0.041191496 0.036738317 0.08170345 -0.008545168 0.050933212 -0.0021079015 0.062386777 -0.08306477
-0.11035464 -0.019747322 -0.016590148 0.014694841 0.020489614 -0.031942863 -0.08915345 0.08184549
-0.016949892 0.007649517 0.047347005 0.005552253 0.048509788 -0.052681796 0.0922379 0.067571275
-0.083489805 0.06096834 -0.027403608 -0.04536111 0.06735422 0.062848076 0.04230694 0.023156835
0.0072348043 -0.0071481443 -0.017214224 0.06632723 0.021957664 -0.105582304 0.076012686 -0.03767638
0.058398325 -0.06681461 -0.022246663 -0.033030774 0.015922286 -0.100110136 -0.03367078 -0.050771885
0.083489195 0.084464855 0.08734889 -0.029193746 -0.05444195 -0.029154414 0.059141986 0.049775675
0.08516843 -0.06279165 0.05379761 0.07265224 -0.057959072 0.006505645 0.09269217 0.08018639
-0.005151091 0.020042678 0.030804124 0.061864424 0.039708946 0.04059389 -0.058658946 0.029969383
-0.016346576 -0.025793895 -0.046473276 0.041575555 -0.04782272 0.066962324 0.03105953 -0.0017665428
-0.025425708 0.037126593 0.055423424 -0.047334082 0.034471985 0.037876043 0.07370047 0.04922164
0.04080997 0.033161584 -0.070588045 0.002906611 -0.0882565 -0.053202167 0.07152161 -0.08966512
0.09071903 -0.0779677 -0.04191717 -0.06660394 -0.018625444 -0.07723221 -0.050261486 0.05174686
-0.020954145 -0.0076218504 -0.05763773 0.014872819 -0.07090763 -0.028404221 -0.01952364 0.048344973
-0.025726058 0.012808185 0.03974717 -0.0062753926 -0.0057073366 0.05769597 -0.080555305 -0.044522833
0.03750295 -0.10151916 -0.06498868 -0.018851517 0.08223791 -0.11074982 -0.055006575 -0.078352824
-0.037503984 -0.021883884 0.027386274 -0.031885464 0.07916482 -0.04963323 -0.04049402 -0.092805706
-0.059021667 0.033547916 -0.06281797 -0.04417324 -0.0007679044 -0.07137347 0.002619876 -0.03029751
0.10220061 -0.07344364 0.05064102 0.045853544 0.02555411 -0.0596292 0.01870374 -0.0943502
0.04598801 -0.01129609 0.024005076 -0.045782264 -0.039521288 -0.08774897 -0.015355753 -0.090503395
-0.016102126 -0.08033795 -0.024470948 -0.09794321 -0.0072918753 -0.06762892 0.034103017 0.014241782
-0.092034996 -0.09866601 -0.1010579 -0.00019530409 0.016238784 0.02621541 -0.05035696 -0.045500923
-0.052811522 0.06312741 0.10215744 -0.03087884 -0.027355498 -0.035990104 -0.061959304 0.076561406
-0.03360437 0.06990614 -0.082508795 -0.054378383 -0.014251583 0.060944054 0.002760871 0.04110722
-0.0022325823 -0.049007285 0.013377243 0.07972779 -0.05452001 -0.07441401 0.029643215 0.03604431
0.08996767 0.08200744 -0.025047652 -0.040390022 -0.043878045 -0.0023033111 0.0979415 0.00858745
0.04175371 0.03784251 -0.072990246 -0.071231484 0.08556364 0.07492979 -0.07052899 -0.056667816
-0.075604685 0.049034663 0.10179894 -0.02795263 -0.09670997 0.012230812 -0.013457296 0.10306965
-0.07061182 -0.1000658 -0.015081617 0.097260974 -0.058897674 0.038523544 0.010344823 0.063151196
0.05430246 0.09961307 -0.07667391 0.07278079 0.02352328 -0.033931565 -0.001970446 -0.019527815
-0.058869887 -0.09885212 0.09483066 -0.075852305 -0.012947279 0.015343216 0.07843137 -0.018793374
00000000: 1425 ccbb 9232 923c a95d a13d 35e2 5abd
00000010: 88ce 053d 1c90 403a 6400 a8bd cd51 d53d
00000020: 6ab8 283d eb7a 163d 2354 a73d 0801 0cbc
00000030: 589f 503d b824 0abb 4789 7f3d dd1d aabd
00000040: 9d01 e2bd 23c5 a1bc 10e8 87bc a1c2 703c
00000050: d6d9 a73c 85d6 02bd 1696 b6bd 9c9e a73d
00000060: 80da 8abc cda8 fa3b efee 413d adef b53b
00000070: 33b2 463d dec8 57bd 39e7 bc3d cf62 8a3d
00000080: b4fc aabd f0b9 793d 887d e0bc 92cc 39bd
00000090: 02f1 893d 7eb6 803d 0b4a 2d3d 67b3 bd3c
000000a0: f011 ed3b fb3a eabb d804 8dbc 92d6 873d
000000b0: 8fe0 b33c 893b d8bd 8aac 9b3d 8c52 1abd
000000c0: 1533 6f3d 19d6 88bd a23e b6bc 474b 07bd
000000d0: 746f 823c 8b06 cdbd 5fea 09bd 2ef6 4fbd
000000e0: 62fc aa3d e9fb ac3d fae3 b23d b927 efbc
000000f0: 86fe 5ebd 3dd5 eebc de3e 723d 94e1 4b3d
00000100: c96c ae3d e998 80bd e25a 5c3d b3ca 943d
00000110: 7e66 6dbd 4e2d d53b 64d5 bd3d c338 a43d
00000120: 7cca a8bb 8b30 a43c ee58 fc3c 8d65 7d3d
00000130: d9a5 223d c745 263d 5d44 70bd 5a82 f53c
00000140: 41e9 85bc b84d d3bc c35a 3ebd 214b 2a3d
00000150: c2e1 43bd 8b23 893d 8e70 fe3c 578b e7ba
00000160: 9349 d0bc 0e12 183d ac03 633d 62e1 41bd
00000170: 7f32 0d3d e923 1b3d 46f0 963d a19c 493d
00000180: 5b28 273d 71d4 073d 7790 90bd d77c 3e3b
00000190: d3bf b4bd 84ea 59bd ec79 923d 59a2 b7bd
000001a0: e6ca b93d 88ad 9fbd 57b1 2bbd a667 88bd
000001b0: 6394 98bc ec2b 9ebd fdde 4dbd 84f4 533d
000001c0: 07a8 abbc b7c0 f9bb 8a15 6cbd 20ad 733c
000001d0: 0538 91bd f8af e8bc 0af0 9fbc 6105 463d
000001e0: 74bf d2bc 6cd9 513c eecd 223d cfa1 cdbb
000001f0: 9c04 bbbb 9c52 6c3d 2efa a4bd 935d 36bd
00000200: b19c 193d 47e9 cfbd c918 85bd 7f6e 9abc
00000210: 596c a83d cdd0 e2bd 934e 61bd 7277 a0bd
00000220: c79d 19bd d545 b3bc 2e59 e03c 559a 02bd
00000230: 2a21 a23d 374c 4bbd 0fdd 25bd eb10 bebd
00000240: b4c0 71bd 8a69 093d b5a6 80bd 00ef 34bd
00000250: 314d 49ba 412c 92bd 3ab2 2b3b 7c32 f8bc
00000260: 8e4e d13d 9e69 96bd f56c 4f3d edd0 3b3d
00000270: da56 d13c bf3d 74bd 9638 993c ad3a c1bd
00000280: ec5d 3c3d 3c13 39bc 4ba6 c43c 2f86 3bbd
00000290: 13e1 21bd bbb5 b3bd b296 7bbc d859 b9bd
000002a0: 9be8 83bc 3988 a4bd 4c77 c8bc 7396 c8bd
000002b0: aff0 eebb 0881 8abd 9baf 0b3d 5d56 693c
000002c0: d87c bcbd 6811 cabd 72f7 cebd 8bca 4cb9
000002d0: 3307 853c b3c1 d63c 1a43 4ebd 2d5f 3abd
000002e0: e550 58bd f248 813d eb37 d13d 9ff5 fcbc
000002f0: a318 e0bc 5c6a 13bd 0ac9 7dbd 3acc 9c3d
00000300: bca4 09bd f32a 8f3d 5ffa a8bd debb 5ebd
00000310: 797f 69bc 79a0 793d bbef 343b 0b60 283d
00000320: 8450 12bb ddbb 48bd 392c 5b3c 5348 a33d
00000330: 6050 5fbd 5f66 98bd 54d6 f23c 33a3 133d
00000340: f840 b83d 84f3 a73d bc30 cdbc 0270 25bd
00000350: 77b9 33bd 26f3 16bb 8e95 c83d 60b2 0c3c
00000360: f005 2b3d bf00 1b3d e97b 95bd d0e1 91bd
00000370: fd3b af3d ca74 993d 8171 90bd 831c 68bd
00000380: a1d6 9abd 92d8 483d f67b d03d eafc e4bc
00000390: e00f c6bd be63 483c fe7b 5cbc 2e16 d33d
000003a0: ee9c 90bd 4cef ccbd e318 77bc c330 c73d
000003b0: b03e 71bd ddca 1d3d 557d 293c 6a55 813d
000003c0: 426c 5e3d f001 cc3d 3607 9dbd 180e 953d
000003d0: e5b3 c03c d3fb 0abd 9922 01bb ccf8 9fbc
000003e0: 8d21 71bd fb72 cabd 9436 c23d 7458 9bbd
000003f0: d320 54bc 1d62 7b3c a0a0 a03d 90f4 99bc

encode_res_dense_blocks.1.conv1.conv.bias f4 [32]
0.009388923 0.040260833 0.03708924 0.0792904 0.02496792 0.06399325 0.06662792 -0.033946715
-0.024389772 -0.08340001 -0.06511849 0.09059953 0.09286626 -0.075045355 0.094473794 -0.07674771
0.04741459 0.045139216 0.06961058 -0.06902323 -0.048024405 0.0903652 -0.03954114 -0.09820329
0.10973961 0.020277878 -0.047044277 0.074328445 -0.06886504 -0.08594125 0.054547414 -0.08759845
00000000: ffd3 193c 8be8 243d e3ea 173d 0163 a23d
00000010: 8689 cc3c e50e 833d 3874 883d b60b 0bbd
00000020: 0fcd c7bc a0cd aabd d85c 85bd 3f8c b93d
00000030: aa30 be3d 61b1 99bd 7a7b c13d e72d 9dbd
00000040: cd35 423d e6e3 383d fe8f 8e3d 0d5c 8dbd
00000050: 3db5 44bd 6411 b93d e4f5 21bd ce1e c9bd
00000060: 29bf e03d cb1d a63c 80b1 40bd 8339 983d
00000070: 1d09 8dbd f701 b0bd 1c6d 5f3d d166 b3bd

encode_res_dense_blocks.1.conv2.conv.weight f4 [32, 32, 3]
0.076075226 -0.03574382 0.08004732 -0.060832944 0.041556902 -0.047448523 -0.10506177 -0.096091054
0.03630934 0.0014783774 0.026810119 0.08629144 0.085267045 -0.0161089 -0.026106728 -0.07932096
-0.07821378 -0.018530479 -0.04801079 -0.08386088 0.08740166 0.01638419 0.022407407 -0.044974208
0.076243676 0.06376884 0.097448245 0.056934398 0.018009026 -0.053244643 0.012109048 -0.053359322
-0.03737729 0.033134397 0.071898855 -0.077074446 -0.013525889 0.09711505 0.03378391 -0.1065109
0.024000423 -0.01287178 -0.027628832 0.07968919 -0.0622976 -0.05207361 0.080158845 0.02844291
-0.0270113 -0.050530907 -0.00023301934 -0.05097007 -0.06560456 0.046228975 -0.06913504 -0.02122753
-0.030592978 -0.053526666 -0.036176693 -0.08233546 -0.061835304 -0.061842978 0.105765745 0.037164602
0.02837597 0.009710062 0.054388177 -0.082872175 -0.09409701 -0.03866993 -0.07772492 0.0707637
0.021154663 -0.02496102 -0.010219548 -0.10615543 0.04159745 -0.07237361 0.089305714 0.049769826
-0.040256593 0.0789595 -0.06958683 0.070770405 -0.005980407 0.012255562 0.070684075 -0.06886155
-0.10881224 0.09636225 0.09009508 -0.067535646 -0.06320565 -0.071096845 -0.013041374 -0.03913623
-0.037818342 0.090394415 0.086875916 0.05044379 0.014582862 -0.051047374 -0.098877944 0.0909288
0.033773486 0.06856651 -0.025971953 -0.07753506 -0.042425208 0.03898449 0.04061611 0.09450165
0.029462993 -0.065812424 -0.0845316 0.03636486 -0.0059465063 -0.052318312 0.04875429 -0.08018946
-0.06556394 -0.0330672 -0.03655625 0.09951029 0.06191196 0.047708936 0.011357323 0.07273662
0.0664989 -0.104181714 -0.05435592 0.093287714 0.07171317 -0.080204055 0.05374564 0.06278985
0.074719205 -0.021843404 0.04333 0.043411687 -0.09299193 0.00432749 0.07812092 0.05003308
0.02154453 -0.034398574 -0.013368233 -0.015089438 -0.042138517 0.060237214 -0.023515156 -0.0536289
0.09431022 -0.0064227786 -0.051064014 0.030890161 -0.03451132 -0.010303227 0.03300951 -0.058963068
-0.070593625 0.095114805 0.0027844259 0.07123292 -0.09530813 -0.02213681 0.04780891 -0.088611566
0.07570331 -0.011138556 0.028982071 0.06606114 -0.0424704 0.049497396 0.006777353 0.08059272
0.0059661493 -0.0876747 0.08206987 0.00050731987 0.009880576 0.046668608 0.0062125623 0.050375953
-0.09635827 -0.00790348 0.058018673 -0.011835134 0.038223132 -0.10157628 0.05640787 0.001824682
0.061225872 -0.06227467 -0.06276771 -0.09908123 -0.10792789 0.014490064 -0.03423703 0.05883764
-0.09041713 -0.034435432 0.016643478 0.004733449 7.3191245e-06 -0.078349166 -0.014424864 -0.04520872
0.0038883928 -0.021697296 0.041508727 0.050646022 0.0069324863 0.109917395 0.090051405 0.041495897
-0.07879891 0.05667756 -0.024501586 -0.06786429 -0.0021199847 -0.08677646 0.07682519 0.047335494
0.0969953 0.020085976 0.03050804 -0.09084071 0.018706826 0.061480388 0.09324071 -0.045029096
0.009090138 -0.04194296 0.011882112 0.0116935 -0.04691434 -0.027842086 0.02250949 -0.08065845
0.00891875 0.040809445 0.002899648 0.06910249 0.08568307 -0.07691087 -0.054745734 -0.023663301
0.0626822 0.029913722 0.08400988 -0.09587281 -0.017541343 0.07270768 0.0754611 0.079598896
00000000: 54cd 9b3d 1d68 12bd d9ef a33d f72b 79bd
00000010: 9237 2a3d 6259 42bd a02a d7bd 63cb c4bd
00000020: 1ab9 143d 1dc6 c13a e5a0 db3c 91b9 b03d
00000030: 7da0 ae3d d0f6 83bc c7dd d5bc 0773 a2bd
00000040: 8c2e a0bd 3bcd 97bc f6a6 44bd 41bf abbd
00000050: a4ff b23d 2338 863c bd8f b73c e036 38bd
00000060: a525 9c3d 3d99 823d f292 c73d 0b34 693d
00000070: aa87 933c 0e17 5abd 0765 463c 4e8f 5abd
00000080: ee18 19bd efb7 073d b53f 933d 35d9 9dbd
00000090: b19b 5dbc 41e4 c63d ff60 0a3d 6322 dabd
000000a0: 899c c43c 29e4 52bc dc55 e2bc 1634 a33d
000000b0: c52b 7fbd 234b 55bd 522a a43d 1b01 e93c
000000c0: cd46 ddbc 7ff9 4ebd a756 74b9 fec5 50bd
000000d0: af5b 86bd 985a 3d3d ac96 8dbd 5be5 adbc
000000e0: 209e fabc c73e 5bbd 032e 14bd 7e9f a8bd
000000f0: 0447 7dbd 104f 7dbd b69b d83d e939 183d
00000100: b974 e83c f416 1f3c 23c6 5e3d e3b8 a9bd
00000110: efb5 c0bd 5c64 1ebd 3e2e 9fbd 8fec 903d
00000120: 8b4c ad3c 0e7b ccbc e46f 27bc 0568 d9bd
00000130: 1662 2a3d 9e38 94bd eae5 b63d 72db 4b3d
00000140: 19e4 24bd 85b5 a13d 8a83 8ebd 13f0 903d
00000150: 4af7 c3bb 8dcb 483c d0c2 903d 4907 8dbd
00000160: f4d8 debd 9259 c53d c583 b83d 2150 8abd
00000170: f771 81bd 399b 91bd 7dab 55bc 504d 20bd
00000180: 68e7 1abd b520 b93d 00ec b13d 269e 4e3d
00000190: f5ec 6e3c 0d17 51bd 8580 cabd e138 ba3d
000001a0: 1156 0a3d 996c 8c3d 22c3 d4bc b4ca 9ebd
000001b0: 0ec6 2dbd 33ae 1f3d 145d 263d 158a c13d
000001c0: 605c f13c aac8 86bd e71e adbd 52f3 143d
000001d0: e9da c2bb ba4b 56bd 94b2 473d 5f3a a4bd
000001e0: 6346 86bd 7971 07bd 02bc 15bd 0dcc cb3d
000001f0: 6597 7d3d 726a 433d 1114 3a3c f0f6 943d
00000200: 9330 883d 395d d5bd 50a4 5ebd a10d bf3d
00000210: 5bde 923d 0642 a4bd 6324 5c3d f797 803d
00000220: 6206 993d f0f0 b2bc cc7a 313d 74d0 313d
00000230: 8e72 bebd 9ecd 8d3b dcfd 9f3d 7def 4c3d
00000240: 277e b03c 85e5 0cbd 6f06 5bbc b139 77bc
00000250: 7099 2cbd 4cbb 763d dba2 c0bc faa9 5bbd
00000260: b725 c13d 2c76 d2bb 8028 51bd 5d0d fd3c
00000270: be5b 0dbd dece 28bc fb34 073d 4283 71bd
00000280: 6493 90bd 8dcb c23d ea7a 363b 91e2 913d
00000290: e930 c3bd 4158 b5bc 47d3 433d fb79 b5bd
000002a0: 560a 9b3d 7d7e 36bc cf6b ed3c 104b 873d
000002b0: 71f5 2dbd c8bd 4a3d 8f14 de3b cc0d a53d
000002c0: b07f c33b cb8e b3bd 3f14 a83d a9fd 043a
000002d0: 24e2 213c 9527 3f3d c092 cb3b 0457 4e3d
000002e0: 7c57 c5bd 997d 01bc fda4 6d3d 26e8 41bc
000002f0: dc8f 1c3d 3a07 d0bd f00b 673d 2b2a ef3a
00000300: fbc7 7a3d b913 7fbd 5b8c 80bd 1aeb cabd
00000310: 4c09 ddbd bc67 6d3c 213c 0cbd bdff 703d
00000320: 9e2c b9bd 2b0c 0dbd e757 883c 0c1b 9b3b
00000330: cd96 f536 8775 a0bd 4456 6cbc c72c 39bd
00000340: 68d4 7e3b 87be b1bc 0e05 2a3d 3472 4f3d
00000350: e929 e33b 5f1c e13d df6c b83d 9af7 293d
00000360: 5361 a1bd bb26 683d 8db7 c8bc 6ffc 8abd
00000370: 71ef 0abb dbb7 b1bd 8656 9d3d dde2 413d
00000380: 79a5 c63d 588b a43c ffeb f93c b20a babd
00000390: 0f3f 993c dcd2 7b3d fcf4 be3d 6e70 38bd
000003a0: cdee 143c 62cc 2bbd 31ad 423c 1896 3f3c
000003b0: 4029 40bd 1615 e4bc d265 b83c 4230 a5bd
000003c0: f31f 123c ce27 273d 0508 3e3b 9b85 8d3d
000003d0: 9b7a af3d 7283 9dbd 103d 60bd 8ad9 c1bc
000003e0: 865f 803d 9f0d f53c 5f0d ac3d f758 c4bd
000003f0: ddb2 8fbc c4e7 943d 598b 9a3d bf04 a33d

encode_res_dense_blocks.1.conv2.conv.bias f4 [32]
-0.07217703 -0.043304686 0.06717375 -0.03276873 -0.110296465 -0.08105288 -0.008466079 0.09693453
0.056016326 0.018761996 0.02633319 -0.015273564 -0.027289638 -0.10098911 -0.039030798 0.018745802
0.05343655 0.11779666 -0.06973014 0.013502561 0.04283623 -0.017868122 0.10037731 -0.09882552
0.03232619 0.059758402 -0.08535752 0.015094518 0.094502695 0.10518764 -0.08350443 -0.021268383
00000000: 8dd1 93bd 4160 31bd 6492 893d 8138 06bd
00000010: 1de3 e1bd 0dff a5bd 4fb5 0abc 9c85 c63d
00000020: 6071 653d c2b2 993c b4b8 d73c f83d 7abc
00000030: 858e dfbc 61d3 cebd c2de 1fbd cc90 993c
00000040: 49e0 5a3d 603f f13d adce 8ebd d839 5d3c
00000050: 0b75 2f3d 2b60 92bc 9e92 cd3d 0965 cabd
00000060: 7868 043d 3ac5 743d eccf aebd ff4e 773c
00000070: a18a c13d 9e6c d73d 5f04 abbd 083b aebc

encode_res_dense_blocks.2.conv1.conv.weight f4 [32, 32, 3]
-0.027064053 -0.014837893 -0.090296865 0.08310188 -0.05243512 0.0020153336 0.038411923 -0.0911719
-0.01738854 0.023073485 0.08996328 0.009621946 0.10176565 -0.077829584 -0.073484 0.083838955
0.060374275 -0.0062193233 -0.061078884 -0.011832852 -0.06848151 0.074598104 -0.083018094 0.029691588
-0.06568021 -0.08639118 0.10166375 0.008178812 0.08540808 0.04719876 -0.026570901 -0.01670265
-0.059388302 0.01446923 0.076949425 0.012487613 0.10756483 0.051843543 0.07295143 0.09070314
-0.056987338 0.0523272 0.10769033 0.08764119 -0.08332263 0.033500303 0.014928115 0.011454489
0.100770965 -0.07881874 -0.078696154 0.017838372 0.020727698 -0.05297672 0.051772755 0.010346065
0.078403525 0.086705044 -0.07641942 -0.089730926 0.06519355 -0.07245547 -0.024712693 0.014973657
0.030017842 0.06608935 -0.0057960735 0.03610223 -0.11959868 0.054404013 -0.0587487 0.03623266
-0.0419759 -0.023053214 0.0076463977 0.057210475 0.027512813 -0.060265955 0.1072434 -0.026621992
-0.010477664 -0.07520692 0.017245226 0.0047302656 -0.063778244 -0.053067416 0.052069094 0.06680392
-0.013965842 -0.031807836 0.09147166 0.024120735 0.10255955 -0.00089813996 -0.098274946 0.017851874
0.006544131 -0.05637775 -0.06660538 -0.07305936 0.0994553 0.0041331826 0.06714975 0.05360604
-0.093991905 0.09412518 0.03984049 -0.084648676 0.018760871 0.0013546617 -0.040107 0.052737698
-0.03461875 -0.09290427 0.00595589 0.10411096 -0.0043597743 0.08105748 0.037059233 0.06789472
-0.05804156 0.012610891 -0.017575433 -0.035159044 0.009593905 -0.043522924 0.030042078 0.07639871
0.0012721461 0.08276639 0.046690375 -0.094017036 -0.0986548 -0.058316506 -0.10333272 -0.0805228
-0.042703252 -0.06989035 0.09842724 -0.06490946 -0.086961366 -0.04723768 0.039166655 0.026907418
-0.0011916651 -0.046176128 0.022724304 -0.07105578 -0.007199917 -0.07100948 -0.092769176 -0.015180876
-0.053104367 0.04731613 -0.042703073 -0.033177804 -0.075346485 0.06229979 0.026536224 0.016238786
-0.085243 -0.0072090384 -0.024383401 -0.021539135 0.043264326 -0.08479178 -0.025255231 -0.10329457
-0.018267492 -0.05962048 -0.08226631 -0.07973814 0.027292289 -0.10660892 -0.03024872 -0.042206652
-0.066702716 0.05093101 0.005357139 -0.068778574 0.0649692 -0.02330833 0.035527766 0.057402052
-0.0055775368 0.035190284 0.08730698 0.054756824 0.1006355 0.010124928 -0.08589052 -0.0037515366
-0.08046139 -0.033598125 -0.008226602 0.018096382 0.099428214 0.038626153 -0.050297406 -0.06863824
0.007146235 -0.10940778 0.07628516 -0.10356682 0.086883016 -0.036641553 0.10537181 -0.08709599
-0.05720434 -0.09552488 0.037359353 -0.027114833 0.10368877 -0.09609495 0.090402 -0.033878073
0.051089983 -0.04209724 -0.015789468 0.08389791 -0.034279168 0.061195556 0.007925302 0.053794686
0.06404058 -0.08976376 0.02308469 -0.016133271 0.08212393 0.025146713 -0.06532483 0.06653192
-0.07129746 0.061245937 0.028039971 0.10346337 -0.045169372 -0.09282045 -0.007625245 -0.02878363
-0.044942945 -0.047249064 -0.0092792865 0.06958868 0.026950099 -0.015461597 0.043817874 -0.011499455
-0.083447754 -0.036201432 0.07252529 0.0037986112 0.026505155 0.049461994 -0.089786984 -0.07347217
00000000: 6fb5 ddbc a21a 73bc 90ed b8bd 5231 aa3d
00000010: 35c6 56bd b013 043b d255 1d3d 55b8 babd
00000020: 6972 8ebc 9b04 bd3c ab3e b83d 5ea5 1d3c
00000030: 826a d03d 1e65 9fbd c87e 96bd c2b3 ab3d
00000040: 044b 773d 77cb cbbb da2d 7abd 94de 41bc
00000050: 0940 8cbd e4c6 983d 6405 aabd c63b f33c
00000060: 5983 86bd dced b0bd 1635 d03d 6d00 063c
00000070: 6eea ae3d 7d53 413d 38ab d9bc ffd3 88bc
00000080: 2641 73bd 5910 6d3c a997 9d3d d898 4c3c
00000090: f34a dc3d e559 543d 8f67 953d 91c2 b93d
000000a0: 8e6b 69bd 0c55 563d bf8c dc3d 397d b33d
000000b0: 0ea5 aabd 9d37 093d 0d95 743c 9cab 3b3c
000000c0: 0261 ce3d b86b a1bd 732b a1bd c721 923c
000000d0: 22cd a93c 1efe 58bd ab0f 543d 8b82 293c
000000e0: 0792 a03d 6a92 b13d c981 9cbd d9c4 b7bd
000000f0: 3284 853d 8963 94bd 4672 cabc 1254 753c
00000100: fae7 f53c da59 873d fdec bdbb efdf 133d
00000110: 27f0 f4bd bed6 5e3d 7aa2 70bd b368 143d
00000120: ecee 2bbd 18da bcbc a28e fa3b 8855 6a3d
00000130: 8d62 e13c 6fd9 76bd 6da2 db3d 5d16 dabc
00000140: 82aa 2bbc 1606 9abd dc45 8d3c 5800 9b3b
00000150: 2b9e 82bd 385d 59bd 6746 553d 7ed0 883d
00000160: fdd0 64bc ef48 02bd 7e55 bb3d d998 c53c
00000170: be0a d23d 2771 6bba 6044 c9bd 183e 923c
00000180: 2670 d63b 5bec 66bd 6768 88bd 25a0 95bd
00000190: 38af cb3d a66f 873b cf85 893d 0292 5b3d
000001a0: d47e c0bd b4c4 c03d c82f 233d 495c adbd
000001b0: 66b0 993c e78e b13a 3d47 24bd 7c03 583d
000001c0: 64cc 0dbd 9844 bebd a029 c33b 2138 d53d
000001d0: 70dc 8ebb 7701 a63d 6ccb 173d 630c 8b3d
000001e0: fdbc 6dbd e99d 4e3c 5bfa 8fbc ee02 10bd
000001f0: c12f 1d3c 1845 32bd ce1a f63c ed76 9c3d
00000200: 24be a63a 6d81 a93d 683e 3f3d 018c c0bd
00000210: 870b cabd 4add 6ebd 1ba0 d3bd 23e9 a4bd
00000220: 9be9 2ebd ac22 8fbd 3994 c93d 40ef 84bd
00000230: cd18 b2bd 4c7c 41bd 376d 203d f26c dc3c
00000240: a531 9cba 2e23 3dbd 5228 ba3c b185 91bd
00000250: 48ed ebbb 6b6d 91bd c4fd bdbd 35b9 78bc
00000260: f783 59bd 8fce 413d 6be9 2ebd 73e5 07bd
00000270: 424f 9abd 112e 7f3d 7f62 d93c 3407 853c
00000280: e293 aebd cc39 ecbb b3bf c7bc d772 b0bc
00000290: ef35 313d 50a7 adbd 0fe4 cebc 1b8c d3bd
000002a0: b5a5 95bc 9b34 74bd 3d7b a8bd c04d a3bd
000002b0: 1494 df3c c755 dabd 2acc f7bc e2e0 2cbd
000002c0: 6f9b 88bd 099d 503d f08a af3b c8db 8cbd
000002d0: 920e 853d 1cf1 bebc 9085 113d 6a1e 6b3d
000002e0: c5c3 b6bb b023 103d 00ce b23d b148 603d
000002f0: fc19 ce3d 07e3 253c 5ee7 afbd 57dc 75bb
00000300: f1c8 a4bd 309e 09bd dfc8 06bc dd3e 943c
00000310: 05a1 cb3d 7536 1e3d a704 4ebd 3592 8cbd
00000320: f72a ea3b 3011 e0bd 653b 9c3d d71a d4bd
00000330: b9ef b13d 7415 16bd 2dcd d73d 625f b2bd
00000340: 194f 6abd 8ca2 c3bd 1f06 193d ed1f debc
00000350: c75a d43d 6ecd c4bd af24 b93d bcc3 0abd
00000360: bb43 513d 286e 2cbd ea58 81bc abd2 ab3d
00000370: 5068 0cbd 31a8 7a3d 20d9 013c d157 5c3d
00000380: b527 833d 10d6 b7bd 1b1c bd3c ec29 84bc
00000390: 9730 a83d 7b00 ce3c 06c9 85bd e341 883d
000003a0: 6704 92bd 05dd 7a3d 15b4 e53c 9ae4 d33d
000003b0: 8503 39bd a618 bebd 31dd f9bb a6cb ebbc
000003c0: 1816 38bd 3c88 41bd 2608 18bc 8384 8e3d
000003d0: 74c6 dc3c a352 7dbc 5f7a 333d 3668 3cbc
000003e0: a8e6 aabd f447 14bd 2488 943d 1ff2 783b
000003f0: 5721 d93c a998 4a3d 3de2 b7bd 9478 96bd

encode_res_dense_blocks.2.conv1.conv.bias f4 [32]
-0.052407388 0.07373254 -0.029249454 -0.12469209 -0.016033236 -0.10934483 -0.041173354 0.04946822
0.077980086 0.11062731 0.033549767 -0.03469488 -0.04258508 -0.0024899724 0.0180871 -0.0064127767
-0.111176394 -0.08183706 0.018491574 -0.0030205827 -0.033874165 -0.014204378 -0.08287757 0.09400591
-0.034503948 0.077849366 0.012145463 0.07819991 0.05994614 0.008396584 0.029630525 0.0103079295
00000000: 21a9 56bd 1601 973d 8d9c efbc 915e ffbd
00000010: 2258 83bc 2ff0 dfbd 64a5 28bd 309f 4a3d
00000020: 06b4 9f3d 9290 e23d 7b6b 093d 381c 0ebd
00000030: b16d 2ebd ce2e 23bb 662b 943c 4522 d2bb
00000040: 73b0 e3bd 309a a7bd a47b 973c f8f4 45bb
00000050: a3bf 0abd 7bb9 68bc b7bb a9bd 2c86 c03d
00000060: 0354 0dbd 7d6f 9f3d c4fd 463c 4627 a03d
00000070: 158a 753d d391 093c b7bb f23c 97e2 283c

encode_res_dense_blocks.2.conv2.conv.weight f4 [32, 32, 3]
0.017475568 -0.009088256 0.06333356 -0.08661609 -0.08106501 -0.09434182 0.053863376 -0.07320398
0.08562949 -0.0014083652 -0.037167277 -0.024503313 0.047446925 -0.023078639 0.01331181 -0.044872787
0.08600854 -0.044038672 -0.0791913 -0.017110555 0.031750415 -0.03782169 -0.0063149007 -0.07250242
-0.004455188 0.045681685 -0.03433328 -0.04963751 -0.048989855 -0.0036848811 -0.0868147 -0.040683944
0.08826518 -0.0718768 -0.063147075 0.086129315 0.10175706 -0.013018266 0.055790085 -0.0019414786
-0.0114157135 -0.04120792 -0.027523363 0.017391894 0.10780672 -0.0037149838 -0.03314318 0.10756255
-0.0780311 0.0497256 -0.053925674 -0.09379672 0.0875527 0.021357678 0.09660338 -0.049600556
-0.059971232 -0.0285445 0.09365931 -0.025156472 0.10439939 0.08852075 0.036485486 0.037478283
0.020972257 -0.08461659 -0.089955464 -0.09496534 0.0597947 0.06993067 0.018987902 -0.009671139
0.0067304936 0.07888386 0.08144991 0.006947411 -0.068987764 0.0966386 0.07251747 0.06865467
-0.091037504 -0.07083062 0.089577965 -0.071602404 0.029277649 0.024906132 0.0151142 -0.014186429
-0.004750682 -0.03378812 -0.023975614 0.07749276 0.090145946 0.014825091 -0.024466187 0.066695735
0.08801786 -0.02783865 -0.05304432 0.067937545 0.06996242 0.09034155 -0.066099204 -0.027329255
0.06299844 -0.019954195 -0.031585924 0.060116567 -0.0047224546 0.018965077 0.04063654 -0.012960126
0.081959344 -0.053115264 0.09628099 -0.05650343 -0.05326684 -0.07995027 -0.06293355 -0.07576487
-0.067255884 0.023980372 -0.09435046 -0.0056633716 0.059141733 -0.030560052 -0.087855086 -0.038675446
-0.087416686 -0.06716051 0.0854426 0.04694432 -0.053964548 -0.09793509 0.03990366 -0.08790658
-0.09041203 0.043273132 -0.097772434 -0.009331146 0.07729777 -0.02338408 0.040094182 -0.033622626
0.027259309 -0.066269495 -0.05284823 -0.003015088 -0.12822393 -0.032252055 -0.08924757 0.087204784
-0.08342684 0.0925163 0.1009623 -0.08459372 -0.029822256 -0.03322003 -0.01927851 -0.050220445
-0.034049235 0.058958687 -0.073893115 0.0683823 0.066745736 0.07516663 -0.06743721 -0.09353428
0.083310224 -0.06447289 0.065906905 -0.082873076 -0.0781883 -0.035912324 0.059097152 0.09199084
0.064052284 -0.01292679 -0.05493548 0.06300437 0.039803863 -0.0062555107 0.0655049 -0.07455474
-0.05590387 0.08331247 -0.07580932 0.08981614 -0.028080562 -0.094537884 0.10080014 -0.07317927
-0.008788091 -0.084458984 0.016155409 -0.08197472 0.05864001 0.03243554 0.04923632 0.02333225
-0.013894605 -0.09115108 -0.04642021 -0.0928489 0.045851126 -0.103424855 -0.08386116 -0.07770069
-0.04155349 -0.059524745 -0.062523335 -0.069330595 0.006547277 0.008823444 -0.007149665 -0.061839852
0.102518655 -0.0018517196 -0.0287127 -0.016928555 0.037039842 -0.09167479 0.10071377 0.004843199
0.004583919 0.026437478 0.10296821 -0.069111094 -0.008880258 0.08401571 -0.018930042 -0.08302148
-0.09081349 0.015810205 -0.033514295 0.053681064 -0.030431105 -0.05044723 -0.028444098 -0.015251048
0.06875685 -0.075799085 -0.011766865 -0.07199638 0.04215213 0.030857202 0.08187948 0.017673204
0.014157308 -0.04176985 -0.016844118 0.06610052 -0.06460634 -0.028411062 -0.076306425 -0.09080633
00000000: ec28 8f3c e9e6 14bc 07b5 813d c763 b1bd
00000010: 6905 a6bd 4936 c1bd d89f 5c3d f8eb 95bd
00000020: 845e af3d e598 b8ba b73c 18bd 2cbb c8bc
00000030: b557 423d 6a0f bdbc c719 5a3c 87cc 37bd
00000040: 3f25 b03d e561 34bd 0c2f a2bd 6f2b 8cbc
00000050: b90c 023d ebea 1abd 3aed cebb 267c 94bd
00000060: d3fc 91bb b81c 3b3d 0ea1 0cbd b450 4bbd
00000070: 96a9 48bd 0c7e 71bb e8cb b1bd 35a4 26bd
00000080: 60c4 b43d 2534 93bd 4153 81bd 9164 b03d
00000090: 0166 d03d 914a 55bc 2584 643d 3679 feba
000000a0: f908 3bbc a3c9 28bd ad78 e1bc 7279 8e3c
000000b0: c5c9 dc3d 1677 73bb 25c1 07bd c149 dc3d
000000c0: c5ce 9fbd 12ad 4b3d 2be1 5cbd 7f18 c0bd
000000d0: d44e b33d 4cf6 ae3c fed7 c53d f429 4bbd
000000e0: 65a4 75bd 28d6 e9bc 74d0 bf3d f214 cebc
000000f0: 59cf d53d 5e4a b53d ce71 153d d482 193d
00000100: 03ce ab3c 764b adbd 923a b8bd 307d c2bd
00000110: 4aeb 743d d037 8f3d 848c 9b3c b273 1ebc
00000120: 798b dc3b dc8d a13d 36cf a63d 1ca7 e33b
00000130: 7549 8dbd 75ea c53d 0a84 943d d29a 8c3d
00000140: df71 babd a50f 91bd a774 b73d 48a4 92bd
00000150: aed7 ef3c f207 cc3c 8da1 773c 326e 68bc
00000160: 9cab 9bbb 6965 0abd 8268 c4bc 86b4 9e3d
00000170: 709e b83d f0e4 723c 506d c8bc c697 883d
00000180: b542 b43d e10d e4bc 0045 59bd d722 8b3d
00000190: 7548 8f3d fe04 b93d 055f 87bd 9ae1 dfbc
000001a0: 5305 813d fb76 a3bc 3e60 01bd ca3c 763d
000001b0: d2be 9abb a65c 9b3c 8072 263d b556 54bc
000001c0: 4dda a73d 648f 59bd f82e c53d 2470 67bd
000001d0: 542e 5abd f8bc a3bd 4ee3 80bd 9d2a 9bbd
000001e0: 74bd 89bd 7c72 c43c d03a c1bd ce93 b9bb
000001f0: 9a3e 723d 1359 fabc 5eed b3bd 256a 1ebd
00000200: 8507 b3bd 738b 89bd 88fc ae3d b048 403d
00000210: ee09 5dbd 3192 c8bd 0572 233d 5d08 b4bd
00000220: f129 b9bd 2b3f 313d ea3c c8bd aae1 18bc
00000230: 4b4e 9e3d f88f bfbc cc39 243d e1b7 09bd
00000240: ea4e df3c 4db8 87bd 6377 58bd c898 45bb
00000250: 224d 03be bb1a 04bd 6ec7 b6bd 6c98 b23d
00000260: b1db aabd 3079 bd3d 53c5 ce3d 793f adbd
00000270: ce4d f4bc ba11 08bd f7ed 9dbc f4b3 4dbd
00000280: 3677 0bbd aa7e 713d 4655 97bd 050c 8c3d
00000290: fdb1 883d f6f0 993d 851c 8abd e78e bfbd
000002a0: 8d9e aa3d 5d0a 84bd 33fa 863d 5cb9 a9bd
000002b0: 3021 a0bd cd18 13bd db0f 723d b265 bc3d
000002c0: d82d 833d e3ca 53bc 0704 61bd 6f08 813d
000002d0: 6009 233d 07fb ccbb 6f27 863d 28b0 98bd
000002e0: 75fb 64bd ba9f aa3d eb41 9bbd 86f1 b73d
000002f0: 3509 e6bc 149d c1bd 4e70 ce3d 03df 95bd
00000300: edfb 0fbc d5f8 acbd 5958 843c 5de2 a7bd
00000310: 8230 703d 21db 043d 06ac 493d 4623 bf3c
00000320: 33a6 63bc 6bad babd 1e23 3ebd 9027 bebd
00000330: 64ce 3b3d 69d0 d3bd 66bf abbd 8a21 9fbd
00000340: fe33 2abd 38d0 73bd 3c0c 80bd 33fd 8dbd
00000350: 8a8a d63b 3590 103c bd47 eabb c94b 7dbd
00000360: 4df5 d13d 66b5 f2ba e536 ebbc c1ad 8abc
00000370: 17b7 173d febf bbbd 0543 ce3d b3b3 9e3b
00000380: b334 963b 6993 d83c ffe0 d23d 1e8a 8dbd
00000390: 807e 11bc 6e10 ac3d 2d13 9bbc 2a07 aabd
000003a0: 6cfc b9bd 6784 813c 4946 09bd ade0 5b3d
000003b0: a74a f9bc c1a1 4ebd 9903 e9bc 88df 79bc
000003c0: 64d0 8c3d 8d3c 9bbd cfc9 40bc d772 93bd
000003d0: b6a7 2c3d 3ec8 fc3c 6eb0 a73d 65c7 903c
000003e0: 0ef4 673c dd16 2bbd adfc 89bc b65f 873d
000003f0: 5450 84bd 51be e8bc 8b46 9cbd abf8 b9bd

encode_res_dense_blocks.2.conv2.conv.bias f4 [32]
0.088392116 -0.04730073 -0.063022956 -0.019944634 0.04683364 -0.06346825 0.050814115 -0.02708494
-0.07636633 0.018043173 -0.027000299 -0.07601797 -0.019366296 0.041626714 0.03885611 -0.06748581
0.024425292 0.04245403 -0.06367825 -0.000644071 0.08248465 -0.0354422 0.045159247 -0.06750879
-0.09225614 0.032607187 -0.051771063 -0.07166181 -0.07855145 0.08655257 -0.06841942 0.040863484
00000000: ed06 b53d 69be 41bd 2e12 81bd ee62 a3bc
00000010: a2d4 3f3d a4fb 81bd 7622 503d 3ce1 ddbc
00000020: f365 9cbd 47cf 933c bb2f ddbc 4faf 9bbd
00000030: 11a6 9ebc c680 2a3d 9627 1f3d 0036 8abd
00000040: 8d17 c83c 47e4 2d3d be69 82bd e0d6 28ba
00000050: b6ed a83d d72b 11bd e7f8 383d 0c42 8abd
00000060: caf0 bcbd 1d8f 053d e50d 54bd 6dc3 92bd
00000070: 95df a0bd 7942 b13d 7b1f 8cbd 7860 273d
