model/2023-03-17-00-55-53.pth (torch, 229585 bytes, 50 tensors)

encode_conv_input.conv.weight f4 [32, 1, 3]
-0.4348591 -0.24242377 -0.42207184 0.160206 -0.49533492 -0.09544661 -0.5847567 -0.071693964
0.051357925 0.07358081 0.009753591 -0.09085426 0.22459643 0.4121384 -0.4144685 -0.09190864
-0.306397 -0.50241464 -0.23520268 0.24406412 -0.36848938 -0.0609229 -0.29851967 -0.564386
-0.20470792 -0.45057005 0.42741647 -0.04736725 -0.38034055 -0.50942254 -0.55425835 0.28345588
-0.32661414 -0.49987498 -0.48229274 -0.21989392 0.22903353 -0.35217237 -0.079882056 -0.45118076
0.19030266 -0.1728191 0.17745928 -0.5598188 -0.13627674 0.23944935 0.53134716 -0.19340731
-0.19002053 0.22983891 -0.45134127 -0.20292726 -0.47652325 -0.048380747 0.30041885 0.17842247
0.01919088 0.41936308 0.25424382 0.4204266 -0.11569957 0.24508195 -0.49399954 0.47103906
-0.31631348 0.11908725 0.18626375 0.51162887 0.5609881 0.27258304 -0.1864575 -0.4018022
-0.4772142 -0.12601376 0.5679856 0.096954234 0.27404192 -0.162468 -0.025991142 -0.22454105
-0.15689273 -0.06305518 -0.07700586 -0.24378142 0.4416198 0.2506585 -0.4219274 0.21629748
-0.07545905 -0.42166227 -0.26930258 -0.11737768 0.032709137 0.5642967 -0.36013666 0.09542684
00000000: daa5 debe f03d 78be cd19 d8be 0b0d 243e
00000010: 8a9c fdbe 8379 c3bd 9db2 15bf 49d4 92bd
00000020: b05c 523d 89b1 963d 87cd 1f3c cc11 babd
00000030: 9bfc 653e ce03 d33e 3735 d4be 993a bcbd
00000040: 11e0 9cbe 3f9e 00bf f9d8 70be f2eb 793e
00000050: a4aa bcbe 4a8a 79bd 92d7 98be 9a7b 10bf
00000060: f49e 51be 1eb1 e6be 55d6 da3e 2904 42bd
00000070: ffbb c2be 8469 02bf e0e3 0dbf 2121 913e
00000080: f839 a7be 9def ffbe 13ef f6be df2b 61be
00000090: c487 6a3e f04f b4be 3499 a3bd 2a01 e7be
000000a0: b3de 423e 7df7 30be e3b7 353e 4950 0fbf
000000b0: 218c 0bbe 3632 753e 5e06 083f 910c 46be
000000c0: be94 42be e45a 6b3e 3416 e7be 2acc 4fbe
000000d0: dbfa f3be e42a 46bd 80d0 993e 61b4 363e
000000e0: 3136 9d3c c2b6 d63e 3f2c 823e 2842 d73e
000000f0: e5f3 ecbd c3f6 7a3e 82ed fcbe 082c f13e
00000100: d7f3 a1be 04e4 f33d edbb 3e3e 1cfa 023f
00000110: eb9c 0f3f 0190 8b3e b7ee 3ebe 05b9 cdbe
00000120: 6b55 f4be c009 01be 8167 113f f18f c63d
00000130: 394f 8c3e 035e 26be 60eb d4bc 17ee 65be
00000140: 7da8 20be 1323 81bd 40b5 9dbd d6a1 79be
00000150: fe1b e23e 5056 803e de06 d8be 167d 5d3e
00000160: 468a 9abd 1ee4 d7be 07e2 89be b663 f0bd
00000170: 04fa 053d c075 103f d563 b8be 266f c33d

encode_conv_input.conv.bias f4 [32]
0.18680905 0.36445323 -0.20469084 -0.4136689 0.24368086 0.29672244 -0.3068726 -0.38463125
0.5492536 0.045236595 -0.29159322 0.25369585 -0.4422232 -0.44442207 -0.43729886 0.37397128
0.31923693 -0.19259815 0.4006266 -0.057958186 -0.10316457 0.50284195 -0.083996795 0.31871542
0.123489045 -0.27276304 -0.5313194 0.44969943 0.45513824 0.5308433 0.13142169 -0.33899277
00000000: df4a 3f3e 9d99 ba3e 7a9a 51be 69cc d3be
00000010: 7a87 793e 01ec 973e 681e 9dbe 63ee c4be
00000020: e29b 0c3f 024a 393d b54b 95be 6ce4 813e
00000030: 146b e2be 4a8b e3be a3e5 dfbe 2a79 bf3e
00000040: 0673 a33e 7338 45be ee1e cd3e 9065 6dbd
00000050: f247 d3bd 40ba 003f 8306 acbd ab2e a33e
00000060: d3e7 fc3d 99a7 8bbe 8c04 08bf 013f e63e
00000070: e107 e93e 59e5 073f 6893 063e 7690 adbe

encode_res_dense_blocks.0.conv1.conv.weight f4 [32, 32, 3]
0.07222631 0.07976304 0.061864946 -0.0057772486 0.065479256 0.020389587 -0.081390254 0.056622937
-0.076801084 0.058540955 0.0031994744 -0.09310626 -0.088641055 0.04113954 0.0395905 -0.032302056
-0.057993364 0.09519927 -0.0055143028 -0.024837831 0.08465536 -0.052461017 -0.028347528 0.06615787
0.010779501 0.043859098 0.060804762 0.029995989 -0.08198075 0.086842485 0.012675464 0.08229716
0.050702244 -0.023137419 0.054576892 -0.037710898 0.01282877 -0.07119621 0.01286594 -0.06903651
-0.015727576 0.06540634 -0.06701265 0.044243064 -0.07851742 -0.0040744036 0.025324153 -0.0136774685
0.029923266 0.04492156 0.02749908 -0.0871099 -0.069487825 0.018878201 -0.030440051 0.032926477
-0.10372035 -0.08766448 0.054620177 -0.09653539 0.0038159178 0.05672521 0.061061393 -0.012750442
-0.08933431 0.05383129 0.036697242 0.004069285 -0.0014592615 -0.029325638 0.037757434 0.09286953
-0.033505064 0.06766656 0.06019174 -0.0985427 -0.028762626 -0.007927106 -0.03827966 0.09109191
-0.024604633 -0.04813241 -0.047496382 -0.09290592 0.0123932995 -0.05139889 -0.066491894 0.009146417
-0.080630235 -0.020390844 0.028962297 0.0010635478 -0.022722436 -0.055711597 0.06402528 -0.10885046
0.04422709 0.019738263 -0.037433874 0.03696002 0.06036479 0.08587312 -0.04141108 0.029688234
-0.098088376 0.04929765 0.047109846 -0.032085873 0.10547329 0.021273341 -0.04402465 0.011834248
0.0843251 0.043761358 0.088407725 -0.060349736 -0.0824665 -0.05558182 -0.09522614 0.050920743
0.09669705 0.03550392 0.06972358 0.032588277 -0.069702454 0.05353827 -0.07835309 -0.07894286
-0.022913435 -0.061123587 -0.017410882 0.026615089 -0.061806034 0.102160886 0.0731665 -0.037700653
0.00955503 -0.0657923 -0.075637504 0.036416803 -0.0009900393 -0.04630386 0.04958138 0.04518971
0.009179245 -0.0180993 0.098394446 0.049297504 -0.06211013 -0.0016679862 -0.09231508 -0.07180362
-0.0506759 0.06400675 -0.05571977 0.04139608 0.07416589 -0.10463983 0.07434433 -0.058164332
0.08813329 -0.031902205 -0.064470135 0.03482595 0.010720991 -0.06549879 -0.0144143775 0.0081875
0.008283186 -0.08446076 -0.10231828 -0.01826439 -0.023670638 -0.020252643 -0.12076073 -0.06233385
-0.09286682 0.033084113 0.03313299 0.107404985 0.075763695 0.024369786 -0.073622815 0.09857451
-0.07095372 0.023501588 0.02160063 0.044540167 -0.077216946 -0.09706141 0.10342869 -0.0678305
0.046550438 -0.07960308 0.067059875 0.028145658 0.016060721 0.058054157 0.05242192 -0.09883976
-0.041513212 0.07290764 0.06620156 0.046045944 0.09338599 0.060335197 -0.09620616 -0.0055718576
-0.0058527715 -0.058828473 0.060228772 0.0233506 -0.019372495 0.0741968 -0.023587646 0.091542356
0.0028368188 0.08399969 0.07374403 0.089235075 0.015971448 0.07588447 -0.09724496 -0.10601705
0.0126306545 -0.049858425 0.051684767 -0.10869955 0.012492747 0.09516906 0.085900344 0.066631846
-0.027091516 0.03669231 0.057193864 -0.03212195 -0.08097284 0.024399776 0.07427937 0.008006548
-0.0401698 -0.11224477 -0.07973365 -0.08712395 0.0024191346 -0.079275794 0.09283993 0.026833158
0.097494505 -0.028448028 0.007984324 0.058906395 -0.06511623 0.07558057 0.052133 0.08996195
00000000: 63eb 933d ce5a a33d 1966 7d3d 134f bdbb
00000010: fd19 863d 1008 a73c efaf a6bd 74ed 673d
00000020: e349 9dbd a4c8 6f3d 46ae 513b 7fae bebd
00000030: 7189 b5bd ef81 283d a629 223d 294f 04bd
00000040: 738a 6dbd d6f7 c23d 53b1 b4bb b578 cbbc
00000050: ca5f ad3d 5de1 56bd 1339 e8bc c77d 873d
00000060: 819c 303c 99a5 333d 6a0e 793d 26ba f53c
00000070: 86e5 a7bd 79da b13d c0ac 4f3c 6a8b a83d
00000080: 28ad 4f3d af8a bdbc 058c 5f3d be76 1abd
00000090: c32f 523c 52cf 91bd aacb 523c 0463 8dbd
000000a0: 1ed7 80bc c2f3 853d ee3d 89bd 3738 353d
000000b0: becd a0bd 9382 85bb 9974 cf3c 7617 60bc
000000c0: a321 f53c abff 373d c045 e13c ad66 b2bd
000000d0: a24f 8ebd 75a6 9a3c 6a5d f9bc eadd 063d
000000e0: 566b d4bd 6f89 b3bd 68b9 5f3d 59b4 c5bd
000000f0: 7a14 7a3b b258 683d 831b 7a3d 3be7 50bc
00000100: e8f4 b6bd 337e 5c3d d94f 163d a357 853b
00000110: b144 bfba 523c f0bc 8aa7 1a3d 6132 be3d
00000120: 9b3c 09bd c494 8a3d 9d8b 763d c1d0 c9bd
00000130: 999f ebbc b1e0 01bc 22cb 1cbd 658e ba3d
00000140: a88f c9bc 7d26 45bd 918b 42bd 7645 bebd
00000150: 440d 4b3c a487 52bd e72c 88bd dada 153c
00000160: 7721 a5bd b30a a7bc 5742 ed3c be66 8b3a
00000170: 6724 babc d831 64bd b01f 833d fdec debd
00000180: 7727 353d 23b2 a13c 4354 19bd 6463 173d
00000190: 1241 773d 3fde af3d aa9e 29bd bd34 f33c
000001a0: 8fe2 c8bd 55ec 493d 41f6 403d 7a6c 03bd
000001b0: 6102 d83d 6e45 ae3c 3153 34bd 6fe4 413c
000001c0: a3b2 ac3d 1c3f 333d 1c0f b53d 4931 77bd
000001d0: 32e4 a8bd c3a9 63bd ec05 c3bd 4592 503d
000001e0: 1a09 c63d 8f6c 113d 3ccb 8e3d 497b 053d
000001f0: 29c0 8ebd f24a 5b3d 9677 a0bd cbac a1bd
00000200: f5b4 bbbc ba5c 7abd 44a1 8ebc e307 da3c
00000210: 5328 7dbd ba39 d13d 51d8 953d 006c 1abd
00000220: b38c 1c3c 1dbe 86bd d6e7 9abd c929 153d
00000230: 35c4 81ba 1ea9 3dbd d815 4b3d d818 393d
00000240: 8b64 163c fc44 94bc 0783 c93d 2eec 493d
00000250: 3167 7ebd 54a0 daba b00f bdbd c70d 93bd
00000260: 8891 4fbd f915 833d 6a3a 64bd f08e 293d
00000270: 49e4 973d 684d d6bd d741 983d b93d 6ebd
00000280: 3a7f b43d e3ab 02bd eb08 84bd a8a5 0e3d
00000290: 18a7 2f3c 3b24 86bd 482a 6cbc dd24 063c
000002a0: 33b6 073c c3f9 acbd 3f8c d1bd 349f 95bc
000002b0: ede8 c1bc dfe8 a5bc 6751 f7bd c751 7fbd
000002c0: f630 bebd 3583 073d 75b6 073d 25f7 db3d
000002d0: ff29 9b3d 25a3 c73c 8fc7 96bd 6fe1 c93d
000002e0: 2f50 91bd 6786 c03c cef3 b03c c06f 363d
000002f0: eb23 9ebd 22c8 c6bd 6cd2 d33d b8ea 8abd
00000300: acab 3e3d f106 a3bd b056 893d b991 e63c
00000310: c691 833c 32ca 6d3d 5eb8 563d 806c cabd
00000320: c209 2abd 9a50 953d af94 873d ac9a 3c3d
00000330: 2741 bf3d 0a22 773d bc07 c5bd 2194 b6bb
00000340: 9bc8 bfbb 20f6 70bd 72b2 763d c249 bf3c
00000350: 11b3 9ebc 7ef4 973d e13a c1bc 8f7a bb3d
00000360: ece9 393b 0808 ac3d 1c07 973d e1c0 b63d
00000370: 8ed6 823c 5169 9b3d 5e28 c7bd 781f d9bd
00000380: cef0 4e3c 5938 4cbd 68b3 533d df9d debd
00000390: 61ae 4c3c ffe7 c23d 85ec af3d 4776 883d
000003a0: 07ef ddbc ad4a 163d 1d44 6a3d 4e92 03bd
000003b0: 17d5 a5bd 0ae2 c73c c81f 983d e52d 033c
000003c0: 1789 24bd 96e0 e5bd 654b a3bd 0b6e b2bd
000003d0: 588a 1e3b 595b a2bd dc22 be3d 36d1 db3c
000003e0: 33ab c73d d70b e9bc afd0 023c d547 713d
000003f0: a85b 85bd fcc9 9a3d 6a89 553d f93d b83d

encode_res_dense_blocks.0.conv1.conv.bias f4 [32]
-0.055274047 0.035254005 0.0022919693 -0.055715088 -0.018787052 0.04410953 0.045350462 -0.058482084
0.04626677 0.031737816 -0.10442931 0.04562779 -0.05162214 -0.095511906 -0.009967289 0.058892056
-0.020848673 0.0054203887 -0.05439935 0.0721917 -0.04199814 -0.030861175 0.06067517 0.085264966
-0.09263689 -0.026114473 -0.070247136 -0.042517684 0.040658373 0.072060525 -0.05287305 0.082231626
00000000: 0a67 62bd 8166 103d dd34 163b 8135 64bd
00000010: 4ee7 99bc 32ac 343d 68c1 393d e98a 6fbd
00000020: 3a82 3d3d 83ff 013d 09df d5bd 35e4 3a3d
00000030: bd71 53bd bf9b c3bd d74d 23bc cc38 713d
00000040: d6ca aabc 849d b13b dad1 5ebd 3ed9 933d
00000050: 3e06 2cbd 93d0 fcbc 8786 783d 669f ae3d
00000060: 69b8 bdbd 05ee d5bc bbdd 8fbd 0627 2ebd
00000070: 6589 263d 7894 933d 6991 58bd 0e69 a83d

encode_res_dense_blocks.0.conv2.conv.weight f4 [32, 32, 3]
-0.011980708 -0.026791908 0.0048043905 0.04735821 0.036829747 0.011019486 0.06777465 -0.048762694
0.07140849 -0.09598991 0.003713915 -0.0014616904 0.078461856 -0.0015901477 0.09903562 0.06612586
0.07336466 0.0041655013 -0.035438832 -0.09049488 -0.047448866 0.09943258 -0.036155872 0.027759645
0.0977698 -0.009356416 -0.078092106 0.068794616 0.07678531 0.091169074 -0.08527139 0.033850413
-0.084813 -0.08180289 -0.040629763 -0.076954 0.004034104 0.040055115 -0.097479865 0.074930854
-0.025041195 -0.05501949 -0.033940297 0.019410314 0.022543395 -0.08210749 -0.09183747 -0.0272499
-0.019660711 0.070524134 -0.06530087 0.06631909 -0.00016477595 0.010851333 0.018222094 -0.06581328
-0.07945455 -0.066056356 -0.076361835 -0.009583158 0.005007196 0.046395164 -0.014449465 0.07533038
0.08583631 0.06824362 -0.061164286 -0.025734581 0.094443955 -0.04981952 0.07800076 -0.030097354
-0.05521287 0.05824237 -0.007827183 0.028173538 -0.067608945 -0.021350019 -0.072260275 -0.09134405
0.011046984 -0.04433514 -0.018966602 0.076309465 -0.08378748 0.06610682 -0.10057131 0.002604235
-0.08892691 -0.077771485 -0.018235404 -0.0049455124 0.06297088 0.09749395 0.010311052 -0.045303877
0.017295163 -0.010514215 0.0089170495 -0.037414975 0.052946992 0.05423965 -0.0051754382 0.016766926
0.05282821 0.06600787 -0.04490922 -0.015148153 -0.01850354 -0.02261456 0.02580502 0.07039837
-0.07134721 -0.008464368 -0.104850665 -0.096431166 0.008542475 -0.0009885622 -0.008106045 0.04160604
-0.09097885 0.09980408 -0.067296155 -0.04327135 0.023003874 0.055350017 0.0005134045 -0.028811341
0.04096434 -0.05769435 0.010942634 0.0057909004 0.07225617 -0.038068686 -0.07192594 -0.06456249
0.024047159 0.023622213 0.0050849384 0.049842976 0.060265794 0.0022937409 0.04412375 -0.0448016
0.09777237 -0.054733112 -0.08595092 -0.060599733 0.014069011 -0.045641325 0.06425694 0.00567011
0.07269751 -0.011350983 0.08645226 -0.0468771 -0.032265026 -0.006817129 -0.020436067 0.027741458
-0.035228677 -0.0012704111 -0.090843745 -0.09471745 0.034624323 0.061803102 0.03660262 0.049646754
0.071718104 -0.054628514 -0.042612866 -0.0150786415 -0.09359243 0.06876376 -0.083105884 0.040533405
0.018280216 -0.022488618 0.08035417 0.08942283 -0.038775742 0.0019513863 0.0010245452 -0.05575952
-0.0244895 -0.066464014 -0.008532783 -0.06723304 0.00085375767 -0.05885766 -0.036048308 -0.05768385
0.04627266 0.10426212 0.03637056 -0.033818007 0.019994978 -0.09826643 0.014348868 0.030327316
-0.014615404 -0.017730357 -0.08559801 0.004748756 0.07426329 -0.09687022 -0.03109316 -0.0075709545
0.06496591 -0.05802752 -0.00999035 0.053474065 0.016096525 -0.0658485 -0.097418554 0.047613326
-0.036256522 -0.038025346 -0.051684026 -0.067575455 -0.0065256413 0.09028499 0.05716785 -0.02568111
0.08089601 -0.0011756904 0.094602406 -0.039047144 0.08530822 -0.012820211 -0.048746318 0.066243105
0.09478062 0.082648896 -0.008620456 0.050957434 -0.062607855 -0.10027435 -0.09213564 0.039427586
-0.099290885 -0.059334558 0.07067755 -0.020242179 0.024502574 -0.042178437 -0.08881269 0.0736795
0.08311995 0.016997755 0.050499167 0.00024841545 -0.039517455 0.060542095 0.07570094 0.0050881375
00000000: bb4a 44bc b47a dbbc 266e 9d3b affa 413d
00000010: cada 163d 138b 343c 70cd 8a3d 64bb 47bd
00000020: 9d3e 923d 5c96 c4bd 2765 733b 3196 bfba
00000030: 9cb0 a03d 816c d0ba 30d3 ca3d ff6c 873d
00000040: 3640 963d c27e 883b 4f28 11bd 6155 b9bd
00000050: be59 42bd 4fa3 cb3d 2e18 14bd 3268 e33c
00000060: 883b c83d a74b 19bc c1ee 9fbd 31e4 8c3d
00000070: 9e41 9d3d dab6 ba3d c4a2 aebd bba6 0a3d
00000080: 70b2 adbd 4688 a7bd 656b 26bd 0f9a 9dbd
00000090: 8430 843b d510 243d 86a3 c7bd 5975 993d
000000a0: 3123 cdbc 1e5c 61bd fb04 0bbd 6102 9f3c
000000b0: edac b83c f927 a8bd 4915 bcbd 2f3b dfbc
000000c0: 800f a1bc f56e 903d 76bc 85bd 4ed2 873d
000000d0: b5c7 2cb9 cac9 313c 8046 953c 1dc9 86bd
000000e0: 11b9 a2bd 8e48 87bd 9863 9cbd ae02 1dbc
000000f0: 6813 a43b db08 3e3d 73bd 6cbc d046 9a3d
00000100: f3ca af3d 50c3 8b3d 6787 7abd 54d1 d2bc
00000110: d56b c13d 8e0f 4cbd ddbe 9f3d ba8e f6bc
00000120: e426 62bd 8d8f 6e3d 963d 00bc 31cc e63c
00000130: 8f76 8abd 3ce6 aebc 32fd 93bd 9712 bbbd
00000140: 69fe 343c c498 35bd d95f 9bbc 2348 9c3d
00000150: c598 abbd 0363 873d 55f8 cdbd d0ab 2a3b
00000160: 501f b6bd a846 9fbd 6a62 95bc f70d a2bb
00000170: e0f6 803d e8aa c73d b0ef 283c 8f90 39bd
00000180: 96ae 8d3c d043 2cbc d118 123c 7240 19bd
00000190: f2de 583d 652a 5e3d b996 a9bb cb5a 893c
000001a0: 6562 583d 222f 873d bbf2 37bd f52f 78bc
000001b0: bc94 97bc 2b42 b9bc 0d65 d33c 052d 903d
000001c0: 7c1e 92bd 22ae 0abc f2bb d6bd b47d c5bd
000001d0: bdf5 0b3c a592 81ba 38cf 04bc 186b 2a3d
000001e0: 1f53 babd 1566 cc3d 91d2 89bd 4d3d 31bd
000001f0: 9f72 bc3c b3b6 623d fe95 063a c305 ecbc
00000200: 39ca 273d e950 6cbd bc48 333c 98c1 bd3b
00000210: 0bfb 933d e9ed 1bbd e84d 93bd 5739 84bd
00000220: 8cfe c43c 5f83 c13c 8e9f a63b 2628 4c3d
00000230: 44d9 763d 9652 163b 1bbb 343d e281 37bd
00000240: e13c c83d d42f 60bd 0907 b0bd 6d37 78bd
00000250: b681 663c 66f2 3abd 2499 833d 55cc b93b
00000260: 6fe2 943d 79f9 39bc e20d b13d 3402 40bd
00000270: 5528 04bd 3962 dfbb 8a69 a7bc 0e42 e33c
00000280: f24b 10bd ec83 a6ba 490c babd 39fb c1bd
00000290: 3cd2 0d3d 4025 7d3d a1ec 153d 655a 4b3d
000002a0: f1e0 923d 26c2 5fbd d48a 2ebd 680c 77bc
000002b0: 63ad bfbd 04d4 8c3d 6b33 aabd 5b06 263d
000002c0: 64c0 953c 0d3a b8bc ba90 a43d 5123 b73d
000002d0: 50d3 1ebd a9c5 ff3a 084a 863a 1864 64bd
000002e0: 349e c8bc 491e 88bd 16cd 0bbc 7ab1 89bd
000002f0: b5ce 5f3a bb14 71bd 64a7 13bd e745 6cbd
00000300: 6788 3d3d 6187 d53d 4cf9 143d c084 0abd
00000310: 82cc a33c e93f c9bd 8417 6b3c fe70 f83c
00000320: 7375 6fbc 413f 91bc 024e afbd 749b 9b3b
00000330: 5a17 983d e563 c6bd 15b7 febc c515 f8bb
00000340: d90c 853d 44ae 6dbd 91ae 23bc 9f07 5b3d
00000350: dcdc 833c 94db 86bd 6183 c7bd 3106 433d
00000360: b881 14bd 77c0 1bbd a1b2 53bd 0065 8abd
00000370: 0cd5 d5bb 56e7 b83d d628 6a3d 3161 d2bc
00000380: cfac a53d a019 9aba e8be c13d e6ef 1fbd
00000390: 13b6 ae3d dd0b 52bc 38aa 47bd 77aa 873d
000003a0: 571c c23d d343 a93d d03c 0dbc beb8 503d
000003b0: 8c38 80bd a35c cdbd 9cb1 bcbd d27e 213d
000003c0: 0559 cbbd cb08 73bd 64bf 903d edd2 a5bc
000003d0: 9fb9 c83c 4cc3 2cbd 6de3 b5bd 47e5 963d
000003e0: cb3a aa3d e03e 8b3c 37d8 4e3d c23d 8239
000003f0: 0edd 21bd fdfa 773d 1809 9b3d 64ba a63b

encode_res_dense_blocks.0.conv2.conv.bias f4 [32]
-0.08054762 0.01586389 0.013364108 -0.062767275 0.054375235 -0.091125235 -0.0449171 0.026739564
-0.011900211 0.017829364 0.07211549 -0.04693769 -0.03518516 0.038377024 0.00049086584 0.015581035
0.064523675 0.024250936 -0.08023745 0.013541087 -0.09860155 -0.050278466 -0.016857611 0.08509463
0.044044346 0.030063363 -0.07654213 -0.09233823 -0.039160762 -0.036894914 -0.0048302403 0.044491787
00000000: 27f6 a4bd fdf4 813c 22f5 5a3c 218c 80bd
00000010: 91b8 5e3d de9f babd fefa 37bd ee0c db3c
00000020: 1af9 42bc e30e 923c 49b1 933d bc41 40bd
00000030: 501e 10bd 3a31 1d3d 73ad 003a 9947 7f3c
00000040: fd24 843d e6a9 c63c 8853 a4bd 6fdb 5d3c
00000050: 9cef c9bd cbf0 4dbd f918 8abc 1846 ae3d
00000060: d867 343d 7147 f63c 1fc2 9cbd d31b bdbd
00000070: 0967 20bd 1f1f 17bd fe46 9ebb 053d 363d

encode_res_dense_blocks.1.conv1.conv.weight f4 [32, 32, 3]
-0.09057619 -0.01640646 -0.045470376 0.025100773 0.0045861164 -0.077052824 0.03786369 0.048795823
-0.02377893 0.053137537 -0.0055965018 0.006637709 0.020656165 -0.08646194 -0.062493864 0.044809647
-0.013861307 0.0012909552 0.024624798 0.008846075 -0.033532765 -0.08820356 -0.0026999242 0.09077263
-0.07850004 0.005622786 0.02724415 0.06507356 -0.07744907 0.045217928 0.04656037 -0.008290906
0.050502934 -0.0972867 0.030381832 -0.015535286 0.09524361 0.08165147 -0.046544593 -0.050906595
-0.097080514 -0.067362934 -0.017846743 -0.0066917385 -0.07212755 0.07173241 0.088509 -0.024045844
-0.06561246 0.059231922 0.032644212 -0.048412 -0.08821579 -0.049745087 -0.004313654 -0.10338613
-0.067342564 -0.022495776 -0.037396576 0.029502172 0.07197586 0.044531476 0.08175014 0.034695875
-0.06451769 0.046012204 0.0903555 -0.060530275 0.07344537 0.01772575 -0.033203963 0.01906189
-0.090406165 -0.09451675 -0.021215253 0.00477411 0.021995056 -0.07515148 0.093506634 0.089701615
-0.050957378 -0.05428138 -0.06366689 -0.06996772 -0.07844687 0.07851974 0.030145716 0.05466204
0.031174414 -0.112695254 0.0020768475 -0.014228254 -0.031906396 0.05555794 0.018814566 -0.0024616742
0.0076560266 -0.027237372 0.039673023 0.053403087 0.071260236 0.083578564 -0.042911142 -0.019920934
0.07156884 -0.029188052 -0.07587747 0.023030749 -0.07596948 -0.08788621 0.052288737 -0.005832207
-0.001648962 -0.051512655 -0.04600798 0.0009922313 0.031321008 -0.07713133 -0.0017149504 0.036736608
-0.063965596 -0.07248429 -0.037699863 -0.0929333 0.0068131965 -0.039736226 0.09886089 -0.082246915
0.04974126 0.054688588 -0.059813205 0.050172392 -0.07788478 -0.0021891086 -0.07785449 0.0890927
-0.095241636 -0.06082849 0.020500176 -0.098604515 -0.038393572 -0.023736497 -0.06567081 0.09224316
-0.03714168 0.024257673 0.020366244 -0.06137281 0.05589363 0.08486039 -0.07896091 0.099392936
-0.07492776 0.04048594 0.0032468077 0.057087447 -0.025443442 -0.07224767 0.042651813 0.009562784
0.013385047 -0.011106154 -0.06237949 0.07363085 -0.042258546 -0.078752644 -0.07316526 0.012193676
0.032701 -0.027121767 -0.05318087 0.06593396 0.054391373 0.044885848 -0.017548312 0.09956923
-0.101176426 0.088043205 -0.0284885 -0.01912907 -0.0017064493 0.08324368 -0.09221882 -0.049778853
-0.0030662788 0.09157237 0.029439166 -0.011283599 -0.016642973 0.038568094 0.096446805 0.022530047
0.068982534 0.057619546 -0.075073354 -0.10489805 -0.068602696 0.088755 0.03077956 0.10681714
0.050286982 -0.08734244 0.0697174 0.01682209 -0.052752018 -0.014716827 0.025809059 0.014346643
0.025762094 -0.03186266 -0.07666164 -0.01876213 0.058505494 -0.027250215 0.09695449 -0.03157537
-0.098700084 0.09044972 0.04001098 0.025614982 0.09890666 -0.06906994 -0.08886217 0.07952848
0.07406433 0.073796056 -0.07785593 -0.07034729 -0.08299359 0.025886787 -0.077101156 0.07875081
0.06772759 0.010054655 -0.06049804 -0.06654481 -0.017920012 0.0710333 0.037946943 0.07633953
-0.09058692 0.057888422 -0.060203254 -0.023611266 -0.08520666 -0.10406733 0.097334266 0.034429174
0.08785448 -0.043889932 0.025662381 -0.046709836 -0.061717294 -0.047779743 0.024377508 -0.043927535
00000000: 0280 b9bd d766 86bc 253f 3abd 23a0 cd3c
00000010: 2247 963b dfcd 9dbd f516 1b3d 21de 473d
00000020: 08cc c2bc bfa6 593d dc62 b7bb 2481 d93b
00000030: 1e37 a93c f512 b1bd 91f9 7fbd 528a 373d
00000040: 891a 63bc 4535 a93a f2b9 c93c 21ef 103c
00000050: a759 09bd 11a4 b4bd 36f1 30bb 00e7 b93d
00000060: a1c4 a0bd 593f b83b 202f df3c 4945 853d
00000070: 9e9d 9ebd 6f36 393d 16b6 3e3d 95d6 07bc
00000080: 2adc 4e3d 403e c7bd 52e3 f83c b687 7ebc
00000090: 150f c33d e338 a73d 8ba5 3ebd 6f83 50bd
000000a0: 26d2 c6bd 94f5 89bd 5533 92bc 5f46 dbbb
000000b0: 9cb7 93bd 71e8 923d 3544 b53d cafb c4bc
000000c0: d35f 86bd 2c9d 723d f0b5 053d a94b 46bd
000000d0: 7baa b4bd 81c1 4bbd 8d59 8dbb 1bbc d3bd
000000e0: e6ea 89bd 1049 b8bc 272d 19bd 8aae f13c
000000f0: 1468 933d a366 363d 9e6c a73d 431d 0e3d
00000100: da21 84bd 4b77 3c3d 4e0c b93d 98ee 77bd
00000110: 876a 963d 9835 913c e100 08bd ae27 9c3c
00000120: de26 b9bd ff91 c1bd 9ccb adbc 2370 9c3b
00000130: fa2e b43c 05e9 99bd 6880 bf3d 7bb5 b73d
00000140: afb8 50bd 2756 5ebd c963 82bd 3c4b 8fbd
00000150: c1a8 a0bd f5ce a03d 26f4 f63c 4ee5 5f3d
00000160: 7c61 ff3c c5cc e6bd b81b 083b 9f1d 69bc
00000170: 48b0 02bd b990 633d 0121 9a3c 0a54 21bb
00000180: 68df fa3b e920 dfbc 2e80 223d 32bd 5a3d
00000190: e3f0 913d 3d2b ab3d 98c3 2fbd 3a31 a3bc
000001a0: af92 923d c81b efbc a665 9bbd fbaa bc3c
000001b0: e395 9bbd affd b3bd b72c 563d 191c bfbb
000001c0: fc21 d8ba effe 52bd dd72 3cbd c20d 823a
000001d0: 754a 003d 08f7 9dbd 30c8 e0ba 2079 163d
000001e0: 6500 83bd a572 94bd 2c6b 1abd d053 bebd
000001f0: 3c41 df3b 74c2 22bd 9477 ca3d 1271 a8bd
00000200: 7ebd 4b3d 2401 603d b1fe 74bd 9181 4d3d
00000210: 0e82 9fbd 2677 0fbb 2d72 9fbd 3c76 b63d
00000220: 0c0e c3bd 4b27 79bd fcef a73c 2af1 c9bd
00000230: 9442 1dbd 0b73 c2bc 6b7e 86bd fbe9 bc3d
00000240: e021 18bd 07b8 c63c 1cd7 a63c 0e62 7bbd
00000250: b8f0 643d 49cb ad3d 42b6 a1bd 868e cb3d
00000260: ba73 99bd 96d4 253d 65c8 543b 87d4 693d
00000270: c46e d0bc 96f6 93bd abb3 2e3d 39ad 1c3c
00000280: f54c 5b3c 96f6 35bc a381 7fbd c5cb 963d
00000290: 4c17 2dbd 1149 a1bd abd7 95bd fcc7 473c
000002a0: 7cf1 053d 782e debc 2fd4 59bd 6208 873d
000002b0: 7dc9 5e3d 39da 373d 7ac1 8fbc f4ea cb3d
000002c0: 9635 cfbd ff4f b43d b760 e9bc 91b4 9cbc
000002d0: f0aa dfba aa7b aa3d 38dd bcbd e9e4 4bbd
000002e0: 9ff3 48bb 4b8a bb3d 682a f13c d8de 38bc
000002f0: d856 88bc 94f9 1d3d e785 c53d ef90 b83c
00000300: b746 8d3d 7902 6c3d 0fc0 99bd cad4 d6bd
00000310: 927f 8cbd 2ec5 b53d 6a25 fc3c f2c2 da3d
00000320: b9f9 4d3d 98e0 b2bd ffc7 8e3d 7bce 893c
00000330: 8012 58bd d91e 71bc 856d d33c 2f0e 6b3c
00000340: 070b d33c 6c82 02bd c700 9dbd 0ab3 99bc
00000350: 75a3 6f3d d83b dfbc 1390 c63d 2d55 01bd
00000360: 4523 cabd b43d b93d 8ee2 233d 83d6 d13c
00000370: 938f ca3d 8a74 8dbd 5ffd b5bd d4df a23d
00000380: 0aaf 973d 6322 973d ee72 9fbd 3d12 90bd
00000390: 8bf8 a9bd 8710 d43c 36e7 9dbd 1b48 a13d
000003a0: c3b4 8a3d 48bc 243c cbcc 77bd a548 88bd
000003b0: fdcc 92bc e879 913d 416e 1b3d e657 9c3d
000003c0: a385 b9bd 691c 6d3d b097 76bd 6a6c c1bc
000003d0: d480 aebd 4121 d5bd 3057 c73d 9b05 0d3d
000003e0: 0ded b33d eec5 33bd ea39 d23c d052 3fbd
000003f0: 46cb 7cbd b1b4 43bd 57b3 c73c 5ced 33bd

encode_res_dense_blocks.1.conv1.conv.bias f4 [32]
-0.07786336 0.06913498 0.09141026 -0.09185113 0.0834521 -0.08265207 0.043486606 0.01458892
0.048436273 -0.060136795 -0.015453861 -0.046116807 0.011654143 0.025202397 0.079606615 -0.07438041
-0.06020614 -0.025118994 0.0696013 -0.008245322 0.07356671 -0.07559935 -0.037474304 -0.066322364
-0.08236336 0.0701664 -0.014819946 -0.06867036 -0.084304616 0.047421195 0.042397555 0.0070685535
00000000: d376 9fbd a496 8d3d 4d35 bb3d 721c bcbd
00000010: efe8 aa3d 7d45 a9bd 031f 323d 5e06 6f3c
00000020: 1d65 463d 0052 76bd 3132 7dbc fae4 3cbd
00000030: 05f1 3e3c 4275 ce3c cb08 a33d c254 98bd
00000040: b79a 76bd 59c6 cdbc 208b 8e3d 6317 07bc
00000050: 25aa 963d d5d3 9abd a87e 19bd 05d4 87bd
00000060: 1fae a8bd 67b3 8f3d 5ccf 72bc 0ca3 8cbd
00000070: e6a7 acbd ba3c 423d 0fa9 2d3d 539f e73b

encode_res_dense_blocks.1.conv2.conv.weight f4 [32, 32, 3]
-0.08438088 -0.06506472 -0.060347784 -0.0006346067 0.026951186 0.049718745 -0.022655096 -0.05536242
-0.035471193 -0.07106829 -0.054332305 0.004601665 -0.0026503394 0.044244897 0.026876278 -0.028568313
-0.03608845 0.024194647 -0.07261707 -0.058848713 0.06290472 0.03821912 -0.023423461 -0.09225393
-0.07499858 -0.091024235 -0.062427446 0.051494952 0.0019690166 0.061115265 0.054548725 -0.010654405
-0.05773242 -0.06579761 -0.042006798 -0.079977304 -0.08344961 -0.07483586 -0.027539631 0.06533386
0.050852686 0.08989881 -0.10102515 0.0801821 -0.06739941 0.102313735 0.050099015 0.06031832
-0.09431176 0.061270922 0.09447682 -0.064117305 -0.053263195 0.017077152 0.050430305 0.10076756
-0.02882626 -0.025110174 0.09789171 0.027115347 -0.040550854 -0.046896204 -0.10380674 0.08275714
-0.05272335 -0.024277618 -0.0935539 -0.040724285 -0.018377734 0.08315615 -0.10181258 0.029182088
0.080955915 0.026715403 0.03722678 -0.06859866 -0.08855766 0.08835491 -0.06224033 0.04371506
-0.0480349 -0.032586485 -0.031733885 -0.032763973 0.08637722 0.098026514 -0.09032542 0.0052195867
0.059896298 -0.043529138 -0.030697478 -0.06331498 -0.05861454 -0.03411247 -0.044927973 0.010642078
-0.08337613 0.11624827 0.026407577 -0.026662866 0.056404404 -0.019397132 0.08906533 -0.091551736
0.023685046 0.034125067 -0.016939936 0.034301504 0.0883018 0.07751968 0.058786906 -0.078166366
-0.05728048 0.028791124 0.064419776 -0.016738787 -0.08408206 0.041258957 0.05609919 0.029696502
-0.08494865 0.01770038 -0.102256835 -0.017320404 0.056361843 -0.08510267 0.05068141 0.06721802
0.080931604 -0.012118951 -0.03310975 -0.015572032 -0.052483447 -0.069241814 -0.0096211275 5.476103e-05
0.10157813 0.07726973 -0.001790607 0.0915047 0.08043313 0.013801449 -0.05638617 -0.057564586
0.03915881 -0.04593055 0.03499399 0.03507894 0.09018867 -0.043699678 -0.040702727 -0.04394662
-0.043576904 0.09943483 0.032704595 0.088708036 0.023464685 0.021178657 0.058357842 0.06305488
0.0039137346 0.00774186 -0.011774778 0.046390127 -0.049338978 -0.06973218 -0.018363122 0.067808375
-0.084343106 -0.05019018 0.03835641 -0.035859216 0.040791184 0.047776412 0.062366147 -0.041478116
-0.029342754 -0.088957444 0.08998591 -0.07356288 0.07182703 0.042758036 -0.02426794 -0.004557925
-0.005046134 -0.11212486 -0.05916445 0.037379276 -0.08532946 -0.07895879 -0.06257927 -0.035156794
-0.011563416 -1.9111982e-05 0.026360357 -0.084776066 -0.032224324 0.05855207 -0.0994539 -0.009414188
0.021061208 0.027752854 -0.07380444 0.10024243 -0.09510458 0.013720177 -0.06383896 0.104517065
-0.07459512 0.07959848 -0.09586392 0.04083941 0.09758045 0.065270096 0.056055605 -0.07924802
0.05124455 0.006819359 -0.09951489 0.058609553 0.02261691 -0.058553815 0.020133385 0.044327755
-0.04821632 0.06424922 -0.047237176 0.09471488 0.07149609 -0.047721058 0.052506886 0.05493209
0.061609574 -0.09218261 0.053813852 0.0964942 -0.0719569 0.024468258 -0.08685651 0.05240101
-0.09082888 0.06420962 0.044584244 -0.046740703 -0.07218847 0.092717946 -0.0020156163 -0.04082562
0.03444437 0.07333807 0.07448253 0.0182499 -0.052029483 -0.08369555 -0.074246794 0.0111117875
00000000: e2cf acbd a740 85bd 3d2f 77bd bc5b 26ba
00000010: bcc8 dc3c e2a5 4b3d 2e97 b9bc b4c3 62bd
00000020: 3e4a 11bd 408c 91bd 8d8b 5ebd 90c9 963b
00000030: 51b1 2dbb 233a 353d a42b dc3c 1808 eabc
00000040: 7cd1 13bd da33 c63c 42b8 94bd 590b 71bd
00000050: 31d4 803d a78b 1c3d 8fe2 bfbc a1ef bcbd
00000060: db98 99bd ea6a babd ecb3 7fbd 5fec 523d
00000070: 9e0a 013b 0054 7a3d 7c6e 5f3d d08f 2ebc
00000080: d478 6cbd e6c0 86bd 520f 2cbd 24cb a3bd
00000090: a1e7 aabd 8b43 99bd cb9a e1bc c2cd 853d
000000a0: e84a 503d de1c b83d 46e6 cebd 8336 a43d
000000b0: b408 8abd dd89 d13d a034 4d3d 5810 773d
000000c0: 8626 c1bd 38f7 7a3d 107d c13d ef4f 83bd
000000d0: 822a 5abd 62e5 8b3c 0290 4e3d 395f ce3d
000000e0: 0c25 ecbc dab3 cdbc 737b c83d 0121 de3c
000000f0: a718 26bd 3c16 40bd a198 d4bd 937c a93d
00000100: 70f4 57bd dbe1 c6bc 3099 bfbd 82ce 26bd
00000110: e78c 96bc c64d aa3d 1d83 d0bd 460f ef3c
00000120: 37cc a53d 43da da3c 1c7b 183d 747d 8cbd
00000130: b85d b5bd 6bf3 b43d b7ef 7ebd 900e 333d
00000140: 3ec0 44bd 6879 05bd 64fb 01bd 8433 06bd
00000150: 8ae6 b03d 20c2 c83d 89fc b8bd 1109 ab3b
00000160: d255 753d 9c4b 32bd 4779 fbbc 49ab 81bd
00000170: cd15 70bd 84b9 0bbd 6506 38bd 1c5c 2e3c
00000180: 1bc1 aabd 9313 ee3d b454 d83c 156c dabc
00000190: 4e08 673d bce6 9ebc e267 b63d 7a7f bbbd
000001a0: 2407 c23c bac6 0b3d 9fc5 8abc bc7f 0c3d
000001b0: 93d7 b43d a3c2 9e3d 8aca 703d b015 a0bd
000001c0: f09e 6abd 5ddb eb3c 84ee 833d c81f 89bc
000001d0: 3733 acbd 27ff 283d 44c8 653d 1446 f33c
000001e0: 8ff9 adbd 6300 913c 086c d1bd 85e3 8dbc
000001f0: addb 663d 4f4a aebd 4f97 4f3d 9aa9 893d
00000200: 78bf a53d 918e 46bc 179e 07bd d621 7fbc
00000210: e2f8 56bd a7ce 8dbd efa1 1dbc 35af 6538
00000220: 3208 d03d 983f 9e3d cdb2 eaba d166 bb3d
00000230: 20ba a43d 791f 623c 2ff5 66bd d8c8 6bbd
00000240: fd64 203d ac21 3cbd dc55 0f3d efae 0f3d
00000250: d6b4 b83d 6ffe 32bd e7b7 26bd 5f01 34bd
00000260: b27d 32bd 7da4 cb3d 41f5 053d 8fac b53d
00000270: 0339 c03c dd7e ad3c a208 6f3d eb22 813d
00000280: c93e 803b 6eaf fd3b 00eb 40bc 9303 3e3d
00000290: ab17 4abd bfcf 8ebd 426e 96bc 1edf 8a3d
000002a0: 14bc acbd 3894 4dbd 9c1b 1d3d 1de1 12bd
000002b0: a814 273d 33b1 433d a573 7f3d f5e4 29bd
000002c0: 3760 f0bc 522f b6bd 884a b83d 23a8 96bd
000002d0: 0d1a 933d 0d23 2f3d 8fcd c6bc a55a 95bb
000002e0: 0a5a a5bb b8a1 e5bd 6c56 72bd 031b 193d
000002f0: 36c1 aebd 25b5 a1bd 8f29 80bd 9200 10bd
00000300: 7b74 3dbc ab52 a0b7 adf1 d73c 139f adbd
00000310: a7fd 03bd 4cd4 6f3d 7cae cbbd f73d 1abc
00000320: 8e88 ac3c f459 e33c c826 97bd e74b cd3d
00000330: 31c6 c2bd 98ca 603c 00be 82bd 0b0d d63d
00000340: 54c5 98bd 8704 a33d 4e54 c4bd 3a47 273d
00000350: 42d8 c73d 54ac 853d 909a 653d c94c a2bd
00000360: cee5 513d ee74 df3b 76ce cbbd 9210 703d
00000370: 1947 b93c 20d6 6fbd c5ee a43c 0591 353d
00000380: 7a7e 45bd 1895 833d c57b 41bd e0f9 c13d
00000390: 8b6c 923d 2877 43bd 7611 573d 7900 613d
000003a0: 525a 7c3d 3cca bcbd ea6b 5c3d c09e c53d
000003b0: 245e 93bd a871 c83c d3e1 b1bd 71a2 563d
000003c0: 7e04 babd 5580 833d f89d 363d 2e73 3fbd
000003d0: 8cd7 93bd e8e2 bd3d 6e18 04bb c438 27bd
000003e0: 8a15 0d3d 4532 963d 4c8a 983d d080 953c
000003f0: de1c 55bd 9368 abbd b40e 98bd 370e 363c

encode_res_dense_blocks.1.conv2.conv.bias f4 [32]
-0.06328359 -0.028364517 0.0014012022 -0.049912415 -0.05605389 0.030616662 0.024026262 -0.09993235
-0.066335164 0.037922934 -0.022809798 0.08325593 -0.080486864 -0.0021017392 0.093180574 0.066579156
0.052412305 0.060940865 -0.04705732 0.09182936 0.096223585 -0.028875414 0.0005377525 -0.045372035
0.05241812 0.03883331 0.020952392 -0.034341305 0.03306135 0.022270128 0.048712283 0.066840775
00000000: d49a 81bd b45c e8bc 8ba8 b73a f670 4cbd
00000010: c498 65bd cbcf fa3c b9d2 c43c 55a9 ccbd
00000020: bbda 87bd 1455 1b3d 9ddb babc 1682 aa3d
00000030: 4cd6 a4bd 55bd 09bb 75d5 be3d a75a 883d
00000040: 49ae 563d 219d 793d 2dbf 40bd 0811 bc3d
00000050: df10 c53d 228c ecbc f6f7 0c3a 07d8 39bd
00000060: 62b4 563d ad0f 1f3d 5aa4 ab3c 78a9 0cbd
00000070: 576b 073d d86f b63c 8886 473d d1e3 883d

encode_res_dense_blocks.2.conv1.conv.weight f4 [32, 32, 3]
0.09518849 -0.0037400378 0.044768557 0.089866385 -0.093714364 0.05255973 0.052695062 0.052777123
0.042708483 0.011289971 -0.063052714 0.048624277 -0.08277193 -0.05694189 -0.0046488703 0.030958397
-0.0043042866 0.020225111 -0.04243499 0.053624023 -0.007249633 -0.01216567 -0.0102027645 -0.030296465
0.053113606 0.01940005 0.062275637 0.07897334 0.02467341 -0.011114824 -0.07729812 0.039647777
-0.014140373 0.057407912 0.045082804 0.019927327 0.058193915 -0.078714184 0.10518995 0.023430048
-0.088161156 -0.08239071 -0.027290551 0.06288941 -0.041968036 -0.05399911 -0.058265038 0.09893757
-0.09197504 0.031910457 0.07301023 0.025028085 -0.0094872555 0.020424712 0.03452525 -0.05731244
0.09556389 0.021999815 -0.0547439 0.038012143 -0.08595227 -0.07158711 -0.026397487 0.016306063
-0.017625587 -0.060117774 0.10303858 0.056330997 -0.09708694 0.023294162 0.06079617 0.0026757966
-0.055489015 0.06667103 0.052393198 -0.019700693 0.06609488 0.09736878 0.021845186 0.101471476
-0.034204617 0.011817325 0.047131665 0.07202638 -0.09207938 0.027496343 0.0047436995 0.05821247
-0.06112399 -0.011151209 0.08004591 -0.10399417 -0.10873503 -0.025790067 -0.090171315 0.06972453
-0.02804813 -0.04019086 -0.048570983 -0.023851277 -0.09319046 -0.011704095 0.06504577 -0.042431355
0.009190916 0.018418562 0.0028845798 0.0621803 0.082839206 -0.04839785 -0.052398738 -0.0096020065
-0.044511497 0.094604984 0.08114204 0.0024852604 0.025352612 -0.04822946 -0.065969564 -0.030350085
0.031080982 -0.028006637 0.09401265 0.029782603 -0.050297696 0.012913165 0.012951931 -0.012161955
-0.09674692 -0.1037312 0.012008556 0.05048353 -0.091738485 -0.04515705 -0.07249864 -0.07853647
0.0051090796 0.060212847 -0.021802932 0.087954484 0.06492551 0.005353824 -0.0662393 -0.033084217
0.08582265 0.052935787 0.049515713 0.009201849 0.0064057466 0.010012885 0.06070993 -0.023767816
-0.09854144 -0.013346141 0.03409512 0.09593736 -0.07985251 -0.05071523 -0.0003470731 0.035658326
0.015334393 0.10740144 -0.07096988 0.059905484 -0.044718206 -0.0020434198 0.099148594 0.07609883
0.10190975 0.092020914 0.07633728 0.10187408 0.06652838 0.015389678 0.045674253 -0.05068847
0.05576049 -0.016820842 -0.051274024 0.09306016 0.07300646 -0.06903626 -0.09405134 0.017061727
-0.031313896 -0.060125444 -0.10228492 -0.035849992 -0.0107685365 -0.06253 0.04793724 0.010805445
-0.06423553 -0.0028768599 -0.022780435 0.022920089 -0.04055023 0.09071931 0.09886962 -0.07983416
0.01561573 0.0728923 -0.07218959 0.06350029 0.024729343 0.01691998 -0.01131579 0.036523048
0.03671169 -0.04827671 -0.012580963 0.028883796 -0.00037551217 0.005866616 0.03163559 0.08354427
0.07195504 -0.013903034 -0.025538385 -0.07903166 -0.043577943 0.033151917 -0.05713045 -0.10165691
-0.097676136 -0.06381832 -0.001971583 -0.05089669 0.044433612 -0.09793461 -0.021554377 0.101785645
0.046350766 -0.07312899 -0.039706845 0.06063689 0.10278239 -0.009410161 -0.077605866 -0.065444075
0.032115087 -0.07039024 -0.09802867 0.031314146 -0.069011845 -0.0744373 0.08923381 0.096091285
-0.004635188 -0.00038159973 0.06207199 -0.08559705 0.017130472 -0.08618738 -0.034173243 -0.08105857
00000000: 2ff2 c23d 6c1b 75bb 3c5f 373d de0b b83d
00000010: 51ed bfbd df48 573d c7d6 573d d32c 583d
00000020: 17ef 2e3d 92f9 383c c821 81bd 402a 473d
00000030: 5484 a9bd e63b 69bd 8d55 98bb 779c fd3c
00000040: f90a 8dbb 22af a53c 50d0 2dbd dda4 5b3d
00000050: 548e edbb 8552 47bc 7f29 27bc 4b30 f8bc
00000060: a78d 593d dbec 9e3c bd14 7f3d c6bc a13d
00000070: e41f ca3c f31a 36bc 7a4e 9ebd b565 223d
00000080: 06ad 67bc 8f24 6b3d bfa8 383d a23e a33c
00000090: be5c 6e3d e734 a1bd d46d d73d 5ff0 bf3c
000000a0: d68d b4bd 76bc a8bd 6f90 dfbc 2acc 803d
000000b0: ade6 2bbd 2c2e 5dbd 52a7 6ebd c89f ca3d
000000c0: 695d bcbd 8ab4 023d 6386 953d b307 cd3c
000000d0: 6f70 1bbc ba51 a73c 596a 0d3d 73c0 6abd
000000e0: 00b7 c33d f538 b43c 243b 60bd 9fb2 1b3d
000000f0: be07 b0bd 439c 92bd 8b3f d8bc 4b94 853c
00000100: 8963 90bc 0e3e 76bd e405 d33d 55bb 663d
00000110: 85d5 c6bd 66d3 be3c 6805 793d 6b5c 2f3b
00000120: 7348 63bd d28a 883d 409a 563d 5963 a1bc
00000130: c15c 873d 4869 c73d adf4 b23c 47d0 cf3d
00000140: 241a 0cbd 749d 413c 220d 413d 9182 933d
00000150: 1d94 bcbd 0340 e13c 0971 9b3b 3370 6e3d
00000160: 265d 7abd 8fb3 36bc 1cef a33d e5fa d4bd
00000170: 79b0 debd b145 d3bc bdab b8bd bccb 8e3d
00000180: 31c5 e5bc 2c9f 24bd 5ef2 46bd c163 c3bc
00000190: a4da bebd 88c2 3fbc b736 853d 80cc 2dbd
000001a0: 7f95 163c 86e2 963c 380b 3d3b c5b0 7e3d
000001b0: 9aa7 a93d d33c 46bd 0fa0 56bd bc51 1dbc
000001c0: b051 36bd 42c0 c13d cc2d a63d c0df 223b
000001d0: 48b0 cf3c 418c 45bd 0d1b 87bd bea0 f8bc
000001e0: 8b9d fe3c 2d6e e5bc b489 c03d a5fa f33c
000001f0: f504 4ebd bd91 533c 5634 543c f042 47bc
00000200: 4023 c6bd 0671 d4bd 89bf 443c d1c7 4e3d
00000210: 63e1 bbbd 99f6 38bd 2b7a 94bd bbd7 a0bd
00000220: 116a a73b bfa1 763d 109c b2bc 7b21 b43d
00000230: aaf7 843d 216f af3b 78a8 87bd 5183 07bd
00000240: c9c3 af3d 32d3 583d fdd0 4a3d 5ac3 163c
00000250: 4ce7 d13b 150d 243c faaa 783d b9b4 c2bc
00000260: 18d0 c9bd c6a9 5abc 53a7 0b3d ce7a c43d
00000270: b689 a3bd c6ba 4fbd 5df7 b5b9 770e 123d
00000280: 1b3d 7b3c 49f5 db3d a858 91bd 745f 753d
00000290: 702a 37bd e5ea 05bb 6b0e cb3d b4d9 9b3d
000002a0: 0fb6 d03d 7675 bc3d b856 9c3d 5ca3 d03d
000002b0: 0840 883d fd24 7c3c ed14 3b3d b79e 4fbd
000002c0: 1d65 643d ddcb 89bc b604 52bd 5396 be3d
000002d0: 6984 953d e262 8dbd fd9d c0bd 09c5 8b3c
000002e0: 0043 00bd 1946 76bd c27a d1bd 71d7 12bd
000002f0: 846e 30bc bb0f 80bd d759 443d 5209 313c
00000300: eb8d 83bd b389 3cbb 099e babc e9c2 bb3c
00000310: ff17 26bd 0ccb b93d 287c ca3d 1880 a3bd
00000320: 1ed9 7f3c 8f48 953d 23d8 93bd 710c 823d
00000330: 3195 ca3c c59b 8a3c dd65 39bc 3199 153d
00000340: ff5e 163d cdbd 45bd 6220 4ebc b69d ec3c
00000350: 64e0 c4b9 be3c c03b 5294 013d 4219 ab3d
00000360: 2a5d 933d 8dc9 63bc e035 d1bc 5adb a1bd
00000370: c97e 32bd 4eca 073d 9e01 6abd 7f31 d0bd
00000380: 6d0a c8bd 2eb3 82bd ad35 01bb 0c79 50bd
00000390: 0500 363d f191 c8bd ce92 b0bc fe74 d03d
000003a0: 4dda 3d3d a7c4 95bd a5a3 22bd 635e 783d
000003b0: 937f d23d 132d 1abc d3ef 9ebd 8b07 86bd
000003c0: 1c8b 033d c228 90bd 41c3 c8bd 4343 003d
000003d0: 1556 8dbd 9572 98bd 37c0 b63d 82cb c43d
000003e0: c6e2 97bb 7311 c8b9 333f 7e3d 824d afbd
000003f0: 3455 8c3c 0283 b0bd 3ef9 0bbd 0902 a6bd

encode_res_dense_blocks.2.conv1.conv.bias f4 [32]
0.04090505 -0.048903845 0.07208108 0.076228864 -0.090421766 0.085781515 0.008092972 -0.033935662
-0.094069466 -0.056156714 0.06983998 -0.061385486 -0.059820537 -0.026016153 0.040043995 0.06085864
-0.046307597 0.009694674 0.005787832 -0.072882295 -0.042036213 -0.0047532977 0.01010071 0.10088562
0.06847126 -0.07666099 0.09961179 -0.011932113 -0.03199571 -0.037869133 -0.066339605 0.09665926
00000000: 0e8c 273d 664f 48bd 3f9f 933d e11d 9c3d
00000010: 0c2f b9bd 38ae af3d 6398 043c 1f00 0bbd
00000020: 7ea7 c0bd 9504 66bd 4308 8f3d 596f 7bbd
00000030: 6106 75bd d41f d5bc 2c05 243d e946 793d
00000040: 09ad 3dbd 69d6 1e3c dba7 bd3b 5043 95bd
00000050: 2a2e 2cbd 8dc1 9bbb 737d 253c 1f9d ce3d
00000060: a93a 8c3d 7000 9dbd 4401 cc3d e97e 43bc
00000070: ef0d 03bd aa1c 1bbd 0fdd 87bd 4af5 c53d

encode_res_dense_blocks.2.conv2.conv.weight f4 [32, 32, 3]
-0.030777708 0.09391804 0.0860662 0.07208647 0.082259074 0.06874069 0.041360084 -0.03756575
0.092621334 -0.020851946 0.010100626 -0.017982934 -0.06189762 0.09662275 0.00058474933 -0.0073631504
0.022464035 0.050904773 -0.060951993 0.045593973 -0.035398394 0.013458497 -0.055451427 0.037933335
-0.07113901 0.04877445 -0.056197923 -0.0577094 -0.010460871 0.07355472 -0.05237504 -0.065981135
0.044807035 0.07913061 0.026884275 -0.015683055 -0.025780912 -0.054299485 -0.10043009 -0.09322871
-0.008028152 0.043559503 0.0076090274 0.003595995 0.072262965 0.07881028 -0.056665447 0.07986842
-0.051147923 -0.01607765 0.014370271 0.07559213 0.0901994 -0.02788242 -0.06708267 -0.08915068
-0.06948403 -0.051833265 0.08043131 -0.055282768 -0.09462144 -0.052946735 0.015210123 -0.09199595
-0.012162528 -0.027438445 -0.08660332 -0.09586416 0.009829769 -0.014618042 0.037970215 0.05955954
-0.012593989 0.078664005 -0.0005352068 -0.0691086 -0.09184219 -0.025406571 0.039214205 -0.07771239
0.045757346 0.025242642 -0.04348924 -0.016244253 0.01582154 -0.04515433 -0.05678441 -0.014753562
0.041295927 -0.09388385 -0.10249417 -0.06107995 -0.013270918 -0.06955849 0.07778242 0.078095354
0.017073296 0.06835114 -0.039111666 -0.05735166 -0.089741476 -0.007439901 0.09509252 0.057715632
-0.042678744 -0.061314378 0.055373695 0.05628493 0.10163404 0.082125984 0.0754649 -0.03946378
-0.090215586 0.020171024 -0.07327331 -0.039060783 -0.10187064 -0.06996193 -0.016310275 0.09541244
0.0017454869 -0.068738505 -0.026590582 0.09452057 -0.009513246 -0.08386083 -0.028622929 -0.028460668
0.06077875 -0.047013544 -0.0061957417 -0.0032176927 -0.06797686 0.085545115 0.054655083 0.009595569
-0.06895255 0.027404288 0.008177302 -0.060643714 0.069808744 0.038910147 -0.0864351 0.10596564
-0.038400907 0.045699865 -0.08114582 0.027986635 0.048431616 -0.064015545 -0.005099437 0.048021533
-0.05491131 0.06415693 0.010381332 -0.08428941 -0.051857866 0.09988574 0.018401943 -0.033505976
0.00966014 0.019209675 -0.037680283 0.07311971 0.07869395 -0.08271871 -0.09758289 -0.056552656
0.03451447 0.059287447 0.031996932 0.02394909 -0.06299101 -0.02882216 -0.04082494 0.037496366
0.007127454 -0.08413936 -0.09489357 0.10509937 -0.052730773 -0.08132938 0.023702897 -0.08870792
0.018607117 -0.10080584 -0.03705254 -0.033629347 -0.04898921 0.0314592 0.08526669 0.0785566
-0.032410916 -0.06118159 -0.078433596 0.08414192 0.024444388 -0.065129995 -0.10343428 0.08491252
-0.09885522 -0.10194417 0.03181446 0.063209906 0.047272503 -0.0089380145 -0.011697901 -0.023737878
0.07837626 -0.0592464 -0.09084982 0.0176606 0.013439403 0.010547314 -0.09873313 -0.087417506
-0.070179716 0.009073714 -0.09052522 0.0042799814 0.09477879 -0.08550394 -0.06388599 -0.052584883
0.04577819 0.08093864 0.00022174064 -0.022797141 0.008151626 0.013189092 0.033774704 0.03354191
0.09216966 -0.045896877 -0.03930542 -0.016000072 0.024624297 0.054456566 -0.07808816 0.06868967
-0.055764075 -0.04203989 0.09935744 0.032311052 0.09514598 0.05147874 0.05663972 -0.03365996
-0.011806645 0.02070832 0.026613515 -0.029799845 -0.02390631 0.08103195 -0.004630807 0.01497997
00000000: 8821 fcbc 1a58 c03d 7a43 b03d 12a2 933d
00000010: 7277 a83d ebc7 8c3d 3169 293d 8bde 19bd
00000020: 41b0 bd3d b3d1 aabc 197d 253c f250 93bc
00000030: 5c88 7dbd 26e2 c53d dd49 193a 9546 f1bb
00000040: 7f06 b83c 8681 503d cca8 79bd bfc0 3a3d
00000050: e8fd 10bd 0781 5c3c 0921 63bd fc5f 1b3d
00000060: 54b1 91bd b8c7 473d cb2f 66bd b160 6cbd
00000070: 1364 2bbc dba3 963d 3687 56bd 1e21 87bd
00000080: 9587 373d 3b0f a23d 693c dc3c c079 80bc
00000090: 7e32 d3bc 2369 5ebd 4bae cdbd b2ee bebd
000000a0: 8388 03bc 736b 323d 2655 f93b c9aa 6b3b
000000b0: 9bfe 933d 4967 a13d 071a 68bd 0e92 a33d
000000c0: 7c80 51bd 47b5 83bc 4971 6b3c 0cd0 9a3d
000000d0: 77ba b83d ac69 e4bc a462 89bd a294 b6bd
000000e0: a54d 8ebd 1e4f 54bd 2cb9 a43d 2f70 62bd
000000f0: e3c8 c1bd adde 58bd e133 793c 5f68 bcbd
00000100: 5745 47bc 97c6 e0bc 155d b1bd 6e54 c4bd
00000110: 0a0d 213c 8380 6fbc a886 1b3d b4f4 733d
00000120: 0557 4ebc 981a a13d 1f4d 0cba cf88 8dbd
00000130: c217 bcbd 7121 d0bc 139f 203d ac27 9fbd
00000140: 0e6c 3b3d a8c9 ce3c c621 32bd ab12 85bc
00000150: 2d9c 813c bff3 38bd c596 68bd edb8 71bc
00000160: eb25 293d 2d46 c0bd 77e8 d1bd f82e 7abd
00000170: 446e 59bc ae74 8ebd 644c 9f3d 75f0 9f3d
00000180: 4cdd 8b3c affb 8b3d 8e33 20bd 93e9 6abd
00000190: 61ca b7bd 6aca f3bb debf c23d 3a67 6c3d
000001a0: e8cf 2ebd c924 7bbd 87cf 623d 078b 663d
000001b0: 8225 d03d ab31 a83d 578d 9a3d c6a4 21bd
000001c0: f3c2 b8bd b43d a53c 5110 96bd 33fe 1fbd
000001d0: 8ea1 d0bd 3348 8fbd 209d 85bc 9967 c33d
000001e0: d2c8 e43a c6c6 8cbd 7ed4 d9bc 0094 c13d
000001f0: 72dd 1bbc 3abf abbd a27a eabc 5926 e9bc
00000200: 23f3 783d 4691 40bd a605 cbbb eddf 52bb
00000210: 7437 8bbd 4732 af3d 02de 5f3d bc36 1d3c
00000220: ff36 8dbd f57e e03c 17fa 053c 8b65 78bd
00000230: e3f7 8e3d 3f60 1f3d e304 b1bd 8304 d93d
00000240: 454a 1dbd c82f 3b3d c82f a6bd 3a44 e53c
00000250: 3b60 463d 951a 83bd 2e19 a7bb 3ab2 443d
00000260: afea 60bd b564 833d 7616 2a3c ed9f acbd
00000270: ea68 54bd e590 cc3d acbf 963c 903d 09bd
00000280: 9045 1e3c 9c5d 9d3c a456 1abd c9bf 953d
00000290: 4b2a a13d 6d68 a9bd 8ad9 c7bd c2a3 67bd
000002a0: 0b5f 0d3d 65d7 723d 370f 033d e230 c43c
000002b0: 6e01 81bd 731c ecbc 0d38 27bd ca95 193d
000002c0: 6b8d e93b 4251 acbd 8f57 c2bd 573e d73d
000002d0: 39fc 57bd 0590 a6bd 942c c23c 7fac b5bd
000002e0: f46d 983c 4b73 cebd 67c4 17bd edbe 09bd
000002f0: e9a8 48bd 5ddb 003d 4da0 ae3d 48e2 a03d
00000300: 4fc1 04bd 8c99 7abd cba1 a0bd 9952 ac3d
00000310: 993f c83c e062 85bd 5ad5 d3bd 9ee6 ad3d
00000320: 9b74 cabd 1bc8 d0bd e14f 023d 3274 813d
00000330: d0a0 413d c070 12bc 8ea8 3fbc f075 c2bc
00000340: bc83 a03d 5aac 72bd 780f babd f6ac 903c
00000350: f130 5c3c a4ce 2c3c 9834 cabd f307 b3bd
00000360: 62ba 8fbd eaa9 143c 4965 b9bd 163f 8c3b
00000370: 621b c23d b11c afbd a8d6 82bd 3f63 57bd
00000380: e981 3b3d 28c3 a53d 0d83 6839 12c1 babc
00000390: 668e 053c 1017 583c 5857 0a3d 3e63 093d
000003a0: 72c3 bc3d 5dfe 3bbd b8fe 20bd 9512 83bc
000003b0: e5b8 c93c d90d 5f3d afec 9fbd 2bad 8c3d
000003c0: df68 64bd 0532 2cbd ea7b cb3d 9858 043d
000003d0: e5db c23d 5fdb 523d 0dff 673d 07df 09bd
000003e0: a970 41bc 7fa4 a93c 9604 da3c ce1e f4bc
000003f0: 2ad7 c3bc 14f4 a53d 06be 97bb 8c6e 753c

encode_res_dense_blocks.2.conv2.conv.bias f4 [32]
-0.10512677 -0.08143 0.025509667 0.010544113 -0.011350854 0.0846959 -0.07466815 -0.021384198
0.051497165 -0.08129973 -0.07904427 -0.007369972 -0.021901537 0.09791572 -0.07463994 0.08870309
0.09321536 -0.0383788 -0.04822173 0.07467852 0.08608179 -0.05889376 0.06284119 0.07329464
-0.07101201 -0.08872619 0.036855802 -0.010981425 -0.0646445 0.0005252628 0.08279258 0.06492212
00000000: b44c d7bd c6c4 a6bd a6f9 d03c 37c1 2c3c
00000010: eff8 39bc 0b75 ad3d 9deb 98bd ea2d afbc
00000020: b1ee 523d 7980 a6bd f6e1 a1bd ce7f f1bb
00000030: da6a b3bc 0988 c83d d3dc 98bd f7a9 b53d
00000040: b2e7 be3d 1733 1dbd 2684 45bd 0df1 983d
00000050: a64b b03d 953a 71bd e2b2 803d 801b 963d
00000060: bf6e 91bd 14b6 b5bd 1cf6 163d 6feb 33bc
00000070: 5664 84bd cab1 093a 288f a93d e3f5 843d
