model/2023-03-17-00-07-28.pth (torch, 229585 bytes, 50 tensors)

encode_conv_input.conv.weight f4 [32, 1, 3]
-0.13539463 -0.38140547 -0.5625485 0.20756693 0.44575298 0.0031447208 -0.5457364 0.50277567
0.045314215 -0.37134126 0.41647282 0.13042675 0.5622799 0.054950684 0.3875343 -0.14914067
0.18720114 0.027938163 0.2599109 0.34090677 -0.15961896 -0.5017372 -0.07700943 0.43306643
0.26617286 -0.25876018 -0.09076447 0.0073980526 -0.36914134 -0.4157804 -0.00096389506 -0.38145623
-0.40995547 -0.17501289 0.20842257 -0.022420745 0.13851571 0.12990877 -0.45582128 0.57098514
-0.007268506 0.08639738 -0.37153426 0.2304516 0.2065074 -0.18259409 0.2544675 0.5207842
-0.4002888 0.008498749 0.04258445 -0.4959361 0.45466426 -0.5633313 -0.25219277 0.312879
-0.051003993 0.26239088 0.56890684 0.4664323 -0.12935343 0.53042865 -0.41671088 -0.48219055
0.19222443 -0.30158606 -0.23288392 -0.34593785 0.48736766 0.30088857 -0.44435966 0.17270227
0.55494696 0.23467645 0.51403123 0.532141 -0.007922953 -0.3326316 -0.5127595 -0.4731638
-0.2481783 -0.05643856 -0.4515479 -0.43625766 0.33147043 0.059667774 0.3638628 0.16903806
0.43508455 -0.20980029 0.26146972 -0.4713735 -0.4622404 0.44151995 -0.33229768 0.18933035
00000000: e4a4 0abe 9447 c3be 2e03 10bf 6d8c 543e
00000010: bc39 e43e a917 4e3b 61b5 0bbf e8b5 003f
00000020: 669b 393d 7120 bebe ed3b d53e 978e 053e
00000030: 93f1 0f3f f813 613d e56a c63e 55b8 18be
00000040: a8b1 3f3e 93de e43c 0b13 853e 558b ae3e
00000050: 2773 23be d971 00bf 1fb7 9dbd e2ba dd3e
00000060: cf47 883e 377c 84be b9e2 b9bd 5d6b f23b
00000070: 1800 bdbe 2be1 d4be e7ad 7cba 3b4e c3be
00000080: afe5 d1be 9436 33be ba6c 553e b6ab b7bc
00000090: 10d7 0d3e ce06 053e 6861 e9be 152c 123f
000000a0: a62c eebb 1cf1 b03d bd39 bebe 81fb 6b3e
000000b0: ad76 533e f2f9 3abe 9049 823e 1d52 053f
000000c0: a7f2 ccbe 563e 0b3c 086d 2e3d 56eb fdbe
000000d0: c1c9 e83e 7b36 10bf 691f 81be ad31 a03e
000000e0: 90e9 50bd 1958 863e e1a3 113f 37d0 ee3e
000000f0: 3a75 04be 2cca 073f 215b d5be aee1 f6be
00000100: 7bd6 443e 7d69 9abe 1f79 6ebe c41e b1be
00000110: 4188 f93e 110e 9a3e 1c83 e3be ddd8 303e
00000120: 0111 0e3f 064f 703e 8d97 033f 643a 083f
00000130: 46cf 01bc b04e aabe 3544 03bf 8742 f2be
00000140: 7422 7ebe 1f2c 67bd 4931 e7be 2a5d dfbe
00000150: 7eb6 a93e 3266 743d 3a4c ba3e 5018 2d3e
00000160: 67c3 de3e e3d5 56be 5cdf 853e de57 f1be
00000170: c6aa ecbe e70e e23e ec22 aabe d1df 413e

encode_conv_input.conv.bias f4 [32]
-0.3874191 -0.52812326 0.10476742 -0.14380555 0.5648105 -0.35363677 -0.25862876 0.33150393
-0.5794984 -0.46256113 -0.4961886 -0.12701519 0.38634792 -0.31280702 -0.27049053 0.47497562
0.24251264 -0.05902194 -0.5347519 -0.53765416 -0.41945276 -0.47591493 -0.22817837 0.13190033
0.23247603 -0.10498032 -0.108919315 0.41267863 -0.0014862304 -0.5769603 -0.0042716023 -0.33919558
00000000: cc5b c6be 1633 07bf 4d90 d63d c341 13be
00000010: 6c97 103f e10f b5be fd6a 84be e2ba a93e
00000020: 025a 14bf d0d4 ecbe 6f0c febe 4510 02be
00000030: 65cf c53e 3e28 a0be bc7d 8abe 0130 f33e
00000040: 3c55 783e fdc0 71bd 80e5 08bf b4a3 09bf
00000050: 83c2 d6be 1fab f3be 97a7 69be e110 073e
00000060: 320e 6e3e ecff d6bd 1711 dfbd 9d4a d33e
00000070: 9ecd c2ba acb3 13bf ccf8 8bbb 0bab adbe

encode_res_dense_blocks.0.conv1.conv.weight f4 [32, 32, 3]
-0.069607675 0.0132711 -0.0814797 0.031876665 0.0036431965 -0.039981615 0.021346143 0.005022936
0.048634976 0.08731965 0.0015019906 -0.04710163 -0.037654884 -0.061231077 -0.020956354 -0.06512678
-0.007565738 -0.04952194 0.01853915 0.08340935 0.10631221 0.07508413 -0.009322454 -0.047821768
-0.002658888 0.008472081 0.094738804 0.07402014 0.010432305 -0.028856508 -0.0549189 -0.041974217
0.08715776 0.08187085 -0.07796777 0.051358767 -0.0867469 -0.093104556 -0.09127267 0.0217934
0.0476191 -0.05479879 0.025938231 -0.084011376 -0.0071622576 -0.057941467 -0.041488677 -0.06559271
-0.022376433 0.016865874 0.030675972 -0.04818647 0.025746798 -0.093016945 -0.0051612053 0.035225008
0.100006774 -0.08451371 -0.0039093136 -0.048769068 0.05408339 -0.07841692 -0.02384892 0.06959913
-0.03342984 0.01583838 -0.06314573 -0.015283714 0.056070585 -0.027911311 0.051971998 -0.05780096
-0.078398354 -0.018665249 0.07962906 0.08089165 -0.060896292 0.048775107 0.06159721 0.073478214
-0.039180465 0.09252395 0.069646545 0.045560375 0.021143056 -0.05256697 -0.07243033 0.05159476
0.09743282 0.0454158 -0.051917303 -0.05546656 0.046112992 -0.03710346 -0.044739515 -0.04447989
-0.018949261 -0.10021048 -0.021251874 -0.07937796 0.051444706 -0.06165841 0.021632543 0.0664555
-0.06479112 -0.043592636 0.089372076 -0.03244437 -0.0234832 -0.10425843 0.09439279 -0.034622815
-0.093785 -0.012952596 -0.09199491 0.01970181 0.07419328 0.018675705 -0.0101452945 0.023540491
-0.06672149 -0.07052851 -0.079094924 0.030647917 -0.095476955 0.06920354 0.039365392 -0.024749905
0.08006957 -0.011784415 -0.087380104 -0.024402397 -0.029591376 0.045763846 0.03636777 0.028101295
-0.095144145 -0.03574034 -0.043699544 0.073345475 0.049234163 0.004147305 -0.05205142 -0.06862837
-0.07948558 -0.06755536 -0.051233917 -0.0025974428 -0.077626824 0.08427112 0.103314884 -0.05355906
-0.09353015 0.019040799 0.06526516 -0.0683294 0.10189104 -0.019252293 0.039051563 -0.0035477525
0.085019134 -0.073827334 -0.023145255 0.058991916 0.013946141 0.04722846 -0.009071435 -0.07250266
-0.048796818 -0.0012084837 -0.102463946 -0.03248684 -0.111719035 -0.0212587 0.1001407 0.08205785
0.05541382 0.013696404 0.06316984 0.090317644 -0.09105972 -0.07184524 0.085306525 -0.035736606
-0.07145978 0.0862509 0.0044868295 0.026210373 -0.02218533 0.0069122096 -0.03594997 0.010515955
-0.07725743 -0.0033727896 -0.081629544 -0.083121866 0.0023905737 0.09579736 0.08384599 -0.095751084
0.09600288 0.046294913 -0.063639976 0.06346678 -0.0065574027 -0.08209898 -0.05498496 -0.03408446
-0.051389407 -0.027541246 -0.02077092 0.060420647 0.09380776 -0.08917247 -0.024986366 0.03563771
0.08479612 -0.055714794 -0.100442976 -0.07296537 0.059653666 0.08635138 0.07586061 -0.076646246
-0.10099991 0.074059345 0.06422057 -0.03168235 -0.08279936 -0.01745086 0.03542509 0.07822705
-0.084860705 -0.0072331103 -0.012075632 0.083989374 0.0041448805 -0.008875634 0.018730987 0.015383931
-0.01342331 -0.047376107 0.051303465 0.042383254 0.042165995 0.08204582 0.0026646962 -0.08895014
0.03160298 -0.014633374 0.0060651107 -0.017075839 -0.07676701 0.028705897 -0.04638795 0.041066527
00000000: 788e 8ebd 076f 593c d4de a6bd 1b91 023d
00000010: b2c2 6e3b c3c3 23bd 1bde ae3c 7197 a43b
00000020: 7835 473d a5d4 b23d 71de c43a a4ed 40bd
00000030: 023c 1abd 70cd 7abd a9ac abbc 3061 85bd
00000040: 03ea f7bb 85d7 4abd 6adf 973c 85d2 aa3d
00000050: 37ba d93d b5c5 993d 35bd 18bc c2e0 43bd
00000060: bd40 2ebb 7cce 0a3c 6b06 c23d df97 973d
00000070: 42ec 2a3c 7c64 ecbc a4f2 60bd 28ed 2bbd
00000080: c57f b23d e7ab a73d 91ad 9fbd 925d 523d
00000090: 5ca8 b1bd 9aad bebd 2aed babd 1388 b23c
000000a0: 3f0c 433d b274 60bd 6a7c d43c 280e acbd
000000b0: 5fb1 eabb 0854 6dbd 08f0 29bd 7955 86bd
000000c0: c84e b7bc 4d2a 8a3c 2d4c fb3c 2d5f 45bd
000000d0: f3ea d23c ab7f bebd 541f a9bb 1948 103d
000000e0: 5ad0 cc3d 8615 adbd b319 80bb 13c2 47bd
000000f0: 8b86 5d3d 0d99 a0bd cf5e c3bc fd89 8e3d
00000100: baed 08bd 7ebf 813c 8c52 81bd 8b68 7abc
00000110: 45aa 653d 43a6 e4bc 97e0 543d b3c0 6cbd
00000120: 518f a0bd dde7 98bc 9014 a33d 85aa a53d
00000130: 646e 79bd 68c8 473d 5b4d 7c3d bf7b 963d
00000140: b27b 20bd 327d bd3d d9a2 8e3d 849d 3a3d
00000150: 3434 ad3c 7750 57bd 5a56 94bd 0755 533d
00000160: dc8a c73d eb05 3a3d 3da7 54bd e730 63bd
00000170: fae0 3c3d ccf9 17bd c840 37bd 8c30 36bd
00000180: 7b3b 9bbc 273b cdbd 6918 aebc e990 a2bd
00000190: afb7 523d 878d 7cbd bb36 b13c d219 883d
000001a0: 35b1 84bd 318e 32bd b508 b73d 63e4 04bd
000001b0: d75f c0bc 7285 d5bd 0251 c13d a7d0 0dbd
000001c0: 5a12 c0bd 2037 54bc d467 bcbd b165 a13c
000001d0: a5f2 973d cbfd 983c 7338 26bc fdd7 c03c
000001e0: 47a5 88bd 4071 90bd 85fc a1bd 5711 fb3c
000001f0: 6c89 c3bd 96ba 8d3d 9b3d 213d 50c0 cabc
00000200: 84fb a33d 6b13 41bc 57f4 b2bd 89e7 c7bc
00000210: 9d69 f2bc df72 3b3d 5ff6 143d b034 e63c
00000220: efda c2bd 7664 12bd 4bfe 32bd 2736 963d
00000230: c3a9 493d 1ee6 873b df33 55bd 088d 8cbd
00000240: 56c9 a2bd 775a 8abd a8da 51bd dc39 2abb
00000250: d0fa 9ebd 5696 ac3d c196 d33d bf60 5bbd
00000260: bc8c bfbd 73fb 9b3c bda9 853d 49f0 8bbd
00000270: 40ac d03d fcb6 9dbc 88f4 1f3d 6981 68bb
00000280: 831e ae3d c932 97bd 1e9b bdbc 82a1 713d
00000290: 5b7e 643c a172 413d 5ba0 14bc 467c 94bd
000002a0: 2cdf 47bd fc65 9eba 9ed8 d1bd ec10 05bd
000002b0: f3cc e4bd ba26 aebc 9116 cd3d f20d a83d
000002c0: 9af9 623d e266 603c 305f 813d 75f8 b83d
000002d0: 857d babd 9923 93bd 30b5 ae3d 8c60 12bd
000002e0: 8159 92bd 50a4 b03d 4106 933b 23b7 d63c
000002f0: 02be b5bc d17f e23b 4740 13bd 1d4b 2c3c
00000300: 2539 9ebd 050a 5dbb 642d a7bd cc3b aabd
00000310: 2cab 1c3b 6831 c43d 72b7 ab3d 2519 c4bd
00000320: 289d c43d bc9f 3d3d ad55 82bd dffa 813d
00000330: 7bdf d6bb 8323 a8bd e937 61bd 269c 0bbd
00000340: b37d 52bd 2e9e e1bc c727 aabc a47b 773d
00000350: 481e c03d 0ea0 b6bd 35b0 ccbc d9f8 113d
00000360: 97a9 ad3d 3235 64bd 0cb5 cdbd de6e 95bd
00000370: 6757 743d fed8 b03d cf5c 9b3d b5f8 9cbd
00000380: 0ad9 cebd 6dac 973d 1386 833d 5ac5 01bd
00000390: b692 a9bd 1bf5 8ebc e619 113d 8135 a03d
000003a0: 73cb adbd ba03 edbb dfd8 45bc 9f02 ac3d
000003b0: c7d1 873b 1b6b 11bc ba71 993c e20c 7c3c
000003c0: 71ed 5bbc 730d 42bd 9523 523d 109a 2d3d
000003d0: 40b6 2c3d a407 a83d 2fa2 2e3b 7e2b b6bd
000003e0: 2072 013d d2c0 6fbc d6bd c63b a1e2 8bbc
000003f0: 0638 9dbd a128 eb3c 4b01 3ebd 6035 283d

encode_res_dense_blocks.0.conv1.conv.bias f4 [32]
0.08019495 -0.062477008 -0.012943442 0.05953905 0.05052632 0.087593764 -0.038942628 0.02714982
0.07773686 0.06694388 -0.0703931 0.017574837 0.083884716 0.004518186 -0.09086136 -0.10183322
-0.040681712 0.08960064 -0.021035923 -0.07744944 -0.05652155 0.0053919586 0.082367465 -0.005453831
0.050300915 0.068361506 -0.070758924 -0.047808886 -0.0451483 -0.050898936 0.008230794 0.04913429
00000000: 403d a43d e4e7 7fbd bb10 54bc 38df 733d
00000010: b0f4 4e3d 5c64 b33d 4e82 1fbd 4d69 de3c
00000020: 8134 9f3d df19 893d 422a 90bd 1bf9 8f3c
00000030: c0cb ab3d 4b0d 943b 8515 babd ef8d d0bd
00000040: dea1 26bd 8a80 b73d 8753 acbc d09d 9ebd
00000050: 2483 67bd 07af b03b 46b0 a83d 0db6 b2bb
00000060: 5508 4e3d 1e01 8c3d 0eea 90bd 40d3 43bd
00000070: 6ced 38bd 677b 50bd 74da 063c 0a41 493d

encode_res_dense_blocks.0.conv2.conv.weight f4 [32, 32, 3]
0.09687124 -0.026684972 -0.01903392 -0.027011178 -0.018840224 -0.008255293 0.094416015 0.07525777
0.08003314 -0.09912066 -0.07607704 0.017262628 0.070542656 0.07186887 -0.06151225 -0.0866734
0.07459729 0.035683103 -0.05733043 0.048936244 0.07794145 0.011594546 0.09902999 -0.015974741
-0.014920692 0.03967338 -0.013104039 0.05308163 -0.007607225 0.07717773 0.02139443 -0.03644564
0.048255496 0.013666081 -0.084800065 0.068483874 -0.07959671 -0.09922175 0.102910794 0.028764358
-0.027711172 -0.09139108 -0.10199765 -0.07899467 0.013645749 0.046075493 0.030793006 -0.09777852
0.034097943 0.09368142 -0.06525484 0.018617207 0.030829284 -0.082663745 0.022607267 -0.06694682
0.00034058554 -0.08147959 0.06658195 -0.09314677 0.012151612 0.030349428 0.021924995 -0.019381102
0.0989605 0.07075127 0.042756967 -0.053366657 -0.018152168 0.048887756 0.08056833 -0.07651146
0.03907493 0.08769477 0.053520847 -0.006792475 0.06467799 0.09267577 -0.019887917 0.11462314
-0.019559745 0.0652502 0.08562744 0.07344583 -0.08363812 -0.029038008 -0.0019507076 -0.08097128
-0.050420538 0.07825768 0.02435077 0.095518395 0.0024716936 -0.088017315 -0.053685408 -0.06798508
0.06540864 -0.08042026 -0.062340528 -0.083478436 0.10108467 0.016197145 -0.07414505 0.08917084
0.05406887 0.035338912 0.08435423 0.062904865 0.08884218 0.041320477 -0.0031433268 -0.03469776
0.005412117 0.06605513 0.018780725 -0.019362353 0.057203036 -0.009318843 -0.09305807 -0.063597895
-0.074588224 -0.008118366 0.0035870592 -0.010397259 0.034230694 -0.06412962 0.0074204737 -0.019141044
0.028233944 0.08217273 -0.09847865 -0.0078556845 0.014396245 -0.07765009 0.00037634038 -0.066375196
0.099473245 -0.08013994 -0.0449258 0.0705774 0.08314786 0.08979356 -0.096052684 -0.0027398095
0.062386084 0.08847528 -0.010281421 0.01371122 0.020560915 -0.063184194 -0.002496417 -0.098242834
0.039301183 -0.013419229 -0.044031557 -0.09916855 -0.000110519104 0.07004087 0.10589898 0.024660015
-0.009823319 -0.0051236483 -0.07353292 0.06844215 -0.05775323 0.09205737 -0.005195487 -0.043401532
-0.015126257 -0.083449714 -0.074559405 -0.099202335 -0.11233805 0.08451646 -0.08130978 -0.025293717
0.0006364308 -0.088545516 -0.087386325 0.06590157 -0.06910623 -0.084892616 -0.07853114 0.07199883
-0.035350446 0.019313715 -0.03972957 -0.047449727 -0.031151032 -0.038091883 -0.033207223 -0.015990334
0.043591745 -0.08419319 0.0463921 0.057804324 0.026404513 0.060279805 -0.055474617 -0.09122332
-0.049516216 -0.0774112 -0.015724545 -0.054471396 0.064982556 0.09125159 -0.017629212 0.070000924
-0.008431236 0.04622917 -0.022790084 -0.044756696 0.008279359 -0.00039266862 0.002692561 0.09705869
-0.033827543 -0.11835466 -0.0037514546 -0.009177713 -0.08970916 -0.0937701 0.055050835 0.022693599
0.043194585 0.05178927 0.089852765 0.063059725 0.09814681 -0.09789344 0.026010467 -0.070765816
-0.09858899 -0.0517451 0.016095972 -0.047051672 -4.2214444e-05 0.059499785 -0.0894859 -0.04379199
-0.07277304 -0.06968424 -0.0176931 -0.06632758 0.007512257 0.03243394 0.0796681 0.023589622
-0.02118432 -0.0378668 -0.04769153 -0.009853679 0.027432652 0.104199916 -0.06217353 0.02273747
00000000: 6e64 c63d 719a dabc 06ed 9bbc 8c46 ddbc
00000010: d056 9abc 3541 07bc 2f5d c13d bf20 9a3d
00000020: 6ae8 a33d c6ff cabd 47ce 9bbd 5b6a 8d3c
00000030: ab78 903d fc2f 933d 45f4 7bbd d381 b1bd
00000040: 77c6 983d 7228 123d 50d3 6abd 5f71 483d
00000050: c49f 9f3d 0df7 3d3c 3cd0 ca3d 76dd 82bc
00000060: eb75 74bc 8e80 223d 53b2 56bc 206c 593d
00000070: 0746 f9bb 5c0f 9e3d 5f43 af3c 0648 15bd
00000080: 8ea7 453d b3e7 5f3c a8ab adbd 4641 8c3d
00000090: 9a03 a3bd c634 cbbd e5c2 d23d 3ba3 eb3c
000000a0: 8a02 e3bc 3f2b bbbd 25e4 d0bd f5c7 a1bd
000000b0: 6b92 5f3c a8b9 3c3d 9d41 fc3c 1b40 c8bd
000000c0: 49aa 0b3d 0bdc bf3d 54a4 85bd 1d83 983c
000000d0: b28d fc3c 9c4b a9bd e032 b93c 6a1b 89bd
000000e0: 9e90 b239 c5de a6bd 1e5c 883d bcc3 bebd
000000f0: 8e17 473c 5d9f f83c 0c9c b33c 1ec5 9ebc
00000100: cdab ca3d 0be6 903d ee21 2f3d ff96 5abd
00000110: dbb3 94bc 873e 483d 0201 a53d 0ab2 9cbd
00000120: 090d 203d 5199 b33d ad38 5b3d 6993 debb
00000130: e575 843d cbcc bd3d fceb a2bc 89bf ea3d
00000140: c23b a0bc e6a1 853d 705d af3d c46a 963d
00000150: 764a abbd 1ee1 edbc e3ae ffba 45d4 a5bd
00000160: c485 4ebd 9045 a03d 447b c73c 269f c33d
00000170: 23fc 213b 6c42 b4bd 3be5 5bbd c33b 8bbd
00000180: f7f4 853d 61b3 a4bd c858 7fbd bef6 aabd
00000190: 7b05 cf3d e0af 843c 5cd9 97bd 349f b63d
000001a0: 5277 5d3d 89bf 103d e9c1 ac3d 44d4 803d
000001b0: e4f2 b53d a93f 293d 4600 4ebb 3d1f 0ebd
000001c0: 2158 b13b e947 873d 09da 993c cc9d 9ebc
000001d0: bb4d 6a3d 0fae 18bc 3b95 bebd 9d3f 82bd
000001e0: b6c1 98bd e502 05bc de14 6b3b 4459 2abc
000001f0: 7c35 0c3d 6456 83bd 7227 f33b aecd 9cbc
00000200: df4a e73c 2d4a a83d 2daf c9bd 21b5 00bc
00000210: 3ade 6b3c 0307 9fbd 8d4f c539 b8ef 87bd
00000220: a1b8 cb3d 6920 a4bd 1e04 38bd e28a 903d
00000230: 6d49 aa3d b0e5 b73d 45b7 c4bd 608e 33bb
00000240: 8d88 7f3d 8732 b53d 6873 28bc 06a5 603c
00000250: 5d6f a83c b766 81bd ed9a 23bb 8a33 c9bd
00000260: 47fa 203d 53dc 5bbc 6f5a 34bd e118 cbbd
00000270: 7ec6 e7b8 9671 8f3d 90e1 d83d cd03 ca3c
00000280: fcf1 20bc 47e4 a7bb 6d98 96bd 662b 8c3d
00000290: a78e 6cbd 9388 bc3d e73e aabb cec5 31bd
000002a0: 1fd4 77bc afe7 aabd 9ab2 98bd 982a cbbd
000002b0: 7e11 e6bd f716 ad3d be85 a6bd c534 cfbc
000002c0: 26d6 263a 5a57 b5bd 9af7 b2bd 67f7 863d
000002d0: 9187 8dbd 2edc adbd efd4 a0bd 1f74 933d
000002e0: a1cb 10bd cc37 9e3c 79bb 22bd a55a 42bd
000002f0: 7330 ffbc 3c06 1cbd 4c04 08bd 29fe 82bc
00000300: 428d 323d 7b6d acbd a505 3e3d 3ac4 6c3d
00000310: 474e d83c f5e7 763d 5a39 63bd 4bd3 babd
00000320: 84d1 4abd c389 9ebd c3d0 80bc 661d 5fbd
00000330: 9315 853d 1de2 ba3d 236b 90bc a55c 8f3d
00000340: 2b23 0abc cc5a 3d3d 45b2 babc cc52 37bd
00000350: 26a6 073c 17df cdb9 ad75 303b b5c6 c63d
00000360: c08e 0abd ee63 f2bd f7da 75bb 1e5e 16bc
00000370: 70b9 b7bd 8a0a c0bd fc7c 613d ede7 b93c
00000380: ceec 303d fc20 543d ba04 b83d 7525 813d
00000390: 3201 c93d 5b7c c8bd e713 d53c abed 90bd
000003a0: 06e9 c9bd acf2 53bd b3db 833c 41b9 40bd
000003b0: 6a0f 31b8 0cb6 733d 6244 b7bd 3b5f 33bd
000003c0: 080a 95bd 9cb6 8ebd 1ff1 90bc c1d6 87bd
000003d0: 6129 f63b 73d9 043d 0729 a33d 063f c13c
000003e0: bd8a adbc 381a 1bbd 3258 43bd 5371 21bc
000003f0: 71ba e03c c466 d53d aca9 7ebd ee43 ba3c

encode_res_dense_blocks.0.conv2.conv.bias f4 [32]
0.092509754 -0.08668691 -0.10203618 -0.019000243 0.03871317 0.07628513 -0.033576157 -0.03966933
0.076155536 0.036728024 0.01065328 -0.09990069 0.10198792 -0.039627254 0.06274803 0.10217195
-0.038108494 -0.044155944 0.10361558 0.08816934 0.032276217 0.012154244 0.087714165 -0.049074996
-0.08819066 -0.044848733 -0.021463862 0.07617107 -0.008846108 0.09318441 -0.0023785678 -0.0257482
00000000: c175 bd3d e888 b1bd 58f8 d0bd 66a6 9bbc
00000010: b391 1e3d 613b 9c3d 2787 09bd 4f7c 22bd
00000020: 6ff7 9b3d 2070 163d 188b 2e3c bc98 ccbd
00000030: 0bdf d03d 3050 22bd 0a82 803d 873f d13d
00000040: a717 1cbd dddc 34bd 6834 d43d 2092 b43d
00000050: 1134 043d 9822 473c 7ca3 b33d dd02 49bd
00000060: 4e9d b4bd 4eb3 37bd fbd4 afbc 94ff 9b3d
00000070: 44ef 10bc 78d7 be3d bfe1 1bbb e4ed d2bc

encode_res_dense_blocks.1.conv1.conv.weight f4 [32, 32, 3]
-0.015530216 0.08382487 -0.04516467 0.062510744 0.094377786 -0.0872587 0.033279244 -0.06678012
-0.05625128 0.08247489 -0.0129090855 0.06990053 0.0009805388 0.03615057 0.027908228 -0.015390985
-0.02236651 -0.093351394 -0.068390295 -0.037865017 -0.040020697 0.06821514 0.056990866 -0.0084672235
0.035586845 0.072214186 -0.07230001 0.07370543 -0.06106183 -0.039133705 -0.060044307 -0.034952275
0.08917706 -0.01701709 0.027942441 -0.06548026 0.017029863 -0.032153483 -0.067163214 0.07142243
0.060695525 0.10204646 0.07836018 0.0011592899 -0.043105986 -0.0670967 0.07476063 0.07586737
-0.099499576 -0.045375038 -0.049600463 -0.035377763 -0.020351898 0.033809427 -0.05380706 -0.05430996
-0.049655966 -0.063555 -0.012946326 0.030047426 0.073184095 -0.018140124 -0.06811967 0.0689743
-0.034180723 0.051132843 -0.02672484 0.039143607 -0.02958575 -0.054691393 -0.026863452 0.059607774
-0.10416844 -0.050019477 -0.05279221 -0.06750635 -0.071995966 -0.08069624 -0.04350535 0.036635693
-0.060677595 0.06248024 -0.062308256 0.08824939 -0.020413622 0.058314838 0.027884332 -0.09179263
0.006031743 -0.05654463 0.057354208 -0.03817034 -0.05696754 -0.043177865 0.040604662 -0.043173555
-0.0740028 -0.06389521 -0.033923607 -0.05776538 0.0003756948 0.079995476 -0.030324945 -0.018195098
-0.0014978118 0.03872949 0.0501732 -0.07165684 0.01819493 0.0057267146 -0.013391892 -0.020166876
0.09910063 -0.105317995 -0.005391062 0.03502416 -0.0762135 0.034876306 -0.061902132 0.035893675
0.089053534 0.023096353 -0.024967689 -0.05026458 -0.06379503 0.0603962 0.07251411 -0.04352988
0.06206382 0.039683353 0.08229444 -0.03140172 0.03128518 -0.09495764 0.09599539 0.04513819
-0.083195604 -0.07817473 -0.08852178 -0.055619586 -0.03467684 0.07954217 0.010245848 -0.08590949
0.0061305035 0.011053775 0.05316199 -0.00678883 0.041277915 -0.059505653 -0.082725935 0.05209897
-0.06700486 0.01647692 0.025600215 -0.03435283 0.06791436 0.081897736 -0.022753982 -0.047796253
-0.022822037 0.078623176 0.07717402 -0.07888127 -0.02552309 -0.02353548 -0.052953415 -0.008651218
-0.06540694 -0.010043243 0.09306104 -0.07095482 0.07836716 -0.06607252 0.053431645 -0.054833237
-0.09650391 -0.039905317 -0.011030153 0.07946318 0.063414656 -0.059186455 -0.035702426 -0.039677292
-0.07273507 -0.07527614 0.08227192 -0.050804127 -0.07158355 0.019664098 -0.06997935 -0.010843432
-0.03698512 -0.010646903 -0.050166015 -0.094378665 0.07906774 -0.046993114 -0.042712424 0.014036546
0.005962211 0.10205675 0.060662575 -0.0695567 -0.055522785 -0.020849135 -0.058737237 0.0176525
-0.07100586 0.043118913 -0.04079124 -0.03263313 -0.05138385 -0.014911325 0.015816158 -0.011196094
0.024019375 -0.04667065 0.09446011 0.052762117 0.09993499 0.06793134 0.032747183 0.10138874
0.0656302 -0.0061076838 0.08696692 0.08431541 -0.0431494 -0.051782034 -0.016917024 -0.0072283424
0.104937434 -0.09010635 -0.01335399 0.03448612 -0.023180857 0.043239698 0.028109305 -0.006832408
-0.074388646 0.07301821 -0.01905802 0.079337575 0.0951772 -0.09536907 -0.093011014 0.01917686
-0.0662469 0.08034655 -0.015599998 -0.036731966 0.051082052 -0.018722767 -0.0092646 0.08307645
00000000: 7272 7ebc 60ac ab3d 97fe 38bd a205 803d
00000010: 2449 c13d b0b4 b2bd d14f 083d 04c4 88bd
00000020: be67 66bd 98e8 a83d a180 53bc 0228 8f3d
00000030: 6c85 803a 9f12 143d cc9f e43c 782a 7cbc
00000040: f939 b7bc 042f bfbd 3610 8cbd 5918 1bbd
00000050: beec 23bd 61b4 8b3d 416f 693d 1cba 0abc
00000060: 83c3 113d 08e5 933d 0712 94bd dff2 963d
00000070: f81b 7abd aa4a 20bd 05f1 75bd 1e2a 0fbd
00000080: 76a2 b63d 6d67 8bbc 8ce7 e43c 841a 86bd
00000090: 3682 8b3c 5fb3 03bd de8c 89bd ec45 923d
000000a0: df9b 783d bcfd d03d 4d7b a03d 50f3 973a
000000b0: e78f 30bd ff69 89bd 1a1c 993d 5a60 9b3d
000000c0: 6fc6 cbbd 2ddb 39bd db29 4bbd 46e8 10bd
000000d0: 06b9 a6bc c17b 0a3d cb64 5cbd 1f74 5ebd
000000e0: 0e64 4bbd 2029 82bd d41c 54bc 0526 f63c
000000f0: 8be1 953d 999a 94bc 5382 8bbd 6642 8d3d
00000100: 1601 0cbd ac70 513d 0dee dabc 0c55 203d
00000110: d15d f2bc 1504 60bd be10 dcbc 4827 743d
00000120: 4356 d5bd 39e1 4cbd a53c 58bd c540 8abd
00000130: 9f72 93bd 1244 a5bd aa32 32bd 4f0f 163d
00000140: 1289 78bd 48eb 7f3d f136 7fbd 19bc b43d
00000150: 783a a7bc 8adb 6e3d af6d e43c c6fd bbbd
00000160: eda5 c53b 589b 67bd 3fec 6a3d 8158 1cbd
00000170: cc56 69bd 46db 30bd 1351 263d c1d6 30bd
00000180: c88e 97bd 7edb 82bd 7bf3 0abd 649b 6cbd
00000190: e7f8 c439 abd4 a33d 056c f8bc e30d 95bc
000001a0: 3952 c4ba d0a2 1e3d 6a82 4d3d d2c0 92bd
000001b0: 890d 953c 2aa7 bb3b ab69 5bbc 0135 a5bc
000001c0: 45f5 ca3d f6b0 d7bd 81a7 b0bb 7e75 0f3d
000001d0: d315 9cbd 75da 0e3d 178d 7dbd 3f05 133d
000001e0: b361 b63d 9034 bd3c 0a89 ccbc 3be2 4dbd
000001f0: f8a6 82bd 0162 773d 4782 943d 634c 32bd
00000200: a236 7e3d 038b 223d fd89 a83d 179f 00bd
00000210: e424 003d 2779 c2bd 3b99 c43d d3e2 383d
00000220: 7562 aabd 131a a0bd e84a b5bd 5dd1 63bd
00000230: 4d09 0ebd 01e7 a23d 34de 273c 51f1 afbd
00000240: 64e2 c83b e51a 353c 63c0 593d d574 debb
00000250: 0813 293d 33bc 73bd 376c a9bd bb65 553d
00000260: d839 89bd 9bfa 863c 8bb7 d13c 8eb5 0cbd
00000270: af16 8b3d 00ba a73d 8f66 babc 01c6 43bd
00000280: 48f5 babc 3005 a13d 6a0d 9e3d 818c a1bd
00000290: cd15 d1bc 7bcd c0bc aee5 58bd d7bd 0dbc
000002a0: 13f4 85bd 6a8c 24bc c996 be3d c350 91bd
000002b0: f67e a03d 0851 87bd 24db 5a3d d198 60bd
000002c0: d8a3 c5bd c273 23bd d1b7 34bc 97bd a23d
000002d0: 8bdf 813d 7f6d 72bd b53c 12bd a884 22bd
000002e0: 20f6 94bd 602a 9abd 2e7e a83d fd17 50bd
000002f0: 659a 92bd 9a16 a13c 5551 8fbd a6a8 31bc
00000300: b67d 17bd 5970 2ebc e17a 4dbd 9a49 c1bd
00000310: 44ee a13d da7b 40bd 39f3 2ebd 8bf9 653c
00000320: a75e c33b 2103 d13d 5279 783d be73 8ebd
00000330: dc6b 63bd cecb aabc 7596 70bd fa9b 903c
00000340: 856b 91bd 759d 303d b714 27bd 51aa 05bd
00000350: df77 52bd a14e 74bc e390 813c d26f 37bc
00000360: 48c4 c43c b929 3fbd 4d74 c13d 171d 583d
00000370: b7aa cc3d 961f 8b3d e921 063d e6a4 cf3d
00000380: 2069 863d f722 c8bb b61b b23d 8fad ac3d
00000390: 6dbd 30bd 6619 54bd 9295 8abc bbdb ecbb
000003a0: 70e9 d63d ae89 b8bd b2ca 5abc 5141 0d3d
000003b0: c8e5 bdbc 1c1c 313d 7c45 e63c 64e2 dfbb
000003c0: 1359 98bd 928a 953d 911f 9cbc bd7b a23d
000003d0: 44ec c23d dc50 c3bd 8f7c bebd ca18 9d3c
000003e0: 74ac 87bd bb8c a43d 2297 7fbc 4274 16bd
000003f0: 6a3b 513d 7d60 99bc 8dca 17bc fc23 aa3d

encode_res_dense_blocks.1.conv1.conv.bias f4 [32]
-0.08205491 0.0019950247 0.071828336 0.021345817 0.103128195 -0.10400987 0.016694149 0.099988975
-0.019716006 -0.07569155 -0.03831423 -0.061324723 -0.00874203 0.045608733 0.060950667 -0.010968025
0.0039988956 -0.054399252 -0.008075716 0.041890237 0.05497582 -0.0444743 -0.06926408 0.023386475
0.079125665 0.0053747552 0.054473646 -0.09074682 -0.08829367 0.105403125 0.08020517 -0.10251638
00000000: 680c a8bd f6be 023b bc1a 933d 6cdd ae3c
00000010: e034 d33d 2003 d5bd 2bc2 883c 05c7 cc3d
00000020: 7683 a1bc 2c04 9bbd 62ef 1cbd a22f 7bbd
00000030: bb3a 0fbc 39d0 3a3d 68a7 793d 3bb3 33bc
00000040: 2b09 833b c0d1 5ebd 0250 04bc 1995 2b3d
00000050: 532e 613d af2a 36bd 53da 8dbd fe94 bf3c
00000060: a30c a23d b71e b03b c21f 5f3d 78d9 b9bd
00000070: 50d3 b4bd 98dd d73d 9c42 a43d 1cf4 d1bd

encode_res_dense_blocks.1.conv2.conv.weight f4 [32, 32, 3]
-0.08705469 -0.09901161 -0.0627868 -0.061533988 -0.035581127 0.09867037 -0.0761083 0.059464075
0.043557193 0.08689056 0.0697068 -0.009323478 0.08969489 -0.049954657 -0.04722867 -0.033466063
-0.044231668 0.036645666 -0.10099394 0.050061513 0.07470695 0.07557977 -0.073898666 -0.024705874
-0.029482482 0.07933208 0.09655777 -0.035642996 -0.050598282 -0.08058176 -0.014594999 0.049193162
0.09240741 -0.07473026 -0.034064174 -0.061978895 -0.084628284 0.053194825 0.07037719 -0.04456065
0.056940183 -0.004261456 0.0692002 -0.04123903 0.006680191 0.06372965 -0.09018542 0.02869446
-0.056119073 0.058523845 -0.043881815 0.03799299 0.02581744 -0.03381777 -0.007975915 0.11351158
0.022544913 -0.08063159 -0.08833433 0.044027846 0.035364565 -0.013811917 0.0755658 -0.050607633
-0.001427279 -0.06392149 0.04075856 -0.04429382 0.0660514 0.009715093 0.07213338 -0.048679914
0.096671395 0.043021377 -0.008606865 0.047350656 0.0512456 -0.08682441 -0.010809919 0.024270343
0.037657954 0.026312115 0.016425105 0.052625142 -0.036645662 0.030344382 -0.011106201 0.06191053
-0.018591495 -0.04196978 -0.013856312 -0.07978554 0.054302167 -0.040461134 -0.09888987 -0.06173297
-0.07353685 -0.020228086 0.050355703 0.0828031 -0.05864516 -0.078322314 0.007839722 0.026743902
0.08929818 0.06199488 0.02095841 0.064552754 -0.032950666 -0.05017665 0.026165135 -0.008135667
-0.0054977713 0.043707963 -0.052004967 -0.059201207 0.047468115 0.028407946 -0.03418386 0.08289236
-0.093186416 0.019072955 -0.094547465 0.07572059 -0.05692383 0.10501171 0.044460252 -0.011920634
0.04788819 -0.026163634 0.09376135 0.07386893 0.09136797 0.007203509 0.07476642 -0.08385019
0.06000337 0.00525789 -0.014094598 -0.0012851254 -0.022720013 0.0044200765 -0.09182222 0.08001142
-0.05472338 0.0009527404 -0.06580983 -0.019299194 0.08605646 -0.050997473 -0.038578436 -0.09861878
0.031239491 0.08345923 -0.09579276 0.07778002 0.06948593 -0.005315298 0.07108423 0.02421292
0.019212589 -0.072384685 0.014239559 -0.026013104 0.019343615 -0.08277321 0.093656644 -0.074127726
0.04903745 -0.06863058 -0.026801227 0.0133127095 0.049211487 0.081491016 0.020582581 -0.017447468
0.03449877 -0.084587164 0.076580904 -0.08335331 0.09581912 -0.088433966 -0.043010354 0.011704067
-0.0077506825 0.033292066 0.030071868 -0.053574506 0.020921716 -0.029126503 -0.020172896 -0.022944026
-0.08631737 -0.031729996 0.05518014 0.033352405 -0.03476998 0.04024354 0.08611297 -0.0037221091
-0.025621243 -0.06602245 0.054558646 0.094551 0.007850905 0.027295053 -0.0668925 -0.04378097
0.011191562 0.05585424 0.009683307 -0.030557813 -0.04144128 -0.0884411 0.0319222 -0.0065710857
0.061119873 -0.016555509 -0.062605046 -0.071399584 -0.044896457 0.054038297 0.08710974 0.05679383
-0.060370576 -0.06717533 -0.012602968 -0.067481406 -0.05203125 -0.05844181 0.046214063 -0.07982538
-0.099041685 -0.083867654 -0.048395373 0.045941703 -0.064151525 0.08737233 -0.02680383 0.0779066
0.04158048 -0.01707017 0.014087615 0.011930962 0.024016544 -0.0940446 0.07043352 -0.0044612386
0.04434855 0.052443065 0.054439425 0.06550458 0.00043957317 0.006248265 0.03402467 0.017181914
00000000: bb49 b2bd 99c6 cabd 5e96 80bd 100b 7cbd
00000010: 84bd 11bd b113 ca3d abde 9bbd 9a90 733d
00000020: 0769 323d aef3 b13d 70c2 8e3d 80c1 18bc
00000030: f4b1 b73d 419d 4cbd da72 41bd b613 09bd
00000040: 442c 35bd c419 163d e9d5 cebd 4d0d 4d3d
00000050: f5ff 983d 91c9 9a3d 2f58 97bd f963 cabc
00000060: 3f85 f1bc dc78 a23d 15c0 c53d 64fe 11bd
00000070: 2540 4fbd 0d08 a5bd dd1f 6fbc c57e 493d
00000080: 1940 bd3d 2e0c 99bd e086 0bbd 95dd 7dbd
00000090: 9851 adbd d1e2 593d eb21 903d 3a85 36bd
000000a0: 1c3a 693d afa3 8bbb d6b8 8d3d 42ea 28bd
000000b0: 81e5 da3b b184 823d 22b3 b8bd a510 eb3c
000000c0: 1ddd 65bd b3b6 6f3d 6bbd 33bd 8a9e 1b3d
000000d0: 197f d33c 8184 0abd 6aad 02bc c278 e83d
000000e0: 1cb0 b83c 2d22 a5bd a1e8 b4bd 8b56 343d
000000f0: 6fda 103d 614b 62bc 3ec2 9a3d f349 4fbd
00000100: 8913 bbba 45e9 82bd 73f2 263d 706d 35bd
00000110: f545 873d 0e2c 1f3c aaba 933d 9764 47bd
00000120: a7fb c53d 2f37 303d cf03 0dbc c3f2 413d
00000130: e8e6 513d ffd0 b1bd 161c 31bc 99d2 c63c
00000140: 3a3f 1a3d 818c d73c f18d 863c 768d 573d
00000150: c319 16bd c894 f83c c9f6 35bc e595 7d3d
00000160: 314d 98bc 81e8 2bbd 9605 63bc 9a66 a3bd
00000170: f36b 5e3d 93ba 25bd c686 cabd b6db 7cbd
00000180: 7d9a 96bd 5fb5 a5bc c841 4e3d ac94 a93d
00000190: e835 70bd 7367 a0bd 2d72 003c 0716 db3c
000001a0: f7e1 b63d 58ee 7d3d f9b0 ab3c 3c34 843d
000001b0: 47f7 06bd 0886 4dbd 4458 d63c 764b 05bc
000001c0: a626 b4bb 1f07 333d 2903 55bd f77c 72bd
000001d0: ed6d 423d c8b7 e83c 6004 0cbd 78c3 a93d
000001e0: 85d8 bebd e33e 9c3c 1aa2 c1bd 6613 9b3d
000001f0: f628 69bd 6110 d73d f41b 363d c34e 43bc
00000200: 6826 443d 1e55 d6bc f305 c03d 9848 973d
00000210: 211f bb3d 6a0b ec3b 231f 993d a6b9 abbd
00000220: 18c6 753d 614a ac3b 07ed 66bc a771 a8ba
00000230: 521f babc 4ad6 903b 4a0d bcbd 07dd a33d
00000240: 9f25 60bd 53c1 793a 4ec7 86bd 5819 9ebc
00000250: 5f3e b03d bae2 50bd 6c04 1ebd a5f8 c9bd
00000260: f6e9 ff3c acec aa3d ff2e c4bd 224b 9f3d
00000270: a44e 8e3d f42b aebb 9c94 913d 2c5a c63c
00000280: b863 9d3c 6c3e 94bd 0a4d 693c 6f19 d5bc
00000290: 8076 9e3c 0085 a9bd 0ecf bf3d 47d0 97bd
000002a0: 7edb 483d 318e 8cbd 3f8e dbbc 8d1d 5a3c
000002b0: fc91 493d c3e4 a63d cd9c a83c feed 8ebc
000002c0: 954e 0d3d 093c adbd 73d6 9c3d 24b5 aabd
000002d0: d13c c43d de1c b5bd a02b 30bd 6ac2 3f3c
000002e0: 70f9 fdbb 435d 083d 4759 f63c f170 5bbd
000002f0: 0564 ab3c b49a eebc a141 a5bc 1cf5 bbbc
00000300: 29c7 b0bd 50f7 01bd 9204 623d 889c 083d
00000310: f76a 0ebd 69d6 243d ff5b b03d a1ee 73bb
00000320: a4e3 d1bc c736 87bd e378 5f3d f4a3 c13d
00000330: 15a1 003c e099 df3c effe 88bd ad53 33bd
00000340: d05c 373c 6ac7 643d bca6 1e3c 6154 fabc
00000350: 55be 29bd 9c20 b5bd dac0 023d 4352 d7bb
00000360: d558 7a3d 6b9f 87bc 1337 80bd f239 92bd
00000370: 59e5 37bd 4357 5d3d 9766 b23d a6a0 683d
00000380: 2347 77bd 3893 89bd ae7c 4ebc b133 8abd
00000390: b81e 55bd ae60 6fbd f54a 3d3d 7d7b a3bd
000003a0: 5ed6 cabd cec2 abbd 3a3a 46bd 5e2d 3c3d
000003b0: e061 83bd 44f0 b23d b593 dbbc 7f8d 9f3d
000003c0: 4b50 2a3d bed6 8bbc bdcf 663c 157a 433c
000003d0: 58be c43c 759a c0bd 733f 903d 952f 92bb
000003e0: d3a6 353d 8ace 563d e0fb 5e3d 4427 863d
000003f0: 8376 e639 3fbe cc3b 745d 0b3d 16c1 8c3c

encode_res_dense_blocks.1.conv2.conv.bias f4 [32]
-0.00381634 0.007797877 -0.096481204 0.03506052 -0.061592765 0.016652582 -0.07269517 -0.039555095
0.08861532 -0.028103879 -0.037080154 -0.029666182 0.045752894 -0.10400481 0.0015049147 -0.041047707
0.05906947 -0.04005089 -0.039950907 0.038051892 -0.024619116 0.036886122 -0.06724542 -0.069924906
-0.09581919 0.077956684 -0.06520986 0.013658594 -0.09876571 -0.020466909 -0.06739858 -0.00993738
00000000: 8f1b 7abb 5585 ff3b f097 c5bd 9f9b 0f3d
00000010: b248 7cbd ff6a 883c 35e1 94bd 8604 22bd
00000020: f37b b53d 1b3a e6bc 5ce1 17bd 7e06 f3bc
00000030: 6367 3b3d 7900 d5bd 8f40 c53a a421 28bd
00000040: d4f2 713d 670c 24bd 90a3 23bd 4ddc 1b3d
00000050: 07ae c9bc e715 173d f7b7 89bd ca34 8fbd
00000060: da3c c4bd c1a7 9f3d bf8c 85bd 4cc8 5f3c
00000070: ad45 cabd 38aa a7bc 4408 8abd 65d0 22bc

encode_res_dense_blocks.2.conv1.conv.weight f4 [32, 32, 3]
-0.10328159 -0.0014104669 0.0009950281 -0.09426144 -0.07937318 -0.07323457 -0.05138636 -0.012659092
-0.08884632 0.04929208 0.043748178 0.09786137 -0.05728533 -0.03989309 0.049169265 0.07069513
-0.09794876 0.09640648 0.04079369 0.0045495643 -0.038583387 -0.08990451 -0.016145485 -0.09655064
0.07201628 0.018746745 -0.009410637 -0.040578753 -0.06535458 0.045193564 -4.5607427e-05 -0.09594692
0.0711745 -0.072098516 -0.09910567 0.07029671 -0.09887442 -0.019353239 0.067037225 -0.02165435
0.065807976 0.066329464 -0.05298428 0.1000796 0.008917502 -0.002219317 0.07799728 -0.053231686
0.026691938 -0.02779367 0.01710268 -0.067327015 -0.08608119 0.09993263 0.082458384 0.016366657
0.057898883 0.05935603 0.052787494 0.0074318107 0.09080417 0.034349453 0.021859935 -0.02773881
-0.017276516 -0.090797074 -0.10608755 -0.06186459 0.08390791 0.014414229 -0.055242322 -0.010957243
0.08165932 -0.0975392 -0.101972304 -0.012829343 0.042802725 0.063969746 -0.034489043 0.049448032
0.029844865 0.020189602 -0.05799256 -0.042398658 0.017646322 0.046558212 0.019624114 0.0031072062
-0.066422835 -0.07853031 0.06884458 0.060827024 0.059018943 -0.0550781 0.071734175 0.035621084
-0.02109468 0.050394636 -0.11010099 0.037623756 -0.09019256 0.047657028 -0.038474634 -0.06684243
-0.05397698 -0.07434132 -0.05653111 -0.027561637 -0.0070371307 0.09735534 0.09559419 -0.09683315
-0.06462763 -0.10136614 0.059765257 0.07548332 -0.04824949 -0.04745981 -0.008664877 0.008398328
-0.044552866 -0.09877847 0.100611985 0.06372373 0.02932271 -0.02763749 -0.07501751 0.09222345
-0.02518986 0.063935146 -0.030269422 -0.029701188 -0.066605024 -0.030855214 0.009972403 0.05089337
-0.026335832 -0.055105034 0.063401505 -0.062085893 0.011617187 0.06046349 0.08247538 0.030547295
0.0874932 0.09442187 -0.068519406 0.00047895385 -0.067122154 0.062076874 -0.04581022 -0.030554082
-0.05286287 -0.029068826 -0.08690834 0.036937382 0.009616217 0.0014044325 0.043238103 -0.039644107
0.09180127 -0.02614013 -0.108780175 -0.01024645 -0.03124826 -0.057874486 -0.013781992 -0.010610429
-0.081203476 -0.055337466 0.006697983 -0.013606889 -0.020927325 0.096818134 -0.08103112 0.05966318
-0.08967227 0.11108625 -0.0876076 -0.025382081 -0.019482 0.09729674 0.017108845 0.02237336
0.017962798 -0.023501337 0.068920255 0.098914176 -0.055282094 -0.08359927 -0.08812702 -0.06753435
0.016760789 0.03558924 -0.0034856764 -0.015201557 0.08272313 -0.005626118 0.029792061 0.024890497
-0.049449638 0.063003406 -0.03527805 -0.06119263 -0.08778684 0.06316406 0.0065481435 -0.032807387
-0.09607252 -0.030636836 0.0016856764 0.08414832 -0.029286414 0.056313604 -0.013896395 -0.10497489
-0.08170457 0.048850335 0.093032144 0.021215213 -0.02910958 0.017118016 -0.008329604 -0.00071937375
-0.08439932 -0.056747712 0.03701822 0.057001255 -0.07487613 0.06705334 -0.054627877 -0.06463803
0.09433916 0.09542326 0.009478664 0.070020996 -0.05829019 0.050518014 -0.008452293 0.09139775
-0.10080659 0.084181 0.020757014 -0.026389688 0.0035723986 0.051547434 0.028060105 0.08041349
0.094569206 0.085626855 -0.047792412 0.014119712 0.08633723 0.01113375 0.012583911 -0.08029614
00000000: 4c85 d3bd 6adf b8ba 9a6b 823a 240c c1bd
00000010: 688e a2bd 02fc 95bd 817a 52bd 1568 4fbc
00000020: 0ff5 b5bd 7ee6 493d 4a31 333d 8b6b c83d
00000030: 06a4 6abd f066 23bd b665 493d 9cc8 903d
00000040: 5c99 c8bd c370 c53d 4917 273d 8314 953b
00000050: 9d09 1ebd db1f b8bd 8943 84bc 58bc c5bd
00000060: 457d 933d c692 993c 132f 1abc e835 26bd
00000070: 9fd8 85bd e31c 393d 9a4a 3fb8 d27f c4bd
00000080: f0c3 913d 63a8 93bd eaf7 cabd b9f7 8f3d
00000090: ac7e cabd af8a 9ebc d04a 893d 7764 b1bc
000000a0: 55c6 863d bed7 873d 0b06 59bd 89f6 cc3d
000000b0: b71a 123c f671 11bb 0abd 9f3d 7809 5abd
000000c0: 0da9 da3c 8daf e3bc eb1a 8c3c bfe2 89bd
000000d0: 564b b0bd 7ba9 cc3d f1df a83d 5e13 863c
000000e0: 6127 6d3d 4f1f 733d b337 583d 8c86 f33b
000000f0: 89f7 b93d 03b2 0c3d 9b13 b33c 803c e3bc
00000100: 7b87 8dbc d1f3 b9bd 6e44 d9bd b965 7dbd
00000110: e9d7 ab3d a929 6c3c c645 62bd 0286 33bc
00000120: 003d a73d a2c2 c7bd dbd6 d0bd 2a32 52bc
00000130: e951 2f3d 9202 833d 6244 0dbd 058a 4a3d
00000140: 387d f43c aa64 a53c 9b89 6dbd 37aa 2dbd
00000150: 058f 903c d3b3 3e3d c0c2 a03c 45a2 4b3b
00000160: b208 88bd 80d4 a0bd 63fe 8c3d c225 793d
00000170: d9bd 713d 9399 61bd 5ee9 923d 6ae7 113d
00000180: c0ce acbc 9b6a 4e3d a17c e1bd 5e1b 1a3d
00000190: e0b6 b8bd 0434 433d 9497 1dbd afe4 88bd
000001a0: f716 5dbd 4340 98bd 2a8d 67bd f1c8 e1bc
000001b0: bb97 e6bb 3d62 c73d e3c6 c33d 7550 c6bd
000001c0: 7e5b 84bd 0d99 cfbd 6acc 743d 0097 9a3d
000001d0: 42a1 45bd 3865 42bd 21f7 0dbc 2499 093c
000001e0: 117d 36bd 5e4c cabd a80d ce3d 9681 823d
000001f0: 2e36 f03c 0468 e2bc c8a2 99bd a6df bc3d
00000200: f75a cebc 6ef0 823d 94f7 f7bc e84f f3bc
00000210: 3768 88bd 13c4 fcbc 4a63 233c 9175 503d
00000220: 3ebe d7bc d1b5 61bd a6d8 813d c74d 7ebd
00000230: 0456 3e3c 91a8 773d dae8 a83d 523e fa3c
00000240: a32f b33d 4160 c13d e753 8cbd 191c fb39
00000250: 5777 89bd 5244 7e3d 7fa3 3bbd 8e4c fabc
00000260: bd86 58bd bf21 eebc 00fd b1bd a74b 173d
00000270: 568d 1d3c ef14 b83a 701a 313d dc61 22bd
00000280: 4e02 bc3d d323 d6bc 24c8 debd bae0 27bc
00000290: 5afc ffbc cc0d 6dbd ddcd 61bc 5dd7 2dbc
000002a0: 024e a6bd 8aa9 62bd c17a db3b 6eef 5ebc
000002b0: c86f abbc 9648 c63d a5f3 a5bd 6161 743d
000002c0: 18a6 b7bd 3081 e33d 9d6b b3bd 15ee cfbc
000002d0: b798 9fbc 8343 c73d d927 8c3c 5648 b73c
000002e0: b826 933c e085 c0bc 1026 8d3d 8493 ca3d
000002f0: 7a6f 62bd 1836 abbd f07b b4bd 734f 8abd
00000300: ec4d 893c 06c6 113d f26f 64bb f40f 79bc
00000310: bf6a a93d 4c5b b8bb 7b0e f43c 28e7 cb3c
00000320: b48b 4abd ee07 813d b77f 10bd 20a5 7abd
00000330: 96c9 b3bd 295c 813d cf91 d63b 0a61 06bd
00000340: abc1 c4bd 1afa fabc eaf1 dc3a f455 ac3d
00000350: 10ea efbc 18a9 663d b5ad 63bc 13fd d6bd
00000360: ba54 a7bd 4a17 483d a387 be3d 87cb ad3c
00000370: 3777 eebc 153b 8c3c e478 08bc 5b94 3cba
00000380: 8dd9 acbd 4a70 68bd 6ba0 173d 267a 693d
00000390: a858 99bd 4353 893d 7bc1 5fbd f260 84bd
000003a0: e434 c13d 456d c33d 664c 1b3c 2b67 8f3d
000003b0: b2c1 6ebd faeb 4e3d 7d7b 0abc be2e bb3d
000003c0: af73 cebd 1767 ac3d 9d0a aa3c 302f d8bc
000003d0: e71e 6a3b 6723 533d 4ede e53c d4af a43d
000003e0: 80ad c13d 225d af3d fac1 43bd 5d56 673c
000003f0: 93d1 b03d 556a 363c c02c 4e3c 4d72 a4bd

encode_res_dense_blocks.2.conv1.conv.bias f4 [32]
0.053029895 -0.08289983 0.07347209 -0.045670476 -0.014063909 0.028566865 -0.017470216 0.026021156
0.0008027415 0.05880183 -0.040327106 -0.014645122 -0.014223443 0.035510384 -0.0971036 0.03975276
-0.028403828 0.04880052 -0.015961885 0.06850528 0.09075393 0.08099518 -0.025990335 -0.04511623
-0.09468126 0.04152546 0.095164604 -0.06704086 0.053796913 -0.0729679 0.017256055 -0.022673972
00000000: e035 593d 63c7 a9bd 8978 963d f710 3bbd
00000010: 4f6c 66bc 0f05 ea3c b31d 8fbc 522a d53c
00000020: 126f 523a 30da 703d 092e 25bd 18f2 6fbc
00000030: 7209 69bc 5673 113d 41de c6bd cad3 223d
00000040: 25af e8bc 0ee3 473d 80c2 82bc 7f4c 8c3d
00000050: 32dd b93d cde0 a53d afe9 d4bc cccb 38bd
00000060: 40e8 c1bd 9a16 2a3d a9e5 c23d b84c 89bd
00000070: 275a 5c3d 3270 95bd 925c 8d3c c4be b9bc

encode_res_dense_blocks.2.conv2.conv.weight f4 [32, 32, 3]
-0.041515913 0.09491365 0.070797 0.06114809 0.06470748 -0.021809604 0.065171346 -0.033262372
-0.056692477 0.03237162 0.011773221 -0.058580857 -0.048715077 -0.09869995 -0.08581241 -0.019802848
0.06457918 -0.05916118 -0.08211786 0.075542696 0.077223204 0.009806669 0.053961903 -0.10536541
-0.05098084 -0.041502435 0.0736159 0.01903535 -0.006835214 0.034013346 -0.021393469 0.003948043
-0.018116273 -0.088133655 0.050550167 -0.08165112 0.09288815 0.08060565 -0.033262823 0.023037758
-0.05910701 -0.07221268 -0.037151635 0.07491265 0.010658472 -0.035817415 -0.012802694 0.008526445
0.05206198 -0.09965321 -0.039914507 0.019755797 0.027181307 0.012504617 -0.08731333 -0.033952344
-0.07837712 0.013822208 0.040977046 -0.09415559 0.04402613 -0.09765273 0.040643014 0.0015435675
0.078938365 -0.06904476 -0.027224096 0.029254908 -0.09687215 -0.054164074 0.10140253 -0.040937997
-0.10682023 -0.080542356 -0.023442103 0.06607161 -0.06029559 -0.07243892 -0.038026396 0.032644056
-0.07596332 0.061548047 0.021011032 0.034350023 -0.080664635 0.03417208 0.09708086 0.032422733
0.07078539 0.08959922 -0.0846301 0.04231076 0.0888462 -0.048035208 0.038680222 0.035106886
-0.044331934 -0.0014871339 0.035761286 0.0310779 -0.05198494 0.07492228 0.0006258218 0.06898405
-0.06006815 0.08333757 -0.089354225 0.06436045 -0.046735123 -0.06482888 0.00434441 0.023370286
0.094873145 0.029238138 -0.030326871 -0.012882451 -0.08863255 -0.021116054 0.07920005 -0.032618932
-0.10314577 0.092693925 0.009049234 0.029151553 0.051443066 -0.011025893 -0.020192783 -0.017081471
0.0921549 -0.047128614 0.095001616 -0.095988534 -0.06324948 -0.007376712 -0.032475114 0.0069356575
0.078267895 0.064158745 -0.060227834 0.083788544 -0.02399617 -0.020434787 -0.05976998 -0.022214279
-0.04055695 0.04656843 0.07583811 -0.08598499 -0.07405851 0.0997709 -0.022545135 0.09832791
-0.07905962 0.00082845887 -0.07925324 -0.03816745 0.04709642 -0.09361716 -0.030613745 -0.009923689
-0.075915724 -0.022895865 -0.056619618 0.05134476 -0.050851088 -0.025885187 -0.07182841 -0.008450544
-0.08727517 0.074447654 0.056397013 -0.049740143 0.0005729799 0.011775997 -0.086798124 0.027467148
0.06560086 0.06448022 0.09480929 0.031262103 0.026696293 0.022964224 0.037092958 -0.07726233
0.09651211 0.07878945 -0.026607607 0.04926861 -0.013263672 -0.084430695 0.044527937 -0.06438591
-0.07839848 0.025614794 -0.086429425 -0.11287848 0.09333189 -0.056931097 0.056802865 0.047729768
-0.045925103 -0.071723916 -0.07413872 0.046134982 -0.014787255 0.04102972 0.03712996 0.025583932
0.06378606 0.042971026 -0.054280877 0.08006759 -0.100871906 -0.09713635 -0.0067552063 -0.06470061
-0.024743501 0.08867264 -0.04509122 0.022416126 -0.05072936 -0.0116741005 0.03568576 0.056617264
0.061488666 0.06525769 -0.03558696 0.03824297 0.021288456 0.061783753 -0.048279118 0.09658347
-0.08270696 -0.015159075 -0.015788393 0.0043047164 -0.05151489 0.0019977654 -0.053848576 -0.08279311
-0.069882445 0.077641785 0.0090984255 0.08839367 -0.020581633 0.008621173 -0.073296435 -0.09750113
0.037978522 0.03747435 0.051224843 -0.018577868 -0.074208714 -0.021113079 0.06580495 0.04565356
00000000: 970c 2abd 1662 c23d 04fe 903d 6b76 7a3d
00000010: 5b85 843d 0eaa b2bc 8e78 853d 203e 08bd
00000020: 5f36 68bd 1b98 043d 78e4 403c 7bf2 6fbd
00000030: 7689 47bd 3323 cabd 6bbe afbd 9539 a2bc
00000040: 1742 843d fe52 72bd 692d a8bd 21b6 9a3d
00000050: 3327 9e3d 27ac 203c 2807 5d3d d2c9 d7bd
00000060: 49d1 50bd 75fe 29bd efc3 963d 06f0 9b3c
00000070: eef9 dfbb 9451 0b3d 5b41 afbc 965e 813b
00000080: 9468 94bc 6b7f b4bd b10d 4f3d b438 a7bd
00000090: 243c be3d 9314 a53d 993e 08bd aeb9 bc3c
000000a0: 311a 72bd 3ee4 93bd 502c 18bd ce6b 993d
000000b0: dfa0 2e3c 48b5 12bd 64c2 51bc 81b2 0b3c
000000c0: f13e 553d fb16 ccbd 657d 23bd e9d6 a13c
000000d0: 55ab de3c 2ae0 4c3c 55d1 b2bd 9d11 0bbd
000000e0: 2f84 a0bd 8b76 623c 8cd7 273d a5d4 c0bd
000000f0: be54 343d 28fe c7bd 4a79 263d 8851 ca3a
00000100: 70aa a13d 5767 8dbd 1105 dfbc fda7 ef3c
00000110: e864 c6bd 26db 5dbd 21ac cf3d 9aae 27bd
00000120: 91c4 dabd 64f3 a4bd a709 c0bc 8d50 873d
00000130: 82f8 76bd db5a 94bd 91c1 1bbd c6b5 053d
00000140: a892 9bbd ce19 7c3d 541f ac3c 9cb2 0c3d
00000150: 8033 a5bd 06f8 0b3d 54d2 c63d b3cd 043d
00000160: eef7 903d cc7f b73d 8c52 adbd 0c4e 2d3d
00000170: fff4 b53d 91c0 44bd 276f 1e3d 3dcc 0f3d
00000180: 6795 35bd efeb c2ba 6d7a 123d 1597 fe3c
00000190: 29ee 54bd da70 993d 310e 243a 8247 8d3d
000001a0: 050a 76bd e3ac aa3d 59ff b6bd 69cf 833d
000001b0: 546d 3fbd 01c5 84bd 8d5b 8e3b 0b73 bf3c
000001c0: da4c c23d d284 ef3c 0f70 f8bc ea10 53bc
000001d0: fb84 b5bd 93fb acbc a333 a23d 6e9b 05bd
000001e0: 173e d3bd 50d6 bd3d 3d43 143c 3dcf ee3c
000001f0: f7b5 523d f2a5 34bc 566b a5bc 71ee 8bbc
00000200: b5bb bc3d ef09 41bd 3590 c23d a395 c4bd
00000210: f288 81bd 58b8 f1bb a004 05bd 8344 e33b
00000220: eb4a a03d a965 833d 76b1 76bd 5499 ab3d
00000230: 9e93 c4bc db66 a7bc 5ed1 74bd b8fa b5bc
00000240: 0b1f 26bd 8abe 3e3d 0351 9b3d e618 b0bd
00000250: fdab 97bd b054 cc3d 93b0 b8bc 2560 c93d
00000260: 03ea a1bd ef2c 593a 864f a2bd 7955 1cbd
00000270: 2de8 403d 5bba bfbd adc9 fabc f896 22bc
00000280: b479 9bbd 1c90 bbbc f9e9 67bd e24e 523d
00000290: 3b49 50bd 2c0d d4bc c61a 93bd 2774 0abc
000002a0: 53bd b2bd 0378 983d 8e00 673d 52bc 4bbd
000002b0: 0834 163a 1cf0 403c 37c3 b1bd c902 e13c
000002c0: be59 863d 350e 843d 5f2b c23d b10c 003d
000002d0: 2fb2 da3c 781f bc3c c9ee 173d b63b 9ebd
000002e0: 24a8 c53d 5d5c a13d 32f8 d9bc e2cd 493d
000002f0: df4f 59bc 00ea acbd ed62 363d c3dc 83bd
00000300: 628f a0bd 1ed6 d13c e901 b1bd d52c e7bd
00000310: ca24 bf3d 9530 69bd 1faa 683d 4a80 433d
00000320: f61b 3cbd fde3 92bd 0bd6 97bd 09f8 3c3d
00000330: 3e46 72bc c80e 283d 9615 183d 6595 d13c
00000340: 44a2 823d 6302 303d a055 5ebd 7afa a33d
00000350: ee95 cebd 6cef c6bd c75a ddbb c181 84bd
00000360: e2b2 cabc 009a b53d 92b1 38bd 06a2 b73c
00000370: 97c9 4fbd ba44 3fbc 3b2b 123d 81e7 673d
00000380: 8adb 7b3d d3a5 853d a2c3 11bd a9a4 1c3d
00000390: 2165 ae3c f610 7d3d 53c0 45bd 8ecd c53d
000003a0: 4462 a9bd c55d 78bc a956 81bc 940e 8d3b
000003b0: 4701 53bd f1ec 023b 5390 5cbd 6f8f a9bd
000003c0: 871e 8fbd a802 9f3d 9011 153c be07 b53d
000003d0: d09a a8bc d23f 0d3c 711c 96bd acae c7bd
000003e0: 5e8f 1b3d b47e 193d 24d1 513d 9d30 98bc
000003f0: bdfa 97bd 56f5 acbc bfc4 863d 3aff 3a3d

encode_res_dense_blocks.2.conv2.conv.bias f4 [32]
0.060819183 -0.0018545042 -0.079976946 0.0023238338 0.08651571 -0.09644278 0.099027686 0.03597873
0.007967517 0.07703223 0.10198016 0.058188118 0.0058355276 0.0020798454 0.023137456 0.022956198
-0.08530736 0.024938105 0.010093959 0.009070423 0.015923493 0.012148397 0.018949242 0.06330547
0.030731026 0.096160635 0.047828604 0.003878308 0.03607735 -0.0778217 0.076790765 -0.03206306
00000000: 891d 793d d612 f3ba f4ca a3bd 764b 183b
00000010: 262f b13d cb83 c5bd 07cf ca3d 6f5e 133d
00000020: 308a 023c 13c3 9d3d f9da d03d aa56 6e3d
00000030: f437 bf3b 044e 083b c38a bd3c a30e bc3c
00000040: a0b5 aebd ff4a cc3c 2261 253c 1d9c 143c
00000050: fc71 823c 120a 473c 713b 9b3c 4ca6 813d
00000060: a2bf fb3c deef c43d ede7 433d 362b 7e3b
00000070: d8c5 133d fc60 9fbd 7a44 9d3d 8e54 03bd
