model/test.pth (torch, 229585 bytes, 50 tensors)

encode_conv_input.conv.weight f4 [32, 1, 3]
00000000: 0c0c 07be 66f6 2a3e aaf0 f8be 6337 bd3e
00000010: 73c5 bf3d 494c 00bf 3a23 d53e b4b0 323e
00000020: e81b 663d 2c5a a83e 4777 dabe 41f9 bbbe
00000030: ff05 bf3e 92f7 5a3d 35dc 62bd 346f 50be
00000040: caef 193d 9c19 b8be 166c fbbb 23ce 973e
00000050: bc8d 6f3e 31ed ca3e f5de ddbe 9ab1 3abe
00000060: 03e4 e23c 3d0a e1be 26dc 1bbe 6a90 6f3e
00000070: 489b 01be 86f8 e3bd b88f 043f 71b7 883e
00000080: ee32 023f 50c4 373d 13d4 cb3d a717 8dbe
00000090: e091 73bc 5fda f73e 337f c03e e99a b53e
000000a0: dffd 43be e533 ac3e dd5c e5be 0037 0fbf
000000b0: 1fe6 98be 0c4c 073f acd5 1fba c70b a13d
000000c0: d7e7 ee3e ff1f 86be 76ac 1e3e 967c 883e
000000d0: 1270 123f 2637 10be f671 5cbe 67b2 073f
000000e0: b647 3d3e 5959 aa3e ac74 e3bc cfba d9be
000000f0: 3036 3abe bff4 163e ee85 d5bd 72b0 e6bd
00000100: 7274 933e ed00 8c3d bc8c dcbe a2f0 053f
00000110: aeda b03e dc78 d8be f6db b6be 48ee ad3d
00000120: 0b3c 1bbe beb0 053f 9438 c23e 3334 b03e
00000130: 62a7 10bf 68e5 143d be13 f83c c03e 3bbe
00000140: 2fa5 983d 5dee b1bd 5261 95be 1fa9 d7be
00000150: 3e62 04bf 1fae 873d e997 4b3e da58 bf3e
00000160: e382 efbe 26ea 403d dabe d13d fa9f d7bd
00000170: e531 9bbe 608e d03e 4614 9ebe f29a b03e
-0.1318819 0.16695556 -0.48621112 0.3695632 0.09363832 -0.501164 0.41628438 0.1745022
0.056178957 0.32881296 -0.42669126 -0.36713603 0.37309262 0.053458758 -0.055385787 -0.2035492
0.037582196 -0.35957038 -0.007672797 0.29649457 0.23393911 0.39634088 -0.43334165 -0.18231812
0.027696615 -0.43953124 -0.15220699 0.23394933 -0.12656891 -0.111313865 0.517818 0.26702455
0.5085896 0.044864953 0.09952559 -0.27557108 -0.014866322 0.4840879 0.37597045 0.3546975
-0.19139813 0.33633342 -0.44797412 -0.559433 -0.29863068 0.52850413 -0.0006097208 0.078635745
0.46661255 -0.26196286 0.15495476 0.26657552 0.57202256 -0.14083537 -0.21527848 0.53006595
0.18484387 0.33271292 -0.027765594 -0.42525336 -0.18184733 0.147418 -0.10425936 -0.11264123
0.28799778 0.06836114 -0.43076122 0.523203 0.3454184 -0.42279708 -0.35714692 0.08492714
-0.15159623 0.5222281 0.3793379 0.34414825 -0.56505406 0.03635159 0.030282851 -0.18285656
0.07453381 -0.08688042 -0.29175812 -0.42121217 -0.51712406 0.06625008 0.19882168 0.37372476
-0.46779546 0.0470983 0.1024148 -0.1052856 -0.30311504 0.40733624 -0.30874842 0.34493214

encode_conv_input.conv.bias f4 [32]
00000000: 0f3d 5ebe 5af7 433e 7d08 d2be 4188 d33e
00000010: 54e6 d4be fa17 993d d883 ac3e 023f 0dbf
00000020: bb3a 103f e712 de3e 5a0b fbbd 39a8 71ba
00000030: b1c6 92bb 16f4 7fbe 4398 9cbc 7e69 33be
00000040: 5d98 a1be 6b0b b3be 2fa8 a93d 7440 7d3e
00000050: f8fb 863e 5db8 7ebd 1b0c 0f3f 8660 8dbd
00000060: ee00 d03e f45c 7e3e db73 8ebe 9833 883d
00000070: fc32 b23e ce51 ad3d 19cd 02be 4d33 0e3f
-0.2170298 0.19137326 -0.410221 0.4131489 -0.41581976 0.07475276 0.3369434 -0.5517427
0.56339616 0.43373796 -0.122580245 -0.00092184875 -0.0044792523 -0.24995455 -0.019115573 -0.17520711
-0.31561556 -0.3496965 0.082840316 0.24731618 0.26364112 -0.06218754 0.55877846 -0.06903176
0.4062571 0.24840146 -0.27822766 0.06650466 0.34804523 0.08462869 -0.12773551 0.5554703

encode_res_dense_blocks.0.conv1.conv.weight f4 [32, 32, 3]
00000000: 9202 b93d cc06 d4bd 6831 503d a5c4 613d
00000010: 561f 43bd 85b1 c53c d673 2cbd ff43 9b3d
00000020: a444 6d3c fd2c b4bd b483 a33d d9da babd
00000030: 420c cbbb b93a a53d 55b4 9b3d 221c 94bb
00000040: cc8b c13d e6e2 493d d548 c33d a4f7 fe3c
00000050: 4b41 9c3d 4e0c 0dbc eb22 963b 91ab b53c
00000060: 5326 99bc 7787 9b3d 7272 8c38 b6d9 9e3d
00000070: a8a2 7bbd 94e8 b8bd fc97 913c 6b14 8ebd
00000080: e713 9c3d bc92 83bd cbe9 6dbc 2195 9ebd
00000090: 7cd6 ee3b 6ab5 a83d 13c4 56bd df7e b2bd
000000a0: 5c91 023d 38ee 07bd 1aed fbbb dee4 ba3d
000000b0: 81f7 803d fae5 d2bd 5397 a3bd 472f acbd
000000c0: 61b1 9b3b 5481 39bd e5b4 7fbd e5c4 c2bc
000000d0: 1d71 8f3d 484c af3d 0a4a 943d 85d0 bf3c
000000e0: 5cb2 ba3c c3d8 ebbc a720 72bd a378 373d
000000f0: 7892 bbbd 4541 c73d 0522 903d 5624 dc3c
00000100: 9600 26bc 476f 66bd 320a 003d c869 db3c
00000110: b36f 673d 5840 ae3d 30cb 533d 5585 aabd
00000120: 6531 72bd 41dc b33d 5f24 b2bd 1a51 b4bd
00000130: 9292 963d 1293 3abc b9e6 bdbd b37e 9bbd
00000140: 5782 903d 4ddb 903c 6a91 91bc b254 dd3c
00000150: 8534 b4bd 5498 bbbd b68c d53c 540b ad3d
00000160: be20 2b3c 27fa 923d 38e8 eaba 16a0 cc3c
00000170: a961 cfbb 0132 b23d d14f 9a3d da68 5fbd
00000180: c35f a8bd 9fff 1c3c 1009 2f3d 0e5a 1bbc
00000190: d6ce a93d 9948 74bd bca0 05bd 0c1e 943b
000001a0: 76f0 71bc 5721 71bd 06e3 9c3d b3e0 973d
000001b0: 123a 2e3d 9ad8 8e3d 3ad9 003d b1a8 fa3c
000001c0: 350d 863d 6435 bd3d d122 96bd 00f1 453d
000001d0: 25f4 84bd d375 03bc 907e 8bbd 1688 cdbd
000001e0: 1477 ca3d 09c4 0a3d 70f1 ae3d faa6 14bd
000001f0: 0410 143d e464 803d bc23 afbd 756f 9cbc
00000200: 216b b2bd 8556 a63d c025 c4bd c9e2 0e3c
00000210: 951a 0cbb 07a4 aabd 453c 943d b334 bb3d
00000220: 04c7 cebd 2525 ca3d 3245 f5bc ba5e 95bd
00000230: 7d58 b33d af83 983c 63f7 a0bc 0398 9c3b
00000240: eabf d33c 9aa0 813d 246a 56bd 8123 893d
00000250: b7e4 073b 54b6 123d 1f60 c53d f592 79bc
00000260: 032c ac3d e521 d33d ccc0 403c 9825 8f3d
00000270: 85f2 10bd addd 8abd 4f74 c7bd f057 a8bd
00000280: d21e 023d 5810 0fbd db6f d2bc 89d9 febc
00000290: 1439 f23c d1d9 5bbd ce50 29bc d785 26bd
000002a0: f975 44bc 6bbe b73d 4a00 8b3d 494a 1e3d
000002b0: 622e ddbc 2830 6b3c aa76 933d d3a8 0b3d
000002c0: 8daf 73bc 618c 663b cb0e a6bd af86 c03d
000002d0: 9482 5a3a 439f 75bd d108 1c3d 3e26 233d
000002e0: 8ce1 e13b d114 f2bc 6598 a0bd 60b9 d9bc
000002f0: ff1c 3b3d 6a53 a1bd 759e b2bd 280e d5bc
00000300: 5d98 7c3d 8dce c7bd fe95 bfbd d39c 013d
00000310: 9095 78bd f791 a4bc 9fb7 2f3d 166d c2bd
00000320: 51c3 a73d 67d8 943d 6bbb b63d 8b97 883d
00000330: 9234 bd3d e93e 793d a5f4 35bd 993a b0bd
00000340: a931 eabb cc30 843c 935a f1bc 9815 9d3d
00000350: 3a9a 85bc 76fa 9d3c 9ced 383b 1155 c3bd
00000360: 3374 39bd cde8 b33d dcb6 8abb 98ec ac3d
00000370: 427b ac3d ef04 90bd b535 8cbc e698 acbd
00000380: 098f 94bd 0815 a43d 81d4 b6bd e9b4 bc3d
00000390: 2e3f 103d 46ff 52bd 56be a8bc f698 a8bd
000003a0: f020 77bc ec5c b13d 4f45 2bbd 2359 aabd
000003b0: 48aa 71bd ef6c 8a3d e675 15bd c3f8 25bd
000003c0: e939 22bd ab54 51bd d1d3 97bd 530f 7d3d
000003d0: 96d0 633d 6a48 7ebd fcec ddbc c888 a7bd
000003e0: ebf1 563d 4926 ddbc 3307 9abd cc1c ea3c
000003f0: 417a 993d 1b54 3d3b 702d 8c3d 3a69 9d3d
0.090336934 -0.10352859 0.050828367 0.055119175 -0.047637306 0.0241325 -0.042102657 0.075813286
0.014481697 -0.08797643 0.07984105 -0.09123773 -0.0061965296 0.08067841 0.07602755 -0.0045199553
0.09450492 0.049288653 0.09535376 0.031123944 0.07629641 -0.008608891 0.0045817993 0.022176536
-0.018695032 0.07594197 6.697037e-05 0.07756369 -0.061434418 -0.09028736 0.017772667 -0.06937488
0.076209836 -0.06424472 -0.014521073 -0.07743288 0.007288752 0.08237727 -0.052433085 -0.08715605
0.031876907 -0.033186167 -0.007688177 0.09125684 0.062972076 -0.10297771 -0.07987847 -0.08407455
0.00475137 -0.045289353 -0.062428374 -0.023775527 0.070039965 0.08559471 0.07240684 0.02341486
0.022790127 -0.028789883 -0.05911317 0.044792783 -0.09158796 0.09729246 0.07037739 0.026872795
-0.010131976 -0.056258466 0.031259723 0.026783839 0.05650301 0.08508366 0.051707447 -0.08326212
-0.059129138 0.087822445 -0.086983435 -0.088045314 0.07352175 -0.011387603 -0.092725225 -0.07592525
0.0705611 0.017682696 -0.017769534 0.027017925 -0.0879908 -0.09159914 0.026068073 0.08449426
0.010444818 0.07176619 -0.001792199 0.024978679 -0.0063287807 0.08700944 0.07534755 -0.054543354
-0.0822139 0.009582429 0.042733252 -0.00948192 0.08291404 -0.059639547 -0.03262399 0.0045201834
-0.014766803 -0.058869686 0.07660489 0.07415905 0.04253585 0.06974907 0.031457163 0.030598016
0.06545488 0.09238699 -0.073308595 0.04832554 -0.064918794 -0.008023697 -0.06811249 -0.10035722
0.098859936 0.03387836 0.08542144 -0.036292054 0.036148086 0.06269243 -0.08551738 -0.019096116
-0.087118395 0.08121971 -0.09577513 0.008721062 -0.0021378149 -0.08332067 0.07238058 0.09140911
-0.10096553 0.09870366 -0.029940221 -0.07293458 0.08757112 0.01861748 -0.019649213 0.0047788634
0.025848348 0.063294604 -0.052347317 0.06696225 0.002073569 0.035818413 0.09637474 -0.015232791
0.08406832 0.10309199 0.011764716 0.06989592 -0.035387535 -0.067805625 -0.09738981 -0.08219898
0.031767674 -0.034927696 -0.025688102 -0.031109588 0.029568233 -0.053674523 -0.010334207 -0.040654983
-0.0119910175 0.08971866 0.067871645 0.038645063 -0.026999656 0.014354743 0.07200368 0.03409655
-0.014873398 0.0035178887 -0.0810829 0.09400689 0.00083354977 -0.059966337 0.038094345 0.039831392
0.0068933424 -0.029550942 -0.07841567 -0.026577652 0.04568195 -0.07877238 -0.087216295 -0.026007727
0.061668742 -0.09756193 -0.093547806 0.0316437 -0.06068951 -0.020089133 0.042899724 -0.09493463
0.081915505 0.07267838 0.08922466 0.066695295 0.092385426 0.06085101 -0.044422764 -0.086049266
-0.0071470332 0.01613655 -0.029462134 0.07670134 -0.016308893 0.019284468 0.0028217798 -0.095377095
-0.04527683 0.087846376 -0.0042332243 0.08443564 0.08421947 -0.07032191 -0.017115453 -0.084276006
-0.07253844 0.08011824 -0.08927251 0.092141934 0.035216503 -0.05151298 -0.020598572 -0.082323
-0.0150835365 0.086603016 -0.041814145 -0.08317783 -0.059000283 0.06759059 -0.03648939 -0.04052044
-0.03960601 -0.051106136 -0.07413448 0.061782192 0.055618845 -0.06208078 -0.027090542 -0.08180386
0.052476805 -0.026995795 -0.075209044 0.028578185 0.07494021 0.0028889242 0.06844604 0.07686086

encode_res_dense_blocks.0.conv1.conv.bias f4 [32]
00000000: 687a 273c fa03 65bd ee67 c33d 95b0 d53d
00000010: e129 32bd 4f2e 8c3d e393 ac3d 366a abbd
00000020: 816c b13d e998 e2bc ef3d 713d 7984 5cbd
00000030: 8184 d6bd dd18 48bd b726 6cbd 039b 83bd
00000040: 8133 0d3d 6ea3 aabd ad42 683c 630c 92bc
00000050: 21dc 8b3b 704f 763d 495a 82bd 801e d6bb
00000060: e252 ddbb 6623 9c3d 825e b2bd 73b6 afbc
00000070: e6f1 88bc 52cf b53d d775 1e3d 97f5 99bd
0.010222055 -0.055911995 0.095413074 0.10434071 -0.04349697 0.0684477 0.08426645 -0.083698675
0.086632736 -0.027660804 0.058896955 -0.053837273 -0.10474492 -0.048851836 -0.05765411 -0.064260505
0.034472946 -0.08331953 0.014176053 -0.017828172 0.004268185 0.06013435 -0.06364877 -0.0065343976
-0.006754265 0.07623939 -0.08709432 -0.021449303 -0.016716909 0.08877434 0.0386866 -0.07517546

encode_res_dense_blocks.0.conv2.conv.weight f4 [32, 32, 3]
00000000: cf10 493d 183e 9b3d ddf4 9dbd b0da b53d
00000010: 4edf 00bc 44fb 903d 8931 15bd 41cc 963c
00000020: e6ea bbbd a403 cbbd 220b 963d 5f5b 743d
00000030: 3489 acbd 93c0 8b3d 33c4 a83c b1ff ac3d
00000040: 16fb 81bb 0ba9 aabd 11de ae3d 3880 14bc
00000050: cc0a c1bd 1446 73bd 3640 ddbc c629 b3bc
00000060: cdbe 043b 11a9 47bc 1d72 28bd 5ede d0bc
00000070: ab4c 9b3d 2dda 6bbd beb2 7c3d f5bb 123d
00000080: c789 413d d584 963d 1512 123d 757e b7bd
00000090: 48f3 fa3a cd69 48bd 4ee9 463b 68db 13bc
000000a0: 496a c1bd 4368 c2bd 4696 0bbd 5f15 a7bc
000000b0: 194e 423d 1f62 af3c 6412 233d 4e10 a53d
000000c0: f7f7 42bd 7bab 883c d2e0 ec3c efd1 4fbd
000000d0: 40aa 01bc 36b0 863d 8a3b 4cbd 7cb6 60bd
000000e0: 0a59 3fbd b053 7ebd e4f1 263c e0e8 34bd
000000f0: 5a8c 9bbd 774f f43c 426a 883d b2d6 993d
00000100: 3abc 673c 7458 9d3c ab53 953d 1efa 5cbd
00000110: e964 423d fc08 ba3b 16be c23d 7d9c a4bc
00000120: 953f 74bd 4f31 46bd 45a4 1cbd 1f5d e2bb
00000130: 8bd3 903d f76b 71bd d0cb 963d 6956 d0bc
00000140: e5e7 b8bd 67e7 9d3d 7523 c03d db03 703d
00000150: 29cf d7bc ef8c b23d 7bc5 27bd 9f2c a5bd
00000160: d9ba e43c 0aab 653d 9200 9b3d 50fd 2cbd
00000170: 9ddd 00bd d04b 443d 86e2 5bbc 4b93 0dbc
00000180: b73e 553d ebeb 8a3d bd4c 99bd 6057 0d3d
00000190: 2830 9a3d 5f53 b0bd b789 923d 9d3d 7a3d
000001a0: fd1f 9dbc 029e b23b 328c 683c 2089 b9bd
000001b0: d278 4dbd e084 923d 5e8f 553d 974c a03b
000001c0: da78 0ebd d932 31bc d535 7e3d 8881 883c
000001d0: ed4f a2bd 51e1 3fbd fc5f d13c 82dc 88bc
000001e0: c96c 433d 083b 65bd f9fd 243c 5471 833d
000001f0: f64c 96bd 9f9e 223d a991 d5bc 5aaf a9bd
00000200: a62b 433d d9d6 a0bd 6c81 c83d 2c5f 423d
00000210: 8503 b6bd 2daa 53bd c9cc 543c e232 bd3d
00000220: 46c9 d0ba a5af 7e3c d418 b7bc e0a2 93bd
00000230: 03c5 bebd c530 1dbb 91f5 443c 9057 55bd
00000240: 2334 78bd 9663 803d f6fc 4abc 74f1 553c
00000250: e1cc 9dbd 35cb bdbc aa72 9f3d 69a8 08bd
00000260: 650f 23bd d97c a8bc c9e6 c7bd 06ea 803d
00000270: 6613 a8bd a02f 91bc 94b6 de3c e27d 033d
00000280: b727 973d ff43 29bd ce94 a3bd b23e 65bd
00000290: 9a01 ea3b a1d3 893d 6be5 593d e1d5 8fbc
000002a0: 6ddc cfbb 08df 4bbd 2a76 f9bc 431a c63d
000002b0: 899e b13a c376 2bbd 9cbd 813d e30b ab3d
000002c0: 1326 07bd 8751 39bc e9e1 9fbd d407 f0bc
000002d0: 21ce 25bd ff20 afbd 948a 98bc 33fc 14bc
000002e0: 9b46 643d a2b2 bbbd b8ec 563d bf20 30bd
000002f0: f750 353c 369e e6bb 51df 123d 8d36 bf3d
00000300: 2955 fc3c 2a1e c2bd 88ca 9bbd 9698 5fbd
00000310: 4048 003d 5682 513d 04f8 593d 8fe3 823d
00000320: a467 2abc 6306 a0bd ec9f 353d 3fd1 8abd
00000330: 53eb 8ebd ed8a c13d e774 c33d e695 923c
00000340: feb7 cfbd 4ecc ff3c e923 863d 42e5 ec3d
00000350: c676 2ebd b412 7abd ceda 53bc 6812 a43d
00000360: 997e a23d a47c 83bd 88d2 b43d e7d4 8fbd
00000370: 418d 61bc 7376 91bd ee6f 303c 8bdd 5a3d
00000380: 4836 9ebd d127 8d3d 58a9 21bd 64a8 6e3d
00000390: eed1 8dbd 2fb4 92bd c51e c23c 7320 863b
000003a0: f8d2 783c 02fb c9bd 6a85 003d b6e6 9c3d
000003b0: 1e96 03bc faef ed3c fae4 72bd 6e00 d13d
000003c0: f2d3 85bc 7bde 673c 5a26 bbbd 00a0 b3bc
000003d0: 9ef2 40bd ca21 b53b 0414 d73d 684a 403d
000003e0: 2f73 eabc b400 51bb 9ddc a4bc 8e8c b9bd
000003f0: fe8c 5cbd 0446 4ebb a8fb 38bd 79fe bdbd
0.049088296 0.07580203 -0.077127196 0.08879602 -0.00786574 0.07079175 -0.036424194 0.018407943
-0.09175663 -0.09912804 0.07326342 0.05965745 -0.08424607 0.0682384 0.020601368 0.08447207
-0.0039666994 -0.08333024 0.085384496 -0.009063773 -0.094258875 -0.059393004 -0.027008157 -0.021870505
0.0020255328 -0.012186305 -0.041124452 -0.025496658 0.07582983 -0.057581116 0.0616939 0.03582378
0.047250535 0.073495544 0.035661776 -0.08959667 0.001914599 -0.048929024 0.0030351463 -0.0090244785
-0.094441004 -0.094925426 -0.03407886 -0.020395933 0.04743776 0.021409092 0.03981246 0.080597505
-0.04759976 0.01668333 0.028915796 -0.050737318 -0.007914126 0.06576578 -0.04986147 -0.05486153
-0.046715774 -0.06209153 0.010189507 -0.0441674 -0.07595129 0.029823048 0.06660892 0.07511653
0.014143998 0.019207217 0.07291349 -0.053949468 0.047459517 0.0056773406 0.09508912 -0.02009415
-0.05963095 -0.048386868 -0.038242597 -0.0069080736 0.070715986 -0.058940854 0.07363093 -0.025431829
-0.09028605 0.07710152 0.09381763 0.058597427 -0.026343899 0.08718287 -0.040959816 -0.080651514
0.027921127 0.05607132 0.07568468 -0.042233765 -0.031461347 0.047923863 -0.013420707 -0.008641074
0.052061763 0.06783279 -0.0748534 0.034507155 0.07528716 -0.08609652 0.07155173 0.061093915
-0.019180292 0.005450965 0.014193581 -0.09059358 -0.05016405 0.0715425 0.05213868 0.0048919427
-0.03478322 -0.010815346 0.062063057 0.016663328 -0.07925401 -0.046845738 0.025558464 -0.016706709
0.047711167 -0.0559645 0.010070317 0.064181 -0.07338898 0.039702054 -0.026070433 -0.08285399
0.04764905 -0.07853479 0.0979031 0.047454044 -0.0888739 -0.051675964 0.012988278 0.09238221
-0.0015929125 0.015544807 -0.022350706 -0.072088 -0.09314921 -0.0023985368 0.012021438 -0.05208546
-0.060596596 0.062689945 -0.012389412 0.013058055 -0.07705093 -0.023168186 0.07785542 -0.033363733
-0.039809603 -0.020567345 -0.09760816 0.062946364 -0.08206825 -0.017722905 0.02718667 0.032102473
0.07380622 -0.04132461 -0.079873666 -0.055967994 0.007141304 0.06729818 0.053197306 -0.01755804
-0.0063434155 -0.049773246 -0.030451853 0.09672978 0.0013551275 -0.041861307 0.06334993 0.083518766
-0.032995295 -0.011310942 -0.07806761 -0.029300608 -0.040479783 -0.085512154 -0.018620767 -0.009093332
0.055731397 -0.09164931 0.052471846 -0.04299998 0.011066667 -0.007037903 0.035857502 0.093365766
0.030802326 -0.094784096 -0.07606989 -0.054588877 0.031318903 0.05114969 0.05321504 0.063910596
-0.010400686 -0.07813718 0.044341967 -0.06778192 -0.06978478 0.09450326 0.09543782 0.017893743
-0.101425156 0.03122535 0.06549818 0.11567165 -0.04259374 -0.061052993 -0.012930585 0.08011323
0.07934303 -0.06420258 0.08829218 -0.0702303 -0.013766588 -0.071026705 0.010768874 0.053433936
-0.07725197 0.0689236 -0.03946814 0.05826606 -0.069248065 -0.071632735 0.023696313 0.0040932237
0.015187018 -0.09862329 0.031377234 0.07661192 -0.008031396 0.029045094 -0.0593004 0.1020516
-0.016336415 0.014152165 -0.09138174 -0.02192688 -0.047106378 0.0055277096 0.105018646 0.04694596
-0.028619377 -0.0031891288 -0.020124728 -0.09060012 -0.053845398 -0.0031474838 -0.045161873 -0.092770524

encode_res_dense_blocks.0.conv2.conv.bias f4 [32]
00000000: 89fc a73d bb5f c73c a07e 36bd 40ca dcbd
00000010: 27f5 b03d e783 afbd dadc 41bd d2bb af3d
00000020: 43ff cfbd 63f9 49bd 68d8 173d 9674 0abd
00000030: b7a6 763d 1b88 67bd d7c6 4f3d 21ff 853d
00000040: 4f5a 183d ec27 963c 012e 993d 6ec4 8fbd
00000050: 4a32 6fbd c084 1cbd 6f07 8dbd ebd7 85bd
00000060: 03a2 05bd d2ec acbd b5c6 d53c f6b3 3b3d
00000070: f289 1a3c c6f2 a7bd 7926 dabc 1846 9d3d
0.08202464 0.02433764 -0.044554353 -0.107807636 0.08640509 -0.0857008 -0.04732976 0.08580746
-0.10156109 -0.0493101 0.037071615 -0.03380259 0.060217585 -0.056526285 0.050726738 0.065428026
0.0371955 0.018329583 0.07479478 -0.07019888 -0.05839757 -0.038212538 -0.068861835 -0.06535324
-0.03262521 -0.084436074 0.026095727 0.04582592 0.009432303 -0.08200602 -0.026629673 0.07679385

encode_res_dense_blocks.1.conv1.conv.weight f4 [32, 32, 3]
00000000: f3e3 83bd 44e9 a8bd f9d9 edbc a46f 0abd
00000010: f692 a03d a5ab e93b 7f25 04bd 9ae7 a0bd
00000020: 7a71 a7bd 1157 f53c 83b1 a2bc bfdc ba3d
00000030: c5ae 85bd 82e5 743d 4a86 71bb 597e 7a3d
00000040: 00f8 b13d 0ac7 783d 78e7 803d e1ef 29bc
00000050: 37e1 8cbc efce c63d 3b31 233d 26bc 52bc
00000060: 720a c9bd 4fdb c0bb d8c3 a5bd 1c30 2bbc
00000070: a5d4 b13d 4930 ba3d 5890 5b3d 0b55 bb3c
00000080: 1282 82bd 178b e5bc a3fc b23d 59f6 9abd
00000090: 441f 293d d3fe ba3d 0583 843d 04a4 823c
000000a0: 77f7 ad3d 063c 31bd e699 ff3c 56de 9a3d
000000b0: f5a3 9e3c 7ef1 493a 8d92 b93c 95f4 a2bd
000000c0: 5b73 7ebd d54a 7cbd 7deb 87bc a6fa 5dbd
000000d0: e663 41bc 2693 d3bd 0a41 7ebc 1c0f 12bd
000000e0: 8296 9c3b 1bb7 b43d 9094 1dbd 1629 093d
000000f0: eaca 93bd d8dd 983d 2744 8fbd 72fd 0d3c
00000100: 7df7 c6bd 63a0 963d b72c 473d 5cc8 cbbb
00000110: dd0f c73d 9ec9 c5bd dc3b 6f3d 3661 773d
00000120: e136 5d3d 9f42 6dbd 0dcd 43bc eb2d 8fbd
00000130: 85b7 c13d c49b 4d3d fc51 34bd a01f 88bd
00000140: cb3c 503d 7d5a 3dbd 4961 2f3d 7912 6cbd
00000150: 29ca f83c 6e1e 3a3b 3d17 593d 082c 13bd
00000160: 8803 633d 1352 9abd 053e 8cbd 245c 0bbd
00000170: d60b bebd 40f4 8c3d 61de 24bd a06e 8d3d
00000180: 90ec 343c 75c0 9b3d a247 b73d 4e63 a03d
00000190: a060 d2bd a618 b5bc 25cb a73d c2c4 afba
000001a0: cde8 113d 5766 cdbc bb4d 4b3b 8fbf 8abd
000001b0: 18d7 5cbd 7468 673d 4373 17bd dfea 8c3c
000001c0: 8277 cf3d ec0b f6ba 6918 82bd a8d1 a93d
000001d0: 287f a13b 4f10 e9bc 702d a43d 3b32 593d
000001e0: 702d 303d 1baa 1abd f282 52bc 5482 643d
000001f0: d0e2 5dbc 93a6 d63c 9f1f 1b3c fafc 3bbd
00000200: 687d 0bbd 79f4 0dbd 03d5 dcbd 53ba 8fbb
00000210: 3c0c 2939 f953 65bd 0e1f 90bd 89bb 4d3d
00000220: 4903 9dbd 8110 ab3d 9cd1 5abb ed33 6c3d
00000230: 930d 543c 4f1c b43d 146e 1f3d 217c 913d
00000240: 75f7 13bc 4d20 b83d d060 babd a95f 96bd
00000250: bebf cc3c 90b3 13bd b3e9 8ebd f679 a2bd
00000260: 02a4 1ebc ad50 333d c2a2 ffbb 4793 3dbd
00000270: 9b96 10bd e900 a83d a131 b43d a1db 463d
00000280: e70a c83d eaa6 7cbd f223 b6bd b52b 28bb
00000290: cbf5 2ab9 bc8b 8fbd 6bf9 0d3c 02d8 a3bd
000002a0: 1440 0dbc cdb4 c33c bbc9 6fbd af7c 9cbd
000002b0: 2df9 69bd f369 4ebc a6cb 873c 7aaf 763c
000002c0: a3dc 7fbd 6c1d 92bd bdff 343d 3ce0 3ebd
000002d0: ceed 58bd b430 86bc daf4 933d 362b 4c3c
000002e0: 7b06 2f3d 9159 563d cb64 0e3d b7cb 2bbd
000002f0: afe6 683d e7f3 6fbd b076 943d ce4a 34bc
00000300: dc16 4cbd 3ff1 843d f101 083d 6654 82bd
00000310: 878d dc3d 7d98 993d 2707 b13c 37d1 6ebc
00000320: 7b4f 9a3d 62e6 8bbc 940c 8cbc 68d6 0e3c
00000330: 7db8 913d 62a8 84bc a9db c0bb 59c7 ef3c
00000340: 8618 a23a 38bd 203d 6c14 d2bb 896d 7c3c
00000350: 9435 633d 7133 24bd c359 5d3d 97d5 ac3d
00000360: 2608 d23b 15f1 bbbd 2010 bf3d 8f3d 853d
00000370: 8658 b53d b733 c3bd 44b9 d23d af21 843d
00000380: 5534 bebd 9ce4 7dbd 34fb ab3d c828 abbd
00000390: dacc bcbd 8b60 04bd 0d0b fabd a565 813d
000003a0: 13b9 44bb 2c01 303d 40b1 80bd 8cc9 92bd
000003b0: f0df 53bd 49b5 1a3d d581 8abd d0d5 c33d
000003c0: c96d 963c 4365 893c 0a64 9b3d 0c2b 21bc
000003d0: 6247 6dbd bcaa 2dbc 4b1a 893c 47f4 89bd
000003e0: c41f b4bd 5510 733c 49f9 d63d 4121 8abd
000003f0: 9f75 963d ad35 cd3b 5e01 ae3d ecf6 a73d
-0.06439962 -0.08247617 -0.029034602 -0.033797875 0.078405306 0.0071310573 -0.03226232 -0.078566745
-0.08175941 0.029948743 -0.019860035 0.09124135 -0.06527475 0.05978919 -0.0036853724 0.06115565
0.0868988 0.060736693 0.06294149 -0.010372133 -0.017197235 0.09707438 0.03984187 -0.012862241
-0.098164454 -0.0058855186 -0.08093995 -0.010448482 0.08683137 0.09091241 0.053604454 0.0228677
-0.06372465 -0.028020425 0.08739593 -0.07566518 0.041289583 0.09130635 0.064703025 0.01594735
0.08494466 -0.043270133 0.031201314 0.075619385 0.01936529 0.00077035266 0.022652889 -0.079568066
-0.06212173 -0.061594803 -0.016591782 -0.054194115 -0.011803603 -0.10330801 -0.015518436 -0.03565894
0.004778684 0.08823987 -0.03847176 0.03348645 -0.07216437 0.07464188 -0.06995421 0.008666383
-0.097151734 0.0735481 0.048626628 -0.006218953 0.097198226 -0.09657596 0.058406696 0.060395442
0.054007415 -0.057924863 -0.011950743 -0.0699118 0.09458832 0.050197378 -0.0440235 -0.06646657
0.050839227 -0.046228874 0.042817388 -0.057634804 0.030369835 0.0028399485 0.053000677 -0.035930663
0.05542329 -0.07535186 -0.06847767 -0.03402342 -0.09279601 0.068825245 -0.04025114 0.06905866
0.011042729 0.07605068 0.0894921 0.07831441 -0.10272336 -0.02210648 0.081930436 -0.0013410079
0.035622407 -0.025073214 0.0031021673 -0.06774818 -0.053916067 0.0564961 -0.036975157 0.017201839
0.10130216 -0.0018771864 -0.06352312 0.08291942 0.0049284883 -0.02845016 0.08016479 0.05302642
0.043012083 -0.03775988 -0.012848603 0.055788353 -0.013542846 0.026202476 0.009467988 -0.045895554
-0.034055144 -0.034656975 -0.10782816 -0.0043862252 0.00016121654 -0.055988286 -0.07037173 0.050227676
-0.07666642 0.08352757 -0.0033389097 0.057666708 0.0129426895 0.08794462 0.038923338 0.07103754
-0.009031166 0.08990536 -0.09100497 -0.073424645 0.024993774 -0.036059916 -0.06978168 -0.079334185
-0.009682657 0.04377811 -0.0078013847 -0.046283033 -0.03529988 0.082032986 0.087985285 0.0485493
0.097677045 -0.06168262 -0.08893575 -0.0025660817 -0.00016304028 -0.07009074 0.008665423 -0.080001846
-0.008621234 0.023889923 -0.058541995 -0.07640969 -0.0571224 -0.012598502 0.0165766 0.015056485
-0.062466275 -0.07134518 0.044189204 -0.046600565 -0.052961163 -0.016380645 0.07224436 0.012461474
0.04273079 0.05233151 0.034764092 -0.041942324 0.056860622 -0.058582213 0.072492 -0.011004163
-0.049826488 0.064913265 0.033204976 -0.06363754 0.10769182 0.07499788 0.021609856 -0.014576248
0.07534691 -0.017077629 -0.017095841 0.008718111 0.071152665 -0.016193572 -0.0058855605 0.029269861
0.0012366928 0.039242953 -0.006411126 0.015406975 0.055471018 -0.04008812 0.05404068 0.084391765
0.006409663 -0.09176842 0.093292475 0.06505882 0.08854775 -0.09531348 0.10289243 0.06451737
-0.09287325 -0.061985597 0.083975226 -0.08357388 -0.0921876 -0.032318633 -0.12209139 0.06318215
-0.003001754 0.042969868 -0.06283808 -0.07167348 -0.051727235 0.037770543 -0.06763045 0.09562266
0.018362897 0.016771918 0.0758744 -0.009836923 -0.057929404 -0.010599788 0.01673617 -0.06736045
-0.08795121 0.014835437 0.10496766 -0.06744624 0.07346653 0.006262502 0.084963545 0.082013935

encode_res_dense_blocks.1.conv1.conv.bias f4 [32]
00000000: cdfb ba3d d612 af3d 7db2 243d f097 8e3d
00000010: 7168 30bd e560 7dbd e90b 1e3d f329 bf3d
00000020: bdc9 86bb 83ab 71bd 1177 673d 24f5 db3c
00000030: 9c14 cfbc 709a 20bd 4088 8a3d 7569 dd3b
00000040: 75a8 1b3d f9a1 25bd ee57 8fbd b0d1 18bc
00000050: e9a7 b23d ce27 f13d 66b3 9e3c 911a 813d
00000060: 2b11 43bb f936 80bd 3660 c6bd 0728 773d
00000070: c87c aebb 63ef 0ebc 1d05 1d3d 5491 c33c
0.091300584 0.085485145 0.040209282 0.069625735 -0.043068353 -0.061859984 0.038585577 0.09334173
-0.0041134045 -0.059001457 0.056510035 0.02685029 -0.025278382 -0.039209783 0.06764269 0.006756956
0.03800245 -0.040437672 -0.06999193 -0.009327337 0.087234326 0.1177517 0.019372653 0.06303895
-0.0029764872 -0.06260485 -0.096863195 0.060340907 -0.0053249337 -0.008724066 0.038334955 0.023873009

encode_res_dense_blocks.1.conv2.conv.weight f4 [32, 32, 3]
00000000: 87da bb3d 1117 bfbd f13e 6d3d 5986 ebbc
00000010: 94a3 263c b5c2 3e3d 2372 b3bb 1d3e 293d
00000020: 587e af3d 5f19 30bd a4d3 bfbd 9340 8c3d
00000030: 4aee 5b3d 1bc7 98bb c9b3 983d 1796 6dbd
00000040: 71c4 14bd c9cf f83a bffb 86bc e88f e9bc
00000050: 1ba3 8fbd 78ea 973a 4d96 85bd c467 86bd
00000060: 79b1 b4bd 1f4f 683d 212b 0c3c 0330 9c3d
00000070: 316c a93d d31f 153d 689e 8a3d 8b73 48bb
00000080: 8678 1dbd edc4 7abd 07a1 1ebd 9186 d63d
00000090: f5ca 1dbd bcfb 81bc 2319 9e3d c9af 313d
000000a0: ed93 833d af31 2a3c fa05 c33d ffc4 9b3d
000000b0: f42c 0dbd 9148 f63c ac4f c23d 1fbc 583c
000000c0: 14be 093d 554f 4a3d 070f c03d 35a8 12bd
000000d0: 14d9 92bc 824a c1bc 81af 35bd c68c 91bc
000000e0: ada0 a1bc 8e2b 7e3d f9a8 b83d 6b39 b3bd
000000f0: 7e7c 9d3d 31d5 83bd 382e a53d 9143 97bd
00000100: 8f39 8b3d 608f 833d 53eb a93b 2c3b 5a3d
00000110: f0a7 003d c236 1dbd c1a0 81bd 737f 153d
00000120: 45a5 53bd 74df 5abd 19d4 933d fb7f c03d
00000130: 7c4a 64bd a9c5 b9bd 70b7 b6bd 623f 1bbc
00000140: 69c0 90bd ba71 ae3d e811 53b8 d488 5f3d
00000150: b114 4fbd 84e7 c4ba f418 863d a722 f2bc
00000160: 94ee a9bd b546 ad3d 9d1c 813d 4d05 bb3d
00000170: c3fe 20bd c089 863d e797 81bc 8e4d b63d
00000180: 8bbb acbd bd5b 673d 502b 8abd d55a 98bd
00000190: 9f30 5bbb 20d0 65bd 8c56 cfbd 3bd8 aabd
000001a0: 9798 f8bc 4bbd 99bd 81a2 283d 32f2 1abd
000001b0: 942a 473c 537f adbc 7cc2 8b3d 7857 2ebd
000001c0: 121a 263d 85ae 673d 20b6 9bbd 3be8 893d
000001d0: 6b8a 263d d374 61bd 8b48 b83d 2186 05bd
000001e0: 68e8 32bd fd6a 0ebd 1668 b33d a232 b93d
000001f0: a3be 0abd 82dd 823c e842 87bd 9399 e73c
00000200: 0e62 d1bd a311 713b 7de2 3fbd 20f8 70bd
00000210: 1466 e23c cf93 1d3d 4151 2dbc 50c3 493d
00000220: 17a4 ba3d 5164 e93c 2f18 cfbd aecf edbc
00000230: 4bad a5bc 55cc 3b3b 7558 c6bc 7fa7 fbbc
00000240: be72 aebd 3e02 b2bd 3e31 51bd b551 cb3c
00000250: 643d 72bc 7629 b73d 2543 48bd e8c9 babd
00000260: 4821 6a3d 9144 833d 72a8 7bbc 78ff b1bd
00000270: ada7 74bc dd14 9dbd 7c24 1b3d 0176 a6ba
00000280: f2d0 79bd 27c2 243c a285 ba3c 54ae 93bd
00000290: 143f 81bc 7ed1 153c 8868 cfbd 91b5 a63d
000002a0: 8842 e3bd f108 8a3b e781 9e3d c123 a83d
000002b0: b3f9 2d3d 00da cdbd 14db b93d dcbd 05bc
000002c0: e7a0 ac3c 585b c0bd dcfd 903d b361 653c
000002d0: 3545 57bd 1399 adbd 50aa bb3d c2ce 433d
000002e0: 7cdc 84bd 2b8e c3bd 4802 7cbd 018c 52bd
000002f0: efd3 bbbd 8c59 143d 8988 cb3d 641a abbd
00000300: 7fde e73c 4c7c acbc ddc4 06bd 6dcd 213d
00000310: 6a37 163d c2ad 983d 5a1e 80bd 9d39 1c3d
00000320: 827c ae3d b21b 013d 25e7 9a3d d148 07bd
00000330: 8df4 4abb d857 60bd 345b 373d 0925 443c
00000340: ef31 d0bc bd5e 9abd a8d4 df3d 26fd 503d
00000350: 77a6 aebd 7eab 2d3d 7c2b 743c 6ec8 d3bd
00000360: 0851 8d3d 5167 7bbd 026e 0f3c 3873 03bc
00000370: 8592 b5bd e930 863d 1219 2abd 33d9 e43b
00000380: ad6b b43d fa13 adba f595 b5bd 2e6e 44bd
00000390: 4cf2 e8bd 13b9 b63d f4b7 90bd f478 64bd
000003a0: 41ca 913d 8be9 f5bc 1b19 96bb 1f60 ccbd
000003b0: 8803 abbd 7cc9 ebbc a458 a23d 0de8 4abd
000003c0: cb6e 7cbd cf0d a83d e571 c0bd fd59 b23d
000003d0: 19ec 3ebc a214 bebd 4fb3 24bd 04be 91bd
000003e0: 139d 303d c558 c33d 4c4f eebc dc7e 9f3d
000003f0: 0963 b2bc 090c 533d 3f29 59bd de60 97bd
0.0917254 -0.093305714 0.057921354 -0.028750585 0.010170836 0.046572406 -0.0054762526 0.041319
0.0856902 -0.042992946 -0.09366539 0.06848254 0.053694047 -0.004662407 0.07456166 -0.058004465
-0.036320154 0.0018982823 -0.016477464 -0.028511003 -0.07013532 0.0011590263 -0.06522808 -0.065627605
-0.08822913 0.05671608 0.008555205 0.07626345 0.08272589 0.036407303 0.06768495 -0.0030586447
-0.03844502 -0.06122296 -0.038727786 0.10474885 -0.038523633 -0.015867107 0.07719638 0.043380532
0.06424699 0.010387822 0.09522624 0.076059334 -0.0344667 0.0300639 0.094878525 0.013228445
0.03362854 0.049392063 0.09377866 -0.035804946 -0.017925777 -0.023595098 -0.044356827 -0.017767321
-0.019729936 0.062053256 0.09016604 -0.08751186 0.076897606 -0.064371474 0.08065456 -0.07385934
0.06798088 0.06423831 0.0051855235 0.053279087 0.031410158 -0.0383823 -0.063294895 0.0364985
-0.051671285 -0.053435758 0.07218189 0.0939941 -0.055735096 -0.09070904 -0.08921707 -0.009475561
-0.07067949 0.08517785 -5.0322997e-05 0.05457385 -0.050556842 -0.001502261 0.06547728 -0.02955754
-0.08297458 0.08460752 0.06304286 0.091318704 -0.03930546 0.065692425 -0.015819503 0.08901511
-0.084342085 0.056483973 -0.067465425 -0.074392 -0.0033445728 -0.056106687 -0.101239294 -0.08342024
-0.030346198 -0.07506808 0.0411706 -0.03782863 0.0121561475 -0.021178877 0.06824204 -0.042563885
0.040552206 0.05656292 -0.07603097 0.067337476 0.04065935 -0.055043053 0.089982115 -0.03259862
-0.04367867 -0.03477 0.08760087 0.090428606 -0.03387321 0.015974764 -0.06604558 0.028271472
-0.102237806 0.0036784194 -0.046846855 -0.05883038 0.027636565 0.03847104 -0.0105784545 0.04925853
0.09113329 0.028490217 -0.101120345 -0.029029693 -0.020224234 0.0028655727 -0.024212101 -0.030719517
-0.08517979 -0.08691834 -0.05107235 0.024819234 -0.0147851445 0.08943455 -0.04889216 -0.09120542
0.057160646 0.064095624 -0.015359985 -0.08691305 -0.014932555 -0.07669995 0.03787659 -0.0012699963
-0.06099028 0.010056055 0.0227688 -0.07210985 -0.015777148 0.009144185 -0.1012736 0.081401
-0.11096674 0.0042124917 0.07739621 0.082099445 0.04247446 -0.10051346 0.09074989 -0.008162942
0.021072818 -0.093924224 0.0707967 0.014000344 -0.052556235 -0.08476462 0.09163344 0.0478046
-0.064873666 -0.09548601 -0.061525613 -0.05140305 -0.091712825 0.03621821 0.099381514 -0.08354643
0.028304337 -0.021055363 -0.032902587 0.03950255 0.03667394 0.07455017 -0.06255789 0.03814088
0.08519842 0.031520553 0.075636186 -0.033028428 -0.0030968518 -0.054771274 0.044764712 0.0119717205
-0.025414435 -0.07537601 0.10929233 0.05102267 -0.085278444 0.042399876 0.014902946 -0.10340963
0.06900221 -0.061377827 0.008754255 -0.008023076 -0.08865837 0.065522976 -0.041527815 0.0069839
0.088096 -0.0013204806 -0.08866493 -0.047956638 -0.113743395 0.08922019 -0.07066336 -0.055779412
0.07118655 -0.030018589 -0.0045806295 -0.09979271 -0.08350283 -0.028782599 0.07927063 -0.049537707
-0.061629098 0.08205759 -0.09396724 0.0870857 -0.01165297 -0.09281279 -0.040210065 -0.07116321
0.043118548 0.09538416 -0.029090546 0.077878684 -0.02177574 0.05152515 -0.05301785 -0.07391523

encode_res_dense_blocks.1.conv2.conv.bias f4 [32]
00000000: 9f0e 48bd 562d 4abd edbb 933d 6cf3 10bd
00000010: 4595 1bbd c8c7 04ba d83a 903d 83fb 943d
00000020: ec20 18bd 33b1 2dbc 9598 c63d c486 923d
00000030: b56d 973d 5d19 8fbc 6fb0 dd3d eb99 c83d
00000040: ff83 d8bc 93b4 873d f691 7d3d cf31 273d
00000050: 9cee 033d 532a 0a3d 804e 1dbc cbfd 92bd
00000060: a1be 923d 966a 193d 269e 993d ad6e efbb
00000070: 7f49 453d 1ffc ed3c 8244 4d3c 5fa8 443d
-0.04884207 -0.049359642 0.072135784 -0.035388395 -0.03798415 -0.000506517 0.070424736 0.072745346
-0.03714077 -0.01060133 0.096970715 0.07154611 0.07393972 -0.017468149 0.10824668 0.097949825
-0.026430128 0.06626239 0.061906777 0.040818986 0.032209978 0.03373177 -0.009601235 -0.071773134
0.07165266 0.037455164 0.075008675 -0.0073068948 0.048165794 0.029050885 0.012528541 0.048012134

encode_res_dense_blocks.2.conv1.conv.weight f4 [32, 32, 3]
00000000: 401b 96bd fab8 d1bc 93c6 d03c a17a 9c3d
00000010: 33d8 3d3c 19eb f5bc ef7d 3b3d 391d f93c
00000020: f3e4 70bd bbd6 533d 6861 dbbd ec7e 9c3c
00000030: f59b 3b3d df1f 033d 0357 0f3d da66 80bd
00000040: 9664 17bd 1684 163d b24a 173d 6496 f8bb
00000050: f37e bf39 6b35 77ba bcb1 5a3d 1a94 c0bc
00000060: 5ba9 44bd 086a cdbd bf0b 3c3d a239 76bd
00000070: 90b1 a2bd 6122 713c b2c6 973d 3329 b8ba
00000080: 3799 2d3d 317b 573d d616 efbc b7af 523d
00000090: eb27 9a3c 6ce2 7f3d 1204 903b b69b aa3d
000000a0: 6241 4a3d 0aa8 b4bd 616c ed3c 4ff0 62bd
000000b0: 4411 c7bb fd2e 583d c327 a03c d355 9d3a
000000c0: e817 663c 7ad2 4cbc c88d 893d 8577 4fbd
000000d0: bbe8 9b3d c1e5 b73d 1e3e 20bd 8b92 99bd
000000e0: 99af 9abd afc6 6d3d d131 603d 78ce cbbc
000000f0: 8d85 333d 20e9 f9bc 1857 27bc f834 24bd
00000100: ce31 873d 1b4c 50bb 796b b9bd e936 79bd
00000110: a764 cbbd cc26 b5bd 5fe5 2dbd 77e2 0dbd
00000120: c55c 8abb 1e24 2cbd 067c e93a 3877 c03d
00000130: e66e 403d fbc9 b23d eda5 913d 5929 cfbd
00000140: 893e 89bd dccd d2bd 256b afbd 6d32 c1bd
00000150: ccc1 683c 5d08 9fbd dc65 2bbb 2776 d73c
00000160: ec73 9d3d 7bd8 93bc cee4 abbd 8420 a13d
00000170: a9e6 583d 58fc 54bd f808 b33c 5035 08bd
00000180: 45e2 a5bc d3c8 ae3d d39c 83bd ffab 42bd
00000190: aab3 543d 4ba8 833d 40ee 96bd a57b 5abd
000001a0: fd68 a5bd 84e9 9c3d 8753 3b3d e1b3 963b
000001b0: 79d2 c03c e2a3 823d b302 9b3c 1553 083d
000001c0: c1ba 373d 2237 86bd 7863 b43c 05bf 75bd
000001d0: c600 2abd 86a4 513d a194 a63d 37d8 cb3d
000001e0: 3a3d 983d c6ee f73c 5ada 6dba 8829 dd3d
000001f0: 29ef 4d3c c348 7bbd ee4b c23c 9b41 bf3d
00000200: e2c1 5a3d c929 743d 53d0 8aba 4b71 3c3c
00000210: 23b0 103d c455 28bb 0fad 1bbd 5d71 8abd
00000220: fe32 053a 2c1f fa3c b8e8 d13d bb71 6a3d
00000230: bd5d 66bd d629 7c3d 1daa 0dbd 7a18 473d
00000240: daaf 91bd 2956 c1bd d222 633d a03e e4bc
00000250: e04f 7f3c 57c1 2c3d 148c f8bb 3ff1 9cbd
00000260: f268 bd3d 3d84 2e3d a181 0e3d e29a 9bbd
00000270: ac29 1bbc 63d8 1d3d 8f21 acb9 29e5 aabd
00000280: 356c 73bd 99da c8bd 575c 68bd 9f02 9cbc
00000290: ee11 893d c27c 383d a810 c9bc e11c 883b
000002a0: 8534 fb3c 0342 2a3d 7205 abbb 12f5 093d
000002b0: e527 c83d 8a19 963b 3d65 d33d 211f 9d3c
000002c0: 4d58 c8bd b914 563d 801d 9ebc b98a 7f3d
000002d0: bb00 4839 3c3e 8ebd 0a3d 44bd d72d 9c3d
000002e0: 2320 58bd 052f a03d bf1c 2abd 50ce e03d
000002f0: 7cba 8f3d d4ea 1fbc 59bf 1a3c aed7 9d3d
00000300: 55b4 43bd 2106 593c 17ea 7dbd f210 063d
00000310: f247 823d 2bb9 7b3d 3e65 abbd 9385 a6bd
00000320: c3a5 0e3c 8bc3 46bb bc1a 023d da7c d7bb
00000330: 68d8 b23c c219 2fbd 13b8 21bd 9692 83bd
00000340: c7f2 a63c 9e7e 3e3d 9dcb b23d f520 87bd
00000350: 171b 96bc 37fa 00bd 4d6f 9e3d 6067 d2bd
00000360: 93f0 153b ebd1 22bd 9592 893d fe70 02ba
00000370: 7f9b 3b3b 149c 61bd 1e63 0e3d 8c13 85bb
00000380: 8bef c63d faaf 0dbd c8c1 173d 4ef2 6a3d
00000390: 6ef1 3fbd 8ea0 cf3d aa32 44bd 51fe 9bbd
000003a0: 06fb 233d 7822 eabc 643b c3bd af7a bf3d
000003b0: 3389 773d 8be4 75bd a8fd e7bc 0550 913d
000003c0: 1770 f8b7 8bd3 2ebd 7c5f d1bc 3075 c8bb
000003d0: 08b2 113c 49a7 c23d 2ac0 343d 75b0 253c
000003e0: 673a cd3d 223e 07bd 5940 28bd 34da 8fbd
000003f0: dd0d 64bc 41cb 68bd b8e1 243d deb4 91bd
-0.07329416 -0.025600899 0.025485313 0.07640577 0.01158719 -0.03001933 0.045774397 0.030409442
-0.058812093 0.051718455 -0.10711938 0.01910349 0.04580303 0.032012817 0.03499509 -0.062696174
-0.03696116 0.03674706 0.03693647 -0.0075862873 0.00036524943 -0.0009430262 0.053392157 -0.02350812
-0.048013072 -0.100299895 0.04590964 -0.060113557 -0.079440236 0.014717669 0.07410945 -0.0014050364
0.042382445 0.05260772 -0.029185694 0.051437106 0.018817862 0.062471792 0.0043950165 0.08330481
0.04937876 -0.088211134 0.028982343 -0.055404957 -0.0060750563 0.052779187 0.01955021 0.0012003727
0.014043786 -0.012501353 0.06716496 -0.050651092 0.07612749 0.08979369 -0.03912174 -0.07498654
-0.07553024 0.058050808 0.05473501 -0.024878725 0.043828536 -0.03050667 -0.010213636 -0.040089577
0.06601296 -0.0031783644 -0.09053702 -0.060843382 -0.09931307 -0.088452905 -0.042455073 -0.0346398
-0.004222485 -0.04202663 0.0017813451 0.09397739 0.04698076 0.08729931 0.07111726 -0.10115308
-0.06701381 -0.10293171 -0.08565358 -0.09433446 0.014206361 -0.07765267 -0.0026153242 0.026301457
0.07688126 -0.018047562 -0.083932504 0.0786753 0.05295435 -0.051998466 0.021854863 -0.033253968
-0.020249495 0.08534398 -0.06426396 -0.04752731 0.051929154 0.06428584 -0.07369661 -0.053340573
-0.080766656 0.07661727 0.045733955 0.00459908 0.023537861 0.063789144 0.018922186 0.03328236
0.044855837 -0.065534845 0.022020087 -0.059996624 -0.041504644 0.051182292 0.081338175 0.09953349
0.07433553 0.030265223 -0.00090733694 0.10798937 0.012569227 -0.061348688 0.023717847 0.09338685
0.053407557 0.059610162 -0.001059065 0.0115016205 0.035324227 -0.0025685886 -0.03800684 -0.067599036
0.0005081146 0.030532442 0.10249466 0.057237368 -0.05624174 0.061563335 -0.03458606 0.048607327
-0.07113619 -0.09440262 0.05545313 -0.027861893 0.0155830085 0.04217657 -0.007585058 -0.076632015
0.09248532 0.04260658 0.034791593 -0.07597901 -0.009470385 0.03853644 -0.000328314 -0.0834449
-0.059429366 -0.09807319 -0.056728687 -0.019044219 0.06692873 0.045040853 -0.024544075 0.0041538333
0.030664692 0.04156686 -0.005219155 0.033680983 0.09773234 0.004580681 0.10322044 0.019179882
-0.09782467 0.052265856 -0.019301176 0.062388156 0.00019073758 -0.06945464 -0.047909774 0.07625931
-0.052765023 0.07821468 -0.04153132 0.10976851 0.07017991 -0.009760577 0.009445035 0.07707153
-0.0477794 0.01324609 -0.061990824 0.032731004 0.06361379 0.061455887 -0.0836892 -0.08130946
0.008706513 -0.0030328955 0.031763777 -0.0065761628 0.021831706 -0.042749174 -0.039482187 -0.064244434
0.020379437 0.04650747 0.087302424 -0.06598083 -0.018323464 -0.031488623 0.07736073 -0.102736235
0.002287899 -0.039750975 0.067174114 -0.00049759436 0.0028626618 -0.05508049 0.034762494 -0.004061168
0.09713658 -0.034591652 0.03705004 0.057359986 -0.046861105 0.10138045 -0.04789988 -0.076168664
0.040034316 -0.02858089 -0.09532812 0.09349572 0.060433578 -0.06003241 -0.028319195 0.07095341
-2.96161e-05 -0.04268221 -0.025558226 -0.0061174855 0.008892544 0.09504563 0.044128574 0.010112871
0.10020905 -0.03301824 -0.04107699 -0.07024041 -0.013919321 -0.056834463 0.040254325 -0.07114576

encode_res_dense_blocks.2.conv1.conv.bias f4 [32]
00000000: f5d6 823d dd10 abbd 8666 89bd a338 1fbd
00000010: eefb 79bc 244f 42bd ebd5 0f3c 1e71 acbd
00000020: 1c5f 82bd 2d88 4fbc a495 b83c 9bc0 b7bb
00000030: 2868 473c 946b 87bd adfe 363d effe 1a3c
00000040: 8e00 a33d 3838 e43c 5ad4 503d c1ef 003d
00000050: 8780 2c3d e8fe 6c3d cd3e 73bd 488f 9cbd
00000060: 141e 793d 682a c03d 3413 84bd b2bf 55bc
00000070: bbc1 3dbd 9078 4c3d 3e12 ed3c 23dd a8bd
0.06388656 -0.08352826 -0.06709008 -0.038872372 -0.015257819 -0.047438756 0.008779029 -0.08420013
-0.06365797 -0.012666744 0.022532292 -0.005607677 0.012170829 -0.06612316 0.04467647 0.009460195
0.0795909 0.027858838 0.050983764 0.031478647 0.04211476 0.057860285 -0.059386063 -0.07644516
0.0608197 0.09383088 -0.06448975 -0.013046192 -0.046327334 0.049919665 0.028939363 -0.082453035

encode_res_dense_blocks.2.conv2.conv.weight f4 [32, 32, 3]
00000000: c3a9 0cbd 8a89 dc3c 1c7b 0d3d 06b8 20bd
00000010: 0211 093d 643e 87bd 7a9a bf3d 6211 7cbd
00000020: 628e cfbd 090d a0bd a872 5abd 8fa8 c1bd
00000030: 8896 b63c a4d7 63bb ddfd d43d 040b aa3d
00000040: 6f91 84bc 7f44 a33d fc65 45bd 0ecd 383d
00000050: b96e 25bd 30c1 9fbb 816e a43d b006 633d
00000060: 63a8 053c cb33 b13d cefc 29bd ab7d 21bd
00000070: 6c9b 5f3d c848 aabd a0fc 883d 5ec0 ab3d
00000080: cbb8 86bd 63a9 e73c e8f7 bcbd daa2 b73d
00000090: ac15 98bd c3c9 9b3d e9e6 0a3d 95e6 03bd
000000a0: 15e4 1f3d 7ffb 2fbd c8d9 2b3d 36d9 6c3d
000000b0: 7794 abbd 79c8 923c b467 a1bc 8554 6e3d
000000c0: d8b8 793d 712b 0b3a 6894 9b3d e3e6 5dbd
000000d0: 5114 8ebc a8f2 adbd 8853 c4bd ab77 c6bd
000000e0: 0369 a03d 311a 55bc e3c6 a6bd a91a 91bd
000000f0: 0408 9bbc 06f4 7f3d 0f1b d43d 805a 2a3d
00000100: 1d18 3e3d a66e 9dbd a7a0 033d 6774 9cbc
00000110: 087e b03d 103e 01bd 82a1 b9bd f731 a7bc
00000120: e447 9dbd 38b9 8b3c d23d a2bd 4f05 c33d
00000130: f0a3 a83d b00f 1a3d 06f7 87bd 615e e6bc
00000140: 62e9 393c 09f8 7ebc 4c09 013d 7286 443c
00000150: cff8 bebd e591 29bc c6ab cf3d e314 143d
00000160: c58d b6bd 73e1 433d e366 8a3d 676c 8d3d
00000170: 477b 993d 091e 98bd 8940 863b 7fb3 3b3d
00000180: ac6d 68bd 48fe 5cbb 15be c9bc f039 a63d
00000190: 7c80 7ebd 9dc4 05bd 82ce 5e3d 4e36 c43d
000001a0: 10b8 213d cab8 d2bd 367a 823c bcea 4dbd
000001b0: a3ab cabd a64a af3d d309 743d 23cc 0d3d
000001c0: 59df b63d 0db4 323d 5803 313d e483 333d
000001d0: be24 b73d cb38 02bd 4453 80bd 2de8 63bd
000001e0: 827c 183d 39be 593d 62a6 b2bd 406a 1abc
000001f0: c4c5 abbd 0598 79bd aa3f 6d3d 1806 b43d
00000200: 2058 943d 9025 493c 957a 6bbb 3ec1 723c
00000210: ed28 4c3d 56e8 73bd 6620 153d 7351 45bd
00000220: 31f6 9cbd c399 3fbd 3864 8d3d e85f 8bbd
00000230: c4f5 10bd 72bf cb3a e8ee 903d 8930 5fbb
00000240: 3363 f03c 611f 09bb 2a4e 46bd 5971 733d
00000250: 34dd 33bd cd0f 1a3d e44c c83d bb7c aa3d
00000260: 65c7 61bd db81 3b3d c479 95bd 0b3a 22bc
00000270: 7ebc 2b3c 3191 e43b 6f83 b6bd 4e74 b2bd
00000280: e0ce b33d 4456 883d 5402 9a3d a297 4d3d
00000290: f176 50bd d0ff db3d 95d5 813d f644 75bd
000002a0: b0da 283d 7f8b 9fbd dc41 04bd 504e 9c3d
000002b0: 0de2 a7bd f7c3 bbbc 01e5 333d f77b 863d
000002c0: 12f2 c0bd 8355 66bd 7690 c13d d66b 003d
000002d0: 7e74 f7bc a388 8bbd c73a dd3c 0a2f 35bc
000002e0: 603f afbd 68f1 bcbd 9a5e 903d a3e2 063b
000002f0: 7d43 bd3d 43d5 ed3c f913 e83b 017b 5c3d
00000300: 9dce 80bd af89 923b 2e88 70bd a9bf 07bd
00000310: 3d65 c4bd 8e23 723d 05ee 34bd 633d 633d
00000320: a9ec 41bd 96f1 91bd d95e 09ba 7891 343c
00000330: 97e5 9cbc 77c7 ae3d d49d 983d 8a3d 193d
00000340: 4471 853d 0efe 353d 1ba3 e03c 0f7e d93d
00000350: 11e1 aebd 130e 05bd 6025 a4bd d970 aabd
00000360: 3fde 043d 43df a2bc 5ab6 323d d174 82bd
00000370: 207b 75bc 88e0 c3bd b128 43bd 9636 1abd
00000380: 80d3 cdbd 904e a73d bf15 383d fdfa 84bd
00000390: 9318 32bd bf1b 633d d6bf 82bd 887e 89bd
000003a0: 28a8 a5bc 0223 bebc e9f3 ff3c 6f7b cb3d
000003b0: 0bb3 aa3d bc42 403d 6037 11bc bc45 c93d
000003c0: 37bf 97bd 516c b0bd 23c9 b5bc ef07 803d
000003d0: 3e1a 1dbd d700 643c 1dcb e73b 78f1 acbd
000003e0: 81c5 d63c ca75 c03d c416 bc3d 3104 d33d
000003f0: 9614 a03d 3a68 a63d 91a2 61bd 1b34 d4bd
-0.034341585 0.026921052 0.034541234 -0.039238 0.033463486 -0.06603697 0.09355636 -0.061540015
-0.10134579 -0.07814986 -0.053332 -0.09455978 0.022288576 -0.0034765983 0.10399983 0.08302882
-0.01618263 0.07972049 -0.048192963 0.04511743 -0.040388796 -0.0048753247 0.080288894 0.0554263
0.008157822 0.08652457 -0.04150086 -0.039426487 0.05459158 -0.08314663 0.066888094 0.083863005
-0.06578215 0.028279012 -0.09226972 0.08966608 -0.074260086 0.07606842 0.03391162 -0.032202322
0.039035875 -0.042964455 0.04195574 0.057824336 -0.08377927 0.017917858 -0.01970277 0.058186073
0.060967296 0.00053089025 0.075966656 -0.05417527 -0.017343672 -0.08493549 -0.09586245 -0.096907936
0.078325294 -0.013006733 -0.081434034 -0.07085163 -0.01892472 0.06248858 0.103567235 0.041590214
0.046409715 -0.0768712 0.032135632 -0.019098474 0.086177886 -0.031553328 -0.09064008 -0.020409567
-0.07679728 0.017056093 -0.079219475 0.09522497 0.082343936 0.037612617 -0.06638913 -0.028121175
0.011347147 -0.015562066 0.031503007 0.011994945 -0.093248 -0.010349725 0.10140185 0.03615273
-0.08913759 0.047822427 0.06757905 0.06905442 0.074942164 -0.07427604 0.0040970487 0.045825478
-0.056745216 -0.00337209 -0.024626771 0.081165195 -0.06213425 -0.03265821 0.05439616 0.0958067
0.039482176 -0.10289152 0.015927415 -0.05027269 -0.09896018 0.0855916 0.05957968 0.034618508
0.08929319 0.04362874 0.04321608 0.043826953 0.08942555 -0.031792443 -0.06265882 -0.055641342
0.037228115 0.053159926 -0.08723141 -0.009424746 -0.0838733 -0.060935993 0.057922043 0.08790225
0.07243371 0.012277022 -0.003593122 0.01481658 0.049843717 -0.059547745 0.03640785 -0.04817338
-0.07664145 -0.046777498 0.06903881 -0.06805402 -0.03539063 0.0015544726 0.07076818 -0.0034056029
0.029344177 -0.0020923244 -0.048414387 0.05943427 -0.043912128 0.037612725 0.09780291 0.08324572
-0.055121798 0.045778137 -0.072986156 -0.009901534 0.010481952 0.006975316 -0.08911788 -0.087135896
0.08779693 0.06657079 0.07519975 0.050193436 -0.05089468 0.10742152 0.06339566 -0.05988022
0.04122418 -0.07790279 -0.03228937 0.076321244 -0.08197413 -0.022920592 0.043919567 0.06566613
-0.09421171 -0.056233894 0.09451382 0.03135284 -0.030206915 -0.06813171 0.027005566 -0.011058578
-0.0855701 -0.09225732 0.07049294 0.0020581863 0.09241388 0.029032355 0.007082459 0.053828243
-0.06289408 0.0044719796 -0.05872362 -0.033141766 -0.09589622 0.05911594 -0.044172306 0.055478465
-0.047344837 -0.07126157 -0.00052402687 0.011021011 -0.019152446 0.08534139 0.07451978 0.037412204
0.06515744 0.04443174 0.027421525 0.10619747 -0.08539022 -0.032484125 -0.08014941 -0.08322305
0.032438513 -0.01988185 0.043630935 -0.06369937 -0.014982969 -0.0956431 -0.04764623 -0.037649713
-0.10050106 0.081692815 0.044942614 -0.06493185 -0.043480467 0.055446383 -0.06384246 -0.06713587
-0.020221785 -0.023210052 0.031244235 0.099356525 0.08334931 0.046938643 -0.0088633 0.09827754
-0.07409518 -0.0861441 -0.022190636 0.06251513 -0.038355105 0.013916216 0.0070737735 -0.08444494
0.026217224 0.093974665 0.0918403 0.10303534 0.078164265 0.081253484 -0.055086676 -0.10361501

encode_res_dense_blocks.2.conv2.conv.bias f4 [32]
00000000: 6dee 493d 51de a3bd 5a8a 923c e13c a2bd
00000010: 8d12 60bd 5b30 cd3d f1d2 8ebd 0f8e b0bc
00000020: ef8f abbd eaa0 703d 2bf7 b13d d56b f9b9
00000030: 75e7 f3bc 7bad 6bbd 3c2f afbd 6a15 363d
00000040: 2694 623d 69ed eb3c 9998 4d3d 016f 3dbd
00000050: 905d 003d a029 db3c 682c 0d3d f34a 6bbd
00000060: a9fc d73d 789b 123b 5255 a1bd ddf9 a83d
00000070: 574d bf3d c5da 583d f7d3 793d aba8 6d3d
0.049299646 -0.08001388 0.017888237 -0.07921768 -0.05470519 0.10018989 -0.06973828 -0.021552114
-0.083770625 0.05874721 0.08689722 -0.00047573322 -0.029773453 -0.05753849 -0.08553931 0.044454016
0.055317067 0.02879973 0.050194357 -0.04624844 0.03133923 0.026753247 0.034466177 -0.057444524
0.10546238 0.0022370499 -0.07877602 0.08250783 0.09340923 0.05294301 0.06099316 0.058022182
